PythonClient/reinforcement_learning/ROS/1-2024-05-06.pth (torch, 38520 bytes, 3 tensors)

conv1.weight f4 [6, 3, 8, 8]
000000 6d 2f 60 3d dc d0 30 3d ca 6d 0a 3d 3a 49 3f 3a
       0.05473273 0.043167934 0.03379611 0.00072969834
000010 46 84 d2 bc a5 c0 7d 3d 35 20 62 3d 8f 9f 81 3d
       -0.025697839 0.0619513 0.055206496 0.063292615
000020 5f 9c 87 bd 9b 97 9d bd 76 f3 d0 bc 5e 9c 3d 3d
       -0.06621622 -0.07694932 -0.025506716 0.0462917
000030 14 95 62 39 42 64 c2 3c 6f 18 ec bc 53 fb 82 3d
       0.00021608575 0.023729447 -0.028820245 0.063955925
000040 1c 25 e7 3c 5e eb 29 3c a7 1d b3 bc 36 65 96 bd
       0.028215937 0.010371057 -0.021864725 -0.07343523
000050 3c c9 3a bd cd 62 cc 3c af cf 4f bd a3 5d 2c bd
       -0.04560207 0.024949456 -0.050735172 -0.042081486
000060 ce 81 e3 3c 0f cc 85 3c b8 c5 69 3c 02 f3 75 bd
       0.027771857 0.016332654 0.014268331 -0.060046203
000070 05 23 95 bd b4 3b 64 3b 8a 98 5a 3d 37 95 47 3d
       -0.0728207 0.0034825625 0.05336813 0.048726287
000080 76 18 36 bd 48 50 85 bd 5e 79 96 bd 40 f0 84 bd
       -0.04445692 -0.06509453 -0.07347368 -0.064911366
000090 d5 14 45 3d 65 9b 6a bd 23 82 32 3d 67 1e 5a 3d
       0.04811557 -0.057277102 0.04358114 0.05325165
0000a0 a6 df ab 3c 7f f1 db bc 94 f3 c3 39 fb 15 55 3d
       0.020980667 -0.026848553 0.00037374778 0.052022915
0000b0 98 9e 03 3d 38 8a 94 bb cc 71 8e 3d 2f 75 b5 3c
       0.03213367 -0.0045330785 0.06955299 0.022150604
0000c0 d8 79 87 bd 6e ea f8 3c 9c 58 91 3c 85 a6 5f bd
       -0.06615037 0.030385222 0.017742448 -0.054602165
0000d0 12 b1 5d bd 62 57 1c bc 95 37 be bb a1 55 3c bd
       -0.054123946 -0.009542318 -0.0058049657 -0.0459801
0000e0 2a 28 57 bc 17 f0 32 bd 6c cf 43 bd f1 e8 50 3d
       -0.013132134 -0.043686 -0.047805235 0.0510034
0000f0 44 13 6d bd 57 59 84 3d 3c 58 3a 3d 2a df 8f 3d
       -0.0578797 0.06462353 0.045494303 0.07024987
000100 0e ed 45 bd c6 1d 88 bd f1 b0 76 3d 44 1b 27 bd
       -0.048321776 -0.06646304 0.06022734 -0.040797487
000110 d8 84 a3 bc 0a 33 45 3d 7e 48 60 3d f5 01 3f 3d
       -0.019960806 0.048144378 0.054756634 0.046632726
000120 b1 bb 9f 3c 9d 70 27 3c c6 ce e2 3c 4f 70 7a bd
       0.019498678 0.01021972 0.027686488 -0.061142262
000130 54 f6 92 bb 92 e1 8d 3d f6 7c 1e bd 96 ec 9d 3b
       -0.004484931 0.0692779 -0.03869339 0.004819463
000140 b8 e5 8d bc 2b 7d 3b 3d c6 7d 7f bd 75 a0 0a 3d
       -0.017321452 0.045773666 -0.062375806 0.03384443
000150 e9 81 0d ba 63 05 6a bd d4 a0 ed 3c 5b 2b 46 3d
       -0.0005398081 -0.057134043 0.029007353 0.04838119
000160 ee 17 81 bd 45 1e 49 3d 9d ad 29 bd b9 f6 a9 bb
       -0.06303392 0.049101133 -0.041425336 -0.0051868823
000170 f8 f9 22 bd 26 1d f2 3b 99 52 a1 3c 68 78 38 3d
       -0.03978917 0.0073887287 0.019692706 0.045036703
000180 83 89 26 bb 9b be 09 bd 53 21 81 bd 4e 8f 80 3d
       -0.0025411553 -0.03362904 -0.06305184 0.06277333
000190 ea 78 24 3d 2b a4 14 bd 3b c7 d4 bc d0 42 18 3d
       0.040154375 -0.036289375 -0.025973907 0.037173092
0001a0 04 4c 52 3c 35 af 99 bc 78 5b 33 bd 09 f9 19 3c
       0.012835506 -0.018760303 -0.043788403 0.0093977535
0001b0 c0 70 2d bb 1e f4 39 3d 4b 02 9e 3d bc 8a 4e bd
       -0.002646491 0.045398824 0.07715281 -0.050425276
0001c0 55 4f 0a 3d 69 71 e7 3c ef 74 c8 3b 55 ac 26 3b
       0.033767063 0.02825232 0.006117455 0.0025432308
0001d0 b7 d3 9b 3b d0 d4 0c 3d 51 33 85 3c 5a b6 8c 3d
       0.004755463 0.03438264 0.016259821 0.06870718
0001e0 17 6f 8a 3c aa d9 2f 3c 8f 06 09 3d c3 26 15 3d
       0.016898675 0.0107330475 0.03345352 0.03641392
0001f0 e1 0a 97 3d 59 24 2d bc 9c d2 59 3c 1a 05 83 bd
       0.07375122 -0.010567748 0.013294842 -0.063974574
000200 c4 37 c6 bc a6 5f 08 bb 3b eb 83 3b c3 33 00 bc
       -0.024196513 -0.0020808964 0.0040258444 -0.007824841
000210 b4 43 8d 3d a5 7b c3 bc e1 ee 6a 3d ee 20 d8 bc
       0.06897679 -0.02386267 0.05735672 -0.02638289
000220 62 b5 ad 3c 98 b2 41 3d bd c9 9a bc 4a 70 8e 3c
       0.021204654 0.04728946 -0.018895024 0.017387528
000230 5d 11 93 3d dd 7c 10 bc 31 1a 5e bd 81 cb d2 bc
       0.07181046 -0.008818832 -0.054224197 -0.025731804
000240 a8 48 48 3d 6d b7 6c 3d 9c 2c fa bc 4e 52 4f bd
       0.048897415 0.057792116 -0.03053885 -0.0506156
000250 39 95 03 bc c7 09 99 3d 24 cc bf 3b 18 d9 f1 3c
       -0.008031183 0.07472568 0.005853193 0.029522464
000260 70 d2 ac bc 58 59 36 3d 56 30 4f 3c e9 ca 13 3d
       -0.021096438 0.0445188 0.0126458015 0.036082182
000270 68 48 d5 39 ab c6 c4 3c 98 b1 c8 bc b3 34 23 bb
       0.00040680473 0.024020514 -0.024498746 -0.0024903237
000280 43 41 dd 3c 18 6b 96 3b 99 ae 79 3c fc 44 36 3d
       0.027008658 0.0045904033 0.015239381 0.044499382
000290 64 0c ee 3c 1e aa 08 bd db 49 3e bc e8 a4 78 3d
       0.029058643 -0.03336536 -0.011614288 0.06070414
0002a0 f4 36 4b bc 19 6e 43 bd ff c1 a8 3b 36 63 f7 bc
       -0.012403239 -0.04771242 0.0051500793 -0.030198675
0002b0 a6 dd fc bb 92 6c cd 3c 45 6a a3 3d ad 35 8d 3d
       -0.0077168522 0.025076184 0.07979254 0.068950035
0002c0 a5 fc 12 3d 3a 77 18 bd c7 d9 79 3d 80 dd b3 bc
       0.03588547 -0.03722308 0.060998704 -0.021956205
0002d0 24 b2 26 3b 1c 5e 54 3d 29 9e 1a 3d fe 49 a0 3c
       0.002543577 0.051847562 0.03774849 0.019566532
0002e0 29 dd a8 3c 0a 89 8e 3d 13 07 83 3d 24 29 08 bc
       0.02061327 0.06959732 0.06397834 -0.00831059
0002f0 27 8a 82 3d 00 b3 36 3d 2a 52 b8 bc 3e 8a 1c bd
       0.06374007 0.0446043 -0.022500116 -0.038217776
000300 38 8c 27 bd 5c 6e 66 bd 47 2e b1 3c 8e b4 41 39
       -0.040905207 -0.05625759 0.021628512 0.00018473176
000310 47 ff ce 3c 89 11 69 bd 37 58 f5 bc bc c9 d3 3c
       0.02526821 -0.05690149 -0.02994929 0.02585303
000320 46 6e 8f bd 80 dd e8 bc 21 20 51 3d 12 98 82 bd
       -0.07003455 -0.028425932 0.05105603 -0.06376661
000330 af 7a 81 3d 2f 66 95 39 f1 22 4d 3d 1a 4c 3c bc
       0.06322228 0.00028495627 0.05008215 -0.011492753
000340 12 cb ab 3c ae 12 92 bd 6c 94 81 3d f8 9b 81 3c
       0.020970855 -0.07132469 0.06327137 0.015821442
000350 83 e5 52 3d dc 3e 8d bc 5d ae 5f 3c b0 0d 3c 3d
       0.05148841 -0.017241888 0.013652411 0.04591149
000360 59 87 20 bd 19 43 b3 3c f1 35 17 bd fc a4 55 3c
       -0.039191578 0.02188258 -0.036916677 0.013039824
000370 20 8b 44 bd 05 ac b8 3c 32 bd 45 ba 2e ae 8a 3d
       -0.047984242 0.022542963 -0.0007543146 0.067715034
000380 0e 1f a6 3c 67 bb 0e 3d db ac 30 bd 32 c8 88 3d
       0.02027848 0.03484669 -0.043133598 0.06678809
000390 d6 50 31 bd f3 cb 3a bd 2f 3b 28 bd 59 7f 36 bd
       -0.04328998 -0.045604657 -0.041072067 -0.044555042
0003a0 6a 42 0d 3d 41 d9 78 bd 0b 72 25 bc 6b 10 7b bd
       0.034487166 -0.060754064 -0.010097991 -0.061294954
0003b0 37 4b 5f 3d ac fc c0 3c 70 4d 18 3c c3 d6 14 3c
       0.05451509 0.023557983 0.009295806 0.009084406
0003c0 97 4f 9b bc 6c c0 23 bd 8b 05 6a bd 3c b3 3c 3d
       -0.01895885 -0.03997843 -0.057134192 0.04606937
0003d0 f0 c0 12 3d a2 0b 11 3b 90 72 63 3d 4b 5b a8 3c
       0.03582853 0.0022132178 0.055529177 0.020551344
0003e0 b7 bc 90 bd d2 5d 80 bc 9e 1b 1c bc e1 8b 0f 3c
       -0.070672445 -0.015669737 -0.009528069 0.008761377
0003f0 56 f2 63 3d 4d 50 a4 bc 55 15 f5 bc cc 76 41 3d
       0.05565103 -0.020057822 -0.029917398 0.047232434

conv1.bias f4 [6]
000000 15 db cb bd 9c 57 7f 3c 76 a7 25 bc c9 29 43 3c
       -0.09953896 0.015584853 -0.010110727 0.011911818
000010 a6 55 f9 bb 41 b4 2e bd
       -0.007609087 -0.042652372

fc1.weight f4 [1, 7938]
000000 7a 63 d2 ba 16 bd 30 bc 24 bb 92 bb 3d 7a 4e bb
       -0.0016051375 -0.010787269 -0.0044778753 -0.0031505965
000010 48 64 a8 bb 3e d5 89 bc 6a e1 ab bc d6 ef 2a bc
       -0.0051389076 -0.016825315 -0.02098151 -0.010433158
000020 67 f8 9c bc eb 3d bc bb 98 e8 00 bc 87 f6 01 bc
       -0.019161416 -0.005744686 -0.007867955 -0.007932312
000030 e2 d4 11 bc 2f e0 33 bc 33 9c 2c bb 2b b5 03 3b
       -0.008900853 -0.0109787425 -0.002633822 0.0020096998
000040 f5 fc 9c ba 39 4b 2c 3a e8 54 1d bc 32 33 c8 bb
       -0.0011977243 0.00065724883 -0.009602763 -0.0061096186
000050 94 31 56 bc 27 68 5a ba 7f 74 ba bb e8 e7 82 bc
       -0.013073344 -0.000833156 -0.005690157 -0.015979722
000060 33 f1 09 bc df 54 67 bc 9d 5e 39 bc a5 05 06 bc
       -0.008419323 -0.014119356 -0.0113140615 -0.008180057
000070 00 4a 7b bc 4f e0 ca 3b 8f 32 e8 bb 56 77 80 bc
       -0.015337467 0.0061912904 -0.007086105 -0.015681904
000080 da ce 55 bc ed ba c9 bc c4 68 72 bb c3 f5 a1 bc
       -0.013049806 -0.024625266 -0.0036988715 -0.019770509
000090 7b 6b ac b9 38 7d 22 bb 1c 3a 9b 3a 92 c7 e8 ba
       -0.00032886476 -0.0024793874 0.001184288 -0.0017759672
0000a0 54 bd 53 3c b9 7e 86 bb c7 f0 26 3c 2b c8 46 3c
       0.012923557 -0.004104462 0.010189242 0.012132685
0000b0 c1 4a 09 3c 1f 90 e0 3b b1 80 68 3c f1 c2 12 3c
       0.008379639 0.006853118 0.014190839 0.00895761
0000c0 21 00 2d 3c 18 2e 6a bc cd a7 56 bc 9b 63 03 bc
       0.010559113 -0.014293216 -0.01310153 -0.008019353
0000d0 bb bd 4b bc f5 c0 f2 ba 8d a2 86 bb 7e 0c 43 bc
       -0.012435372 -0.001852064 -0.004108733 -0.011904834
0000e0 ac 53 09 bc cb 82 5b bc 82 a1 06 bb b8 3b 6e bc
       -0.008381765 -0.013397883 -0.0020543044 -0.014540605
0000f0 d8 9e 2b bc 16 31 38 bb 02 b1 e8 3b 8b eb b5 bb
       -0.010474883 -0.002810543 0.007101179 -0.0055517606
000100 92 1d a0 39 dd b4 92 bb 6e 9b e3 3b eb 93 58 bb
       0.0003053961 -0.004477127 0.006946019 -0.003304715
000110 e2 30 2a bc 6e d8 30 bc ac 97 3b bb d5 b4 dd bb
       -0.010387631 -0.010793788 -0.002862434 -0.0067659416
000120 af 77 d8 bb 0a 88 2f 3b ad 32 72 bc 12 b6 bc bb
       -0.0066060643 0.0026783966 -0.01478259 -0.005759009
000130 76 f0 2e bb 9f e2 6a ba f8 1a b4 bb ff 21 a2 ba
       -0.002669362 -0.0008960161 -0.005496379 -0.0012369751
000140 72 c8 2c bc 20 85 ad bc 6b c3 f3 bb c8 16 1f bc
       -0.010545837 -0.021181643 -0.007439067 -0.009710021
000150 76 0f 97 bb 10 d1 a2 3b bd 0b 6e bc bb ec 01 3b
       -0.0046099974 0.00496877 -0.014529166 0.001982494
000160 41 99 18 3b 47 38 1b 3b 0a 0d 35 bc ad e6 8c bc
       0.0023284706 0.0023684667 -0.011050472 -0.017199839
000170 1c ea 9e bc 1c 46 f8 bb b6 45 85 bc ba aa 18 3c
       -0.019398741 -0.007576717 -0.016268592 0.009318048
000180 dd fd 0f ba b8 f5 a9 bb b8 77 2a bc 39 2b 60 bc
       -0.00054928457 -0.0051867627 -0.01040452 -0.01368218
000190 a8 87 4a bc 8f 33 93 bc fd 8d af 3a 65 11 7c bc
       -0.0123614445 -0.017968921 0.0013393756 -0.015385007
0001a0 3c 12 76 bc df 37 68 bc f4 b6 93 bb 7e fe 29 bb
       -0.015018996 -0.014173477 -0.0045078937 -0.0025939043
0001b0 88 6b 84 3b b9 48 03 bc bd 17 53 bc 69 af 2a 3c
       0.004041139 -0.008012944 -0.012884078 0.010417798
0001c0 37 b5 1e 3b be b2 91 bb a5 10 a7 bb 85 ce c2 3b
       0.00242169 -0.0044463566 -0.0050984197 0.005945029
0001d0 77 35 b4 3a 43 7e 9d 3b e3 c0 22 bc 19 3b 02 bb
       0.0013748844 0.0048063113 -0.009933683 -0.001987165
0001e0 b0 11 2b bc 45 32 e8 bb fa 28 46 bc 04 58 42 bc
       -0.010441229 -0.0070860707 -0.0120947305 -0.011861805
0001f0 80 c8 f1 bb b8 5e b7 bb 62 04 45 bc ec f7 1a bc
       -0.007378638 -0.005596008 -0.012024971 -0.009458523
000200 96 99 62 3a 41 78 29 bc 15 13 35 bc b2 a7 3a bb
       0.0008644102 -0.010343612 -0.011051913 -0.0028481302
000210 3b ed 63 3b c3 b7 eb bb 55 a8 01 3c 39 83 be ba
       0.0034778852 -0.007193537 0.007913669 -0.0014534957
000220 18 4d 76 bc 76 d0 35 bc b0 78 c8 bc ba 5c 95 bb
       -0.015033029 -0.011097064 -0.02447161 -0.004558173
000230 5e ee a6 bc f7 37 f9 ba d0 fc 6a bc 10 38 b2 bb
       -0.020377334 -0.0019013871 -0.014342502 -0.005438812
000240 cc 97 1d bb 94 2f 5b bb c3 75 fc 3b 7a b8 9e 3b
       -0.0024046777 -0.0033445107 0.007704468 0.0048437687
000250 66 df 59 bb 88 4c c2 bb e3 7b c1 bb 0a ef 5b bc
       -0.0033244728 -0.0059295334 -0.005904661 -0.013423691
000260 af 33 80 bc 8e cc fb bb 7a 34 68 bc ea 00 bd b9
       -0.015649645 -0.007684297 -0.014172668 -0.0003604957
000270 03 41 33 bc da 58 27 bc db 15 d8 bb e3 ee b5 bb
       -0.010940793 -0.010214055 -0.0065944022 -0.005552159
000280 93 68 44 3c af da db 3a 7e b3 fe 3b 9c e2 45 bb
       0.011987823 0.0016773547 0.007772862 -0.0030194884
000290 09 d1 ef 3b 7f c1 c5 3a 22 8c 63 bb a7 43 0d 3c
       0.00731862 0.0015087574 -0.0034720977 0.008622087
0002a0 b0 89 e7 3b 55 e0 35 39 d4 00 5d bb 71 06 1a bc
       0.007065974 0.00017345075 -0.0033722417 -0.00940095
0002b0 8e 97 6b 3a e8 60 e9 bb da 49 85 bc 48 26 7f bc
       0.0008987122 -0.007122148 -0.016270567 -0.015573092
0002c0 4c 22 39 bc 34 29 c4 39 84 2a 83 bc 36 20 30 bb
       -0.011299681 0.00037414732 -0.016011484 -0.0026874668
0002d0 f0 da d5 bb a2 43 76 3b f1 9c 76 3b 87 b4 f3 3b
       -0.0065263435 0.0037576933 0.0037630165 0.007437292
0002e0 0f 6e 42 bc 81 75 8e bb b5 de 34 bc 09 d7 ff bb
       -0.01186706 -0.0043475037 -0.011039426 -0.0078076166
0002f0 e7 55 1e bc 26 90 d8 bb 44 6a 67 ba 4b b2 2c 3c
       -0.009664035 -0.0066089807 -0.00088277855 0.010540555
000300 1e f1 5f 3c 15 ba 38 3b f8 a0 a2 3c aa be 79 3c
       0.013668327 0.0028187085 0.019852147 0.015243212
000310 88 a3 41 bc 83 33 21 3a a5 47 19 bb 2d 99 5b bc
       -0.011818774 0.00061493384 -0.002338865 -0.013403219
000320 99 21 28 3b 01 80 96 bc c5 85 1e bb 09 3c ac bc
       0.0025654791 -0.018371584 -0.002418862 -0.02102472
000330 08 ac fa bb 80 5d 28 3b 98 e7 98 bc c5 ba b3 bb
       -0.0076499023 0.0025690496 -0.01866512 -0.005484911
000340 2c 6b 17 bc 99 3c 4a 3b 6f dd 14 3c a2 6f ca 3b
       -0.00924186 0.0030858873 0.009085997 0.0061778584
000350 cd 5e 4b 3c 0d 7f 23 3c 27 e2 93 3a 63 f3 62 3c
       0.012412739 0.009979022 0.0011282609 0.013851973
000360 fe 9f af 3b 4d 0b c4 b9 7d eb 19 3c 69 f9 3f bc
       0.0053596487 -0.00037392453 0.009394524 -0.011717179
000370 53 09 40 bb c1 e8 82 bc 52 9c 1d bc 40 ed ac bc
       -0.0029302433 -0.015980126 -0.009619789 -0.021109223
000380 64 4f e4 b9 ca 0b 86 bc a9 52 1d 3b 8b 0d 0b ba
       -0.000435467 -0.016363043 0.0024005568 -0.0005304447
000390 db c8 96 bb 81 0e e1 3b eb 6a 58 3c d7 d5 03 3b
       -0.0046015806 0.006868184 0.013209085 0.0020116472
0003a0 d5 cc 20 bb 12 d5 87 bb 0c 4d 44 3b 0e d5 de bb
       -0.0024536152 -0.004145273 0.002995315 -0.0068003004
0003b0 4e bb 57 bc d7 6c 1a bc 59 58 94 bb 0a 1b 44 3c
       -0.0131672155 -0.0094253635 -0.0045271334 0.011969337
0003c0 58 6f 48 3c 64 1f 1f 3c 5d ab d0 3b ca 2b c1 3b
       0.012233578 0.009712074 0.0063680843 0.0058951126
0003d0 e7 99 c2 3b ec 0d 41 bc 12 a2 02 bb d2 62 d6 ba
       0.0059387567 -0.011783104 -0.0019933027 -0.0016356355
0003e0 6b d6 0a bc 16 58 96 3a 5f e0 ff bb c9 51 ae bc
       -0.008473973 0.0011470343 -0.0078087295 -0.021279233
0003f0 aa fa 06 bc 52 98 22 bb 1e 27 75 bc bf 6b 9c 39
       -0.008238474 -0.0024810028 -0.01496294 0.00029834916
