PythonClient/saved_models/0-2024-04-29.pth (torch, 38520 bytes, 3 tensors)

conv1.weight f4 [6, 3, 8, 8]
0	0x3da84dee	0.08217989
1	0xbc843a41	-0.016141059
2	0x3d3eb6bb	0.046560984
3	0xbcc31fee	-0.023818936
4	0xbca91da9	-0.020644026
5	0x3d304ae7	0.043040182
6	0xbd4bcd74	-0.049756482
7	0xbbdbcf38	-0.006708052
8	0xbcec90e8	-0.02887769
9	0x3d4313f2	0.047626443
10	0xbcb72e7c	-0.022361033
11	0x3d6d0ab7	0.057871547
12	0xbd4a303a	-0.0493624
13	0xbbabe174	-0.005245382
14	0xbd18bb99	-0.037288282
15	0xbc23c1db	-0.009994949
16	0xbc33161d	-0.010930565
17	0xbc3d7c71	-0.011565314
18	0x3d94e414	0.07270065
19	0x3dd29fcc	0.10284385
20	0x3d8d5c04	0.06902316
21	0xbc6bd8f1	-0.014394985
22	0x3d82e7d8	0.06391877
23	0x3d7a82c5	0.061159868
24	0xba0551ce	-0.0005085737
25	0x3df22b6a	0.11824687
26	0x3dff9f63	0.124815725
27	0x3d572e63	0.052534472
28	0x3d9755e8	0.07389432
29	0x3d71ccdd	0.059033263
30	0x3db635e9	0.08897001
31	0x3aa5c73b	0.0012647876
32	0x3db9727d	0.0905504
33	0x3e108465	0.14113005
34	0x3e070554	0.13185626
35	0x3d90c72e	0.070692405
36	0x3d6197fe	0.05507659
37	0xbcffa5ee	-0.031207051
38	0x3d0e38c9	0.034722123
39	0xbc97baf5	-0.018521765
40	0xbcaeef5c	-0.02135437
41	0x3d800c80	0.06252384
42	0x3cb98d99	0.022650527
43	0x3dbb97f9	0.09159846
44	0x3cf94d1f	0.030432282
45	0x3c6cdc57	0.01445683
46	0xbd38e4e3	-0.04514016
47	0xbbb82983	-0.005620183
48	0x3d65babb	0.056086283
49	0x3cb9091a	0.022587348
50	0xbd1f888e	-0.038948588
51	0xbd15ce75	-0.036573846
52	0xbd0e4170	-0.034730375
53	0xbd637556	-0.055531822
54	0xbd9e2427	-0.07721739
55	0xbc5c143e	-0.0134325605
56	0x3d64c0f7	0.055848088
57	0x3d50ba5c	0.050958976
58	0x3b2901d1	0.0025788436
59	0xbd5c2ae3	-0.053751837
60	0xbc68573f	-0.014180957
61	0xbd9e19e5	-0.07719783
62	0xbdbb9bf4	-0.09160605
63	0xbdca4e5a	-0.098782256
64	0xbc8142c7	-0.015778912
65	0xbd13e59f	-0.036107656
66	0xbd26c40c	-0.04071431
67	0x3c7e2901	0.015512706
68	0xbd112ebf	-0.03544497
69	0x3cd726fe	0.02626371
70	0xbd928bf8	-0.07155603
71	0xbc31cb8f	-0.010851755
72	0xbd2a70fa	-0.04161165
73	0x3d4b59f7	0.049646344
74	0xbc89959f	-0.016794978
75	0xbd50dd71	-0.050992433
76	0x3d9e38e8	0.07725698
77	0x3d640428	0.055668026
78	0x3d22ed4e	0.039777093
79	0x3d48c9d0	0.04902059
80	0x3d8af896	0.06785695
81	0x3c692c39	0.014231735
82	0x3dadadcc	0.08480415
83	0x3d94dee1	0.07269073
84	0x3d3c89cf	0.046029862
85	0xbd3ce3a9	-0.04611555
86	0x3d603050	0.054733574
87	0x3cd8ad6f	0.026449887
88	0x3ca180dd	0.019714767
89	0x3cd56a1b	0.026051572
90	0x3dd32f00	0.10311699
91	0x3bab5522	0.0052286545
92	0x3d0c284e	0.034218125
93	0x3d139533	0.03603096
94	0x3cd227e8	0.025653794
95	0xbc24a5eb	-0.010049324
96	0x3dbf6053	0.09344544
97	0x3dd0b055	0.10189883
98	0x3de637d6	0.112411186
99	0x3d9b136e	0.07572065
100	0x3dd2b2c9	0.10288007
101	0x3daa775d	0.08323548
102	0xbc770dc2	-0.015078964
103	0x3ba1d664	0.0049388874
104	0x3db0f3b3	0.08640232
105	0x3dba121b	0.090854846
106	0xbc7698cd	-0.015051079
107	0x3dae40d4	0.08508459
108	0x3d9d5f7f	0.0768423
109	0x3c6007ab	0.013673703
110	0x3d145d1c	0.03622161
111	0xbd96e22c	-0.073673576
112	0x3d839e70	0.06426704
113	0xbb3f7c28	-0.002921829
114	0xbce459da	-0.027874876
115	0xbd9026a1	-0.07038618
116	0x3c4bb16b	0.012432436
117	0xbdd07e9a	-0.10180397
118	0xbcbd1cb1	-0.02308497
119	0xbc41716e	-0.011806829
120	0xbd26cbc0	-0.040721655
121	0x3d8230bf	0.06356954
122	0xbd4239b2	-0.047418304
123	0x3d11f73b	0.035636168
124	0xbcd332a5	-0.025780985
125	0xbdacce32	-0.08437766
126	0xbdb66868	-0.08906633
127	0x3c33279b	0.010934736
128	0xbd7427da	-0.059608318
129	0xbd6bb75e	-0.05754792
130	0x3cdb9630	0.026805013
131	0xbd55e2f5	-0.052218396
132	0xbaba4076	-0.0014209885
133	0xbd812485	-0.06305794
134	0xbdb7b434	-0.08969918
135	0xbd0346ff	-0.03205013
136	0x3d70d3da	0.058795787
137	0x3d0fedcf	0.0351389
138	0x3c95995b	0.018261602
139	0xba601e76	-0.0008549461
140	0x3d5ad9c5	0.053430337
141	0x3c8acdf1	0.016943904
142	0xbd43d143	-0.04780699
143	0x3d37a4d4	0.044834927
144	0xbbf33bc4	-0.007422896
145	0xb9d9c056	-0.00041532767
146	0xbd6167cd	-0.055030633
147	0x3d2754da	0.040852405
148	0xbcf3394a	-0.029690403
149	0xbcb7d4e8	-0.022440389
150	0xbc4a8b67	-0.012362338
151	0xbb71447d	-0.0036814504
152	0xbc63aba9	-0.013895907
153	0xbd5f4204	-0.054506317
154	0x3cb9f073	0.022697663
155	0xbd48e70b	-0.049048465
156	0xbd253be2	-0.04034031
157	0xbd6861bc	-0.05673383
158	0x3c82f064	0.015983768
159	0xbc2217e6	-0.009893393
160	0xbac8eed6	-0.0015329968
161	0x3d9b0b17	0.075704746
162	0xbcb31a44	-0.02186311
163	0x3d319d3a	0.043362834
164	0x3d0575c6	0.03258302
165	0xbd1ad7b5	-0.03780337
166	0x3c631f04	0.013862375
167	0xbcd9fa6b	-0.026608666
168	0xbd2c0cdc	-0.04200445
169	0x3d6f5573	0.0584311
170	0xbd812431	-0.06305731
171	0x3d5a3c7c	0.05328034
172	0xbd32f095	-0.04368647
173	0xbd3a3801	-0.045463566
174	0xbdc68c04	-0.096946746
175	0xbb0723e5	-0.002062076
176	0x3d2ee212	0.042696066
177	0x3ceca7f3	0.028888678
178	0xbdd676d0	-0.104718804
179	0xbddbb494	-0.10727802
180	0xbd8c685c	-0.068558425
181	0xbcc767d8	-0.024341509
182	0xbdf2dc11	-0.118583806
183	0x3c3f50ec	0.011677008
184	0x3d37c2d2	0.04486353
185	0xbd5428a2	-0.051796563
186	0xbda1f968	-0.079088986
187	0xbdb113f9	-0.086463876
188	0xbdde8e43	-0.10866978
189	0xbe14ad6f	-0.14519285
190	0xbd35c0de	-0.044373386
191	0xbd7a4d2a	-0.061108746
192	0x3e04d8b2	0.12973288
193	0x3dd0f6a1	0.10203291
194	0x3e1c305c	0.15252823
195	0x3dbd385b	0.092392646
196	0x3d00220f	0.03128248
197	0x3d32dd97	0.043668356
198	0x3d8a795f	0.06761431
199	0x3d7fc1fe	0.062440865
200	0x3dfaff35	0.12255708
201	0x3df441dd	0.11926625
202	0xbbafbea8	-0.005363304
203	0x3cc5e459	0.024156736
204	0x3d11c94a	0.035592355
205	0x3d2d603e	0.04232811
206	0xbd3348ff	-0.043770786
207	0xbcf01486	-0.029306661
208	0x3c3068fb	0.010767217
209	0x3dc04472	0.09388055
210	0xbd0328dd	-0.032021392
211	0x3a1be86e	0.00059474155
212	0xbc92f8d0	-0.017940909
213	0xbbd9f659	-0.0066516814
214	0xbc50f199	-0.012752914
215	0xbd5eb635	-0.054372985
216	0x3bf94e82	0.007608236
217	0xbd972adf	-0.07381224
218	0xbba39d08	-0.004993085
219	0xbcc7bda8	-0.024382427
220	0xbd6d3ddc	-0.05792032
221	0xbb4e2822	-0.0031457026
222	0xbde0d0cd	-0.109773256
223	0xbc16a436	-0.009194424
224	0x3d7f2a9e	0.062296502
225	0xbcce4fc3	-0.025184518
226	0xbd8daf9d	-0.06918261
227	0x3cf66a03	0.030079847
228	0xbde42698	-0.11140174
229	0xbb0abdd8	-0.0021170285
230	0xbd0c05e6	-0.034185313
231	0xbdbe7e02	-0.09301378
232	0x3c6baebc	0.014384922
233	0xbc5287dd	-0.012849775
234	0xbb496906	-0.0030732765
235	0xbd92d161	-0.07168842
236	0x3d10663b	0.035253745
237	0xbd91b6ae	-0.071149215
238	0xbdc48828	-0.09596282
239	0x3cfcbf6d	0.030852998
240	0x3cf6d6cf	0.030131726
241	0xbd80d2cd	-0.06290207
242	0xbda277a2	-0.079329744
243	0xbda8378d	-0.082137205
244	0xbdad2472	-0.08454217
245	0xbd8b49ff	-0.06801223
246	0xbd4005a1	-0.04688037
247	0xbdbcc1d9	-0.09216661
248	0x3d5339f1	0.05156893
249	0xbd338a74	-0.04383321
250	0x3b4bf525	0.003112146
251	0x3cd42092	0.025894437
252	0xbd41e3b9	-0.047336314
253	0xbdab6b98	-0.08370131
254	0xbda98068	-0.08276445
255	0xbd6f7529	-0.058461342

conv1.bias f4 [6]
0	0x3a90de20	0.0011052527
1	0xbcd54cfa	-0.026037682
2	0x3d094e8b	0.03352217
3	0x3d6911b0	0.056901634
4	0x3d93be61	0.07214046
5	0x3cf576b4	0.029963829

fc1.weight f4 [1, 7938]
0	0x3b1b62ea	0.002371008
1	0xbca0516b	-0.019570073
2	0xbb9bb3aa	-0.0047516422
3	0xbc1128d9	-0.0088598365
4	0xbac2833b	-0.0014840135
5	0x3b25f280	0.0025321543
6	0x3bfe65f7	0.00776362
7	0xbb73ae5e	-0.0037182788
8	0xbb29404d	-0.002582568
9	0x3c25f9fe	0.010130404
10	0x3cbadbf2	0.022809956
11	0x3ac1ef9d	0.0014796142
12	0xbd004500	-0.031315804
13	0xbcda17ea	-0.026622731
14	0x3c4939c1	0.012281836
15	0x3cbb5cc1	0.022871377
16	0x3ab6934d	0.0013929397
17	0xbc6f13b6	-0.014592102
18	0x3cbc32b2	0.022973392
19	0x3c363105	0.011120086
20	0x3a9785df	0.0011560282
21	0xbc27be88	-0.010238297
22	0x398e2cda	0.00027117768
23	0x3c41f782	0.011838796
24	0xbc61e497	-0.01378741
25	0xbccd13fe	-0.025033947
26	0xbce27813	-0.027645146
27	0xbbdd425b	-0.006752295
28	0x3ca163db	0.019700935
29	0x3cd16682	0.025561575
30	0x3c615207	0.013752467
31	0x3cb33131	0.021874042
32	0x3c356b36	0.011072924
33	0xbca1e49c	-0.01976233
34	0xbc6b1924	-0.014349256
35	0xbce6fbad	-0.02819618
36	0xbbea9277	-0.0071585733
37	0xbaad1ff9	-0.0013208381
38	0xbd230463	-0.039799105
39	0xbd2201ea	-0.039552607
40	0x3c643565	0.013928746
41	0x3d0bdb52	0.034144707
42	0xbc8ab493	-0.016931808
43	0xbd09b3d1	-0.033618752
44	0xbcc003eb	-0.023439368
45	0xbd0f5ef2	-0.035002656
46	0x3bae3adb	0.0053170747
47	0x3d2469c8	0.040139943
48	0x3cbfc619	0.02340989
49	0x3c838a9c	0.016057305
50	0xbc868cc8	-0.016424552
51	0xbcac39d5	-0.02102367
52	0xbc0b51eb	-0.0085034175
53	0xbb142904	-0.0022607455
54	0x3c58f103	0.013241055
55	0xbbf791c8	-0.0075552203
56	0xbc4f46c5	-0.01265115
57	0x3d29278b	0.041297477
58	0x3d30ce9c	0.043165788
59	0x3cbf3453	0.02334038
60	0xbc057d7e	-0.008147595
61	0x3b221a09	0.0024734756
62	0x3bc996da	0.006152016
63	0x3d07497c	0.033029065
64	0x3c95c00e	0.018280055
65	0xbc53d457	-0.012929044
66	0xbd036df3	-0.032087278
67	0x3c0068a9	0.007837453
68	0x3c8477ad	0.016170347
69	0x3cdedd1d	0.027205044
70	0xb9e60b89	-0.00043877613
71	0xbc29e393	-0.010369199
72	0xbbd3ae93	-0.00646002
73	0xbc8242aa	-0.015900929
74	0xbce796d9	-0.028270172
75	0xbd145fc4	-0.03622414
76	0xbb8106c3	-0.0039375736
77	0x3ca78e79	0.020453678
78	0x3d24a316	0.040194593
79	0xbbd7fc86	-0.0065913824
80	0x3d0a6a40	0.033792734
81	0x3bb6f68c	0.00558359
82	0xbb32baf9	-0.002727209
83	0xbb59b109	-0.0033217093
84	0x3ce51d3b	0.02796804
85	0x3c1f5b70	0.00972639
86	0x3a2a521a	0.00064972194
87	0xbb1c8050	-0.002388019
88	0xbc15a646	-0.009133881
89	0xbcbe1128	-0.02320154
90	0xbd38f2ff	-0.045153614
91	0xbc15eb18	-0.009150289
92	0x3b513962	0.0031925072
93	0x3ce9e2e0	0.028550565
94	0x3c2e55d6	0.010640582
95	0xbc017b81	-0.007902981
96	0x3c3e9bcc	0.011633825
97	0x3ba46630	0.0050170645
98	0x3c839867	0.016063882
99	0xbc5d2223	-0.013496908
100	0x3b0188ec	0.001976545
101	0xbc69f2c0	-0.0142790675
102	0x3a90679a	0.0011017204
103	0x3bf09a61	0.007342622
104	0xbc018570	-0.007905349
105	0x3b913688	0.0044315495
106	0xbadbb761	-0.0016763025
107	0xbc29cd03	-0.01036382
108	0x3c18f47f	0.009335636
109	0xb88207a1	-6.200304e-05
110	0xbbee2fb8	-0.007268872
111	0xbd10cdee	-0.03535264
112	0x3c3bee35	0.011470367
113	0x3c2e47d9	0.010637247
114	0xbb987ff4	-0.004653925
115	0x3b25e6c4	0.002531455
116	0xbc7fe39d	-0.015618232
117	0xbbc80a55	-0.0061047473
118	0xbcbc3b40	-0.022977471
119	0xbc9543f9	-0.018220888
120	0x3cfff87d	0.031246418
121	0xbc3b5315	-0.0114333825
122	0x3bbf79eb	0.005843391
123	0xbcc1d2a5	-0.023660013
124	0xbcfd8cf7	-0.030951006
125	0xbc414f85	-0.011798744
126	0x3cac4bf2	0.021032307
127	0x3ce02957	0.027363462
128	0xbb67d738	-0.0035376083
129	0x3cc5d4ea	0.024149377
130	0x3d3023fd	0.04300307
131	0x3d2268bc	0.039650664
132	0xbc1c7476	-0.009549251
133	0x3b77c6ef	0.0037807783
134	0x3cbd18ce	0.023083117
135	0x3c386e91	0.01125683
136	0x3ba55704	0.0050457735
137	0xbd002f5a	-0.031295158
138	0x3c001e7a	0.007819766
139	0x3c8ac1aa	0.01693805
140	0xbd0745fb	-0.033025723
141	0xbd46c455	-0.04852708
142	0xbb6d6fbb	-0.0036229927
143	0xba60c275	-0.0008573898
144	0xbc48d0e6	-0.0122568365
145	0xbd3ea534	-0.04654427
146	0xbad8afda	-0.00165319
147	0x3c2b4009	0.010452279
148	0x3c074f2a	0.00825862
149	0xbbc15157	-0.005899589
150	0xbb23a5c7	-0.0024970637
151	0xbbf976e8	-0.0076130517
152	0x3c19a6e1	0.009378166
153	0x3bdd2063	0.0067482456
154	0xbd00d2c3	-0.031450998
155	0xbc902fee	-0.01760098
156	0xbb0a14ec	-0.00210696
157	0xbc2a8f24	-0.010410104
158	0xbbc0217f	-0.005863368
159	0xbb0a8548	-0.002113657
160	0xbc35bb9c	-0.011092093
161	0xb9f02fd1	-0.00045811993
162	0xbc027d8e	-0.007964505
163	0xbc9f6d64	-0.019461341
164	0xbd3f310f	-0.046677645
165	0xbc114c6d	-0.008868319
166	0xbabe12cf	-0.0014501455
167	0xbcc69844	-0.024242528
168	0xbd595d5f	-0.05306756
169	0xbca0cf6c	-0.019630156
170	0xbc276618	-0.010217212
171	0xba3f48ee	-0.0007296939
172	0x3bf9d1a5	0.0076238685
173	0x3c90477d	0.017612213
174	0x3c3e3994	0.011610407
175	0x3ccbf5ed	0.02489754
176	0x3c1cc698	0.009568833
177	0xbae5652f	-0.0017501469
178	0x3c957f49	0.01824917
179	0x3c402321	0.011727125
180	0xbccecfc5	-0.025245557
181	0x3ba08a4f	0.0048993
182	0xbbfedc96	-0.0077777607
183	0x3abf4085	0.0014591372
184	0x3d18ab61	0.037272815
185	0x3c88e8eb	0.016712626
186	0xbc016e13	-0.007899779
187	0xbc7b61a4	-0.015343104
188	0x3bb43dd7	0.005500536
189	0x3b0b781b	0.0021281305
190	0xbc4af038	-0.012386374
191	0xbce322a8	-0.027726486
192	0xbc3f95da	-0.011693442
193	0x3c3fd65c	0.011708822
194	0xbb3fed4d	-0.002928573
195	0xbc015ba6	-0.007895386
196	0x3c80a67b	0.015704384
197	0xbc302ce7	-0.010752893
198	0xbca77fca	-0.020446677
199	0x3c9bd9f3	0.019024825
200	0x3d197ac8	0.03747061
201	0x3cfd6770	0.030933112
202	0x3c5868a4	0.013208542
203	0x3b98c90f	0.00466264
204	0x3c8f3ff9	0.01748656
205	0xbd20e0c9	-0.03927687
206	0xbd09caf5	-0.03364082
207	0xbc825123	-0.01590783
208	0xbaacd5af	-0.0013186241
209	0xbc6384c7	-0.013886637
210	0x3c7dd4d2	0.015492635
211	0xbae6861b	-0.0017587574
212	0x3cc12be3	0.023580497
213	0xbd276328	-0.040866047
214	0xbcc79f4a	-0.024367947
215	0xbcccc7f5	-0.02499769
216	0x3b1b1a9d	0.0023666986
217	0x3b9b0742	0.00473109
218	0x3b7a90a2	0.003823318
219	0x3b1216e1	0.002229147
220	0x3adf33c8	0.0017028982
221	0xbccb5bf1	-0.024824115
222	0xbd51660a	-0.051122703
223	0xbd0be8dc	-0.03415762
224	0xbc142e1e	-0.009044198
225	0xbc836746	-0.016040456
226	0x3bc0dd2d	0.005885741
227	0xbd2aba41	-0.04168153
228	0xbc80ff02	-0.015746597
229	0xbd576876	-0.052589856
230	0xbcdbb5a6	-0.026820015
231	0x3989c58c	0.0002627786
232	0x3c4f98c4	0.0126706995
233	0xbd099f60	-0.033599257
234	0x3b72a212	0.003702287
235	0xbd0623ab	-0.03274886
236	0xbcad9d94	-0.021193303
237	0x3cc133b9	0.023584234
238	0x3c8415fd	0.016123766
239	0x3c86f38d	0.016473556
240	0xbbad7377	-0.0052933055
241	0x3c9c9e3e	0.019118425
242	0x3cceb42e	0.0252324
243	0x3d119b2d	0.035548378
244	0x3c831f39	0.016006099
245	0x3cf8a94a	0.03035416
246	0x3d15b47c	0.036549076
247	0xbc0bf8b0	-0.008543178
248	0x3c1b6d05	0.0094864415
249	0x3c27d0a0	0.010242611
250	0x3cb7ceb7	0.022437437
251	0xbb79bf6e	-0.0038108486
252	0xbc1f60ff	-0.0097277155
253	0xbbdc47c9	-0.0067224246
254	0xbd0c73a2	-0.034289964
255	0xbd43c865	-0.047798533
