PythonClient/saved_models/0-2024-04-23.pth (torch, 371192 bytes, 4 tensors)

conv1.weight f4 [8, 3, 6, 6]
000000 97 f2 89 bd bd 4f b7 3d 81 d8 2e 3c cb ce 71 3d
       -0.067357235 0.08950756 0.010671736 0.059035104
000010 cb 1a b7 bd 9b 94 b1 3b 45 9d 28 3d d9 77 1f bd
       -0.08940657 0.0054193265 0.04116561 -0.038932655
000020 0c b8 7c bc 38 ee 5e 3d e1 ec 86 3b 1e ae a2 bb
       -0.01542474 0.0544264 0.0041175936 -0.004964604
000030 13 8d 97 3c fd d6 27 bc 6d bc 91 bd 71 bf d4 bb
       0.018499887 -0.010244128 -0.071160175 -0.006492548
000040 21 4f ca bc 3f 97 bc bd 7e 3a c3 bd d4 94 b4 3c
       -0.024695935 -0.092085354 -0.09532641 0.022043623
000050 94 ce 84 bd d3 d2 63 bd 4a 32 d3 bd 34 2f 00 bd
       -0.06484714 -0.05562098 -0.10312326 -0.031295016
000060 34 c8 ba bd 27 7b d4 bd b1 8c 89 bb ef 3e 4b 3d
       -0.09120217 -0.10375052 -0.00419768 0.049620565
000070 9b ce 55 3d 2f 52 da bd 95 5c 01 3d 78 5e 93 3c
       0.052198987 -0.106602065 0.031582434 0.017989382
000080 39 0c d8 3c 84 a8 79 3b d0 17 b9 bc 27 5e 2b 3d
       0.026373016 0.0038094828 -0.022594362 0.041837838
000090 66 59 c0 bc 44 2a 6c bd a6 00 93 3d 27 32 ce 3c
       -0.023480128 -0.057657495 0.07177858 0.025170399
0000a0 82 58 87 bd 7d 39 ae 3d 94 0e 8f bd a8 96 ae bd
       -0.066086784 0.08507059 -0.069852024 -0.08524829
0000b0 a6 2a 86 3d 51 8f 2a bc b0 8c 88 bd 78 f1 99 3d
       0.06551103 -0.010410146 -0.06667459 0.0751676
0000c0 0e 40 e0 bd 72 bb 81 bd 6c 5d 0d 3c f1 a7 88 bd
       -0.109497175 -0.063345805 0.008628231 -0.06672657
0000d0 b2 f6 20 3d ca c0 61 bd 42 e1 95 3d 04 b6 a0 bd
       0.039297767 -0.0551155 0.07318355 -0.07847217
0000e0 88 f0 92 3d 4c b4 3f 3b 87 93 11 bd 76 66 c3 bc
       0.07174784 0.0029251752 -0.035541084 -0.023852568
0000f0 b6 6e 95 3d d2 f2 39 3d ee 10 99 bd 47 87 3d 3c
       0.07296507 0.045397587 -0.07473932 0.011567897
000100 91 44 46 3d d2 92 0b bc 10 ab db bd 56 2d a8 bd
       0.048405234 -0.008518891 -0.10725987 -0.08211772
000110 a2 2c aa bc 4e a5 a0 3d 0b 8a 11 3d fa 6e 2f bd
       -0.020773236 0.07844029 0.03553204 -0.042830445
000120 06 60 c5 3b 41 ca 9e bc df 24 3d bd d8 f1 80 bd
       0.00602341 -0.019383552 -0.04617774 -0.06296128
000130 39 d1 68 3c 64 77 c3 3c 6b 5b 2f 3d e3 a8 88 3d
       0.014210039 0.02386064 0.042811792 0.066728376
000140 96 63 ad 3d c9 35 55 3d b7 4f df 3a d4 65 80 3d
       0.0846626 0.052053247 0.0017037307 0.06269422
000150 f4 e6 e4 3b 1b d1 a1 3c a7 14 30 3d 56 40 96 3d
       0.0069855396 0.01975303 0.042988446 0.0733649
000160 5e 05 53 bd f5 af bd bd eb 84 86 bd be ec b3 bd
       -0.05151879 -0.09262077 -0.06568321 -0.08785389
000170 46 cd ba bd af 58 a0 bd 68 7b 8f 3d f8 c6 82 3d
       -0.09121184 -0.07829415 0.0700596 0.063856065
000180 cf 3e c1 bd 70 7c e5 bc 85 43 aa bd 34 a0 d4 bd
       -0.09435808 -0.028013438 -0.083136596 -0.10382119
000190 e9 03 94 3d 92 00 5a bb 24 31 4c bd 5e 97 6b bc
       0.07227308 -0.00332645 -0.04985155 -0.0143793505
0001a0 44 47 93 bd e5 b4 97 bd 86 97 43 3d ce 0f 86 bd
       -0.07191327 -0.0740755 0.047751926 -0.06545983
0001b0 c1 99 5f 3c 87 2a 81 3d be c0 bc 3d 3b 6d 7a 3c
       0.013647498 0.063069396 0.0921645 0.015284832
0001c0 20 98 3d 3d 7d 11 ce 3c 87 9f a4 3d 28 35 50 bd
       0.046287656 0.025154823 0.0803824 -0.050831944
0001d0 c6 d1 c5 3d d8 a7 fe 3c 8a 3a 2e 3b c8 e6 1c bd
       0.09659152 0.031085894 0.0026585185 -0.038306028
0001e0 45 9d 90 3d b5 4a 17 3d 78 4a 00 3d 85 80 d3 3c
       0.07061247 0.03693648 0.03132102 0.025818119
0001f0 a6 24 76 bc 66 4d 4f 3d fa d8 4b 3d 04 c3 d3 3d
       -0.015023386 0.050610922 0.04976747 0.10339931
000200 7a 24 82 3d e4 52 a2 3c 84 b5 bf 3d cc 08 c7 3b
       0.063546136 0.019814916 0.09360793 0.0060740467
000210 4c e1 a2 bc 79 a4 4b 3d 73 84 79 3d 75 fc f4 3d
       -0.01988282 0.0497174 0.06091733 0.11962215
000220 20 24 cf bb b9 e8 ed 3d 3b b8 b1 3d 47 47 84 3c
       -0.006321445 0.11616654 0.08677717 0.016147269
000230 73 de 55 bd a5 5b fc bc 42 5e 9e 3d a8 c9 de bc
       -0.052214097 -0.030805418 0.07732822 -0.027195767
000240 9f 2b 83 3d 39 53 0d bd da ce 2f 3d 7c 86 73 bd
       0.064048044 -0.034503195 0.04292188 -0.059454426
000250 06 df ee bb cf bd 89 3d b4 e3 c6 3d 32 c4 b9 3b
       -0.00728977 0.06725656 0.097114 0.0056691403
000260 30 12 55 3c 8a b0 a1 bd 2b 5d 50 3d 7b 11 a7 3d
       0.0130048245 -0.07895 0.050870102 0.08157631
000270 68 12 a3 bd 96 66 06 3d 2a 4e 80 3d f8 f9 b8 3d
       -0.07962495 0.032812677 0.062649086 0.09032053
000280 85 76 ae 3c ad 5f 60 bd fb 2b ad 3b 37 9a e3 3c
       0.021296749 -0.054778744 0.005284784 0.027783496
000290 8e 7e d2 3d 3e 29 aa bb f0 4d 29 bd ce f4 a5 3c
       0.10278045 -0.0051929047 -0.041334093 0.020258334
0002a0 23 91 89 bd 9c e7 81 bd 57 af 48 bd a6 da db 3d
       -0.06717136 -0.06343004 -0.048995342 0.10735063
0002b0 a5 bb c5 3d 72 9d 7b 3d 6a e4 94 bd a0 3c bc 3d
       0.09654931 0.06142945 -0.07270129 0.09191251
0002c0 08 ea 92 bd 07 19 91 3d 0f 04 18 bd f4 2c 5b 3d
       -0.07173544 0.07084852 -0.037113246 0.053509668
0002d0 49 10 27 3d be be b1 bd 61 55 8c bd 78 03 64 bd
       0.040787015 -0.08678959 -0.06852222 -0.05566737
0002e0 e3 a2 05 bc 73 5c c4 bd 4e 92 f8 3c 5a 19 64 bc
       -0.008156511 -0.09587946 0.030343201 -0.01392206
0002f0 3c e5 a9 bc a4 e9 b6 3d 53 22 1c 3d fb 2b d9 bc
       -0.02073919 0.08931282 0.03811867 -0.02651023
000300 75 db f6 bc 50 86 9c 3c c9 3c 35 bc de 84 4c bd
       -0.030133942 0.019107014 -0.011061856 -0.0499314
000310 8b 6c d6 bc a4 ea 12 3d ea 4d 9a bd 94 a2 0a 3d
       -0.026174804 0.035868302 -0.07534392 0.033846453
000320 d3 b3 42 bd 1e 44 62 3d 24 40 9a 3d dd f1 fc 3b
       -0.047534775 0.055240743 0.07531765 0.007719262
000330 5c b7 af bd 7b bf 5d 3d 48 0a cf bc a0 cd b4 3d
       -0.08579895 0.054137688 -0.025273457 0.08828282
000340 20 29 0c 3d ad 1d 89 bb 6b 8d a7 3b 52 e5 a4 bd
       0.034218907 -0.004184446 0.005113294 -0.08051552
000350 7a d2 bf 3d 1d 1c 5c 3d 53 c6 c6 3a 28 b5 67 bc
       0.09366317 0.05373775 0.0015165306 -0.014142312
000360 03 ab de bd 80 23 99 bd 53 25 53 3d 5e 60 18 3d
       -0.10872462 -0.07477474 0.051549267 0.037201278
000370 05 71 a2 3d 59 64 d1 bc 36 95 31 3c 31 98 43 bd
       0.07931713 -0.025560545 0.010838797 -0.047752563
000380 4d a3 c0 bd 76 ab c3 bc 4d 80 a3 bc 6c a6 25 3c
       -0.09406147 -0.02388547 -0.01995864 0.010110479
000390 d8 e5 79 bd 93 2f 9d bd e7 15 04 bd 6c 01 96 bd
       -0.06101021 -0.0767509 -0.03224745 -0.0732449
0003a0 d8 e6 3f bb f5 7b c5 ba ff a9 0b 3d 72 79 df bd
       -0.002928188 -0.0015066849 0.034097668 -0.10911836
0003b0 05 7b 9a bd d9 5c b8 3d 6b b7 0e bd 47 38 ff bc
       -0.07542995 0.09002084 -0.03484289 -0.031154765
0003c0 58 69 40 bb 32 a1 37 3d 3b eb 21 bd 43 38 11 bc
       -0.0029359665 0.044831462 -0.039530974 -0.0088635115
0003d0 e7 d6 25 3d b7 83 f2 bb 26 db 73 3c a2 f7 35 bc
       0.04048815 -0.0074009555 0.014883792 -0.011106404
0003e0 a2 78 8a 3d 5f a5 b8 3d 1e 37 a0 3b 92 57 b1 3d
       0.0676129 0.09015917 0.004889383 0.08659281
0003f0 9c 38 b7 bc c9 39 0b bd b6 a5 a2 bb 8b 70 ae 3d
       -0.02236586 -0.033990655 -0.004963602 0.085175596

conv1.bias f4 [8]
000000 af bb c7 3d 53 08 48 bd d5 f1 e2 3c 0b a8 57 3e
       0.09752595 -0.048836064 0.027703205 0.21060197
000010 8b 11 be 3c be cd a5 3d 25 52 a8 3d 21 2f 0c ba
       0.023201725 0.08095883 0.08218793 -0.0005347599

fc1.weight f4 [8, 11424]
000000 c7 5d aa 3b 3f 85 26 3c 42 33 af ba be 0d b1 3b
       0.0051991674 0.010163604 -0.0013366716 0.0054032495
000010 ca ba 05 bc 66 61 2c bb 9d 36 2f bb 2d f9 b2 ba
       -0.00816221 -0.0026303171 -0.0026735433 -0.0013654582
000020 12 f2 eb 3a 4d 93 58 ba f4 28 ad 3a 2b 37 19 bb
       0.001800122 -0.00082616956 0.0013211058 -0.002337883
000030 6b a4 03 3c 71 90 07 3c 25 1e 8f bb 84 9b 6f 3b
       0.008034806 0.008274184 -0.004367607 0.00365612
000040 6a 11 fa bb 9f 2c bb 39 60 31 02 bc a5 0b b3 3b
       -0.0076314704 0.00035700665 -0.007946342 0.0054640346
000050 c0 43 f5 3b a9 58 5a 3c e4 f7 0a b9 77 50 05 ba
       0.007484883 0.013326802 -0.00013253052 -0.00050855376
000060 d1 b8 00 bc 82 a6 70 ba a1 c8 29 3c 00 6c ff bb
       -0.007856564 -0.0009180085 0.010362775 -0.007794857
000070 31 ab a5 bb 70 50 aa 3b df 43 71 39 1c 3a 49 3b
       -0.005055808 0.005197577 0.00023008835 0.0030704802
000080 15 62 7f 3b 4e de 1c 3b 17 99 d0 bb bf 5b 23 3b
       0.0038968374 0.0023936215 -0.006365906 0.002492651
000090 34 53 60 b9 ec 8f ff 3b 94 6f ea ba 07 0f 92 3a
       -0.000213933 0.0077991392 -0.0017886036 0.0011143395
0000a0 14 d0 9b 3b ba 1f 8d 3a ee 8b 36 bb 88 49 96 3b
       0.0047550295 0.0010766902 -0.00278544 0.0045864023
0000b0 d4 5a 9f bb fd e6 83 ba c2 07 1a 3c 9c 2b e4 39
       -0.0048631225 -0.0010063347 0.009401264 0.0004352004
0000c0 d6 47 f6 3b 54 35 8a bb 40 0e c9 3a f2 45 81 bb
       0.0075158877 -0.004217783 0.001533933 -0.0039451057
0000d0 b5 d5 c9 bb 1d d2 bc b9 e5 0e ed ba ae dc a1 3b
       -0.006159509 -0.000360147 -0.0018086104 0.004939637
0000e0 48 b8 2c 3b 0d 09 00 3c fe a1 90 3b a8 69 40 bb
       0.0026354957 0.007814658 0.004413842 -0.002935985
0000f0 22 bd 15 ba 01 38 15 bc d1 1c 97 3b 27 ee bf b7
       -0.0005712082 -0.009107591 0.0046115895 -2.2879873e-05
000100 9b a2 06 3c 2e 3f 08 bc a5 80 dd bb 29 9d 41 bc
       0.008217479 -0.008315844 -0.0067597204 -0.011817255
000110 6a 46 c7 ba aa 1f 02 bc f2 87 35 bc c9 8e 02 3c
       -0.001520348 -0.00794212 -0.011079775 0.007968613
000120 04 04 b8 bb f1 31 24 3c 31 ae 37 bb 75 24 d3 ba
       -0.005615713 0.010021673 -0.002802741 -0.0016108888
000130 fb 09 87 3a a5 7a 27 3c 10 ef 85 bb e1 cb 82 bb
       0.0010302657 0.010222112 -0.0040873364 -0.0039915894
000140 61 a3 d1 bb 52 1d 12 3c 36 5e f7 bb bd 42 a9 bb
       -0.00639765 0.008918123 -0.0075490726 -0.0051654265
000150 7c 97 0d bc 61 31 7f bb b0 24 01 3c 52 ce 42 bc
       -0.008642074 -0.0038939344 0.007882282 -0.011890011
000160 1e b2 e3 3b e9 2e 4d bb db 64 38 3a 99 7f 00 ba
       0.0069487235 -0.0031308478 0.00070340716 -0.0004901826
000170 63 40 af 3b 14 98 a1 bb 70 00 1e bc fa d7 f0 3a
       0.0053482517 -0.004931459 -0.009643659 0.0018374913
000180 0d 54 10 bc 51 46 92 bb 70 6f 07 bc d4 6d 00 bc
       -0.008809102 -0.004463949 -0.008266315 -0.007838685
000190 29 64 1f 3c ab a4 d0 bb ea 4a 4f 3b 3d 35 70 bb
       0.00972847 -0.006367286 0.0031630346 -0.0036652826
0001a0 91 93 77 3b f8 04 f4 3a 5b da 0f ba 24 1b bc 3b
       0.0037777165 0.0018617203 -0.00054875546 0.00574054
0001b0 97 45 b9 bb 00 41 c6 b9 d9 6b 12 bb a9 71 e4 bb
       -0.0056540477 -0.00037813932 -0.0022342114 -0.006971557
0001c0 6f 5a a7 3a 9e f1 c1 ba fa b6 32 bc 90 fb ef 3b
       0.001276804 -0.0014796739 -0.010907883 0.0073236898
0001d0 63 ff 12 bc e9 32 8b bb 05 28 0b bc 26 9a b7 3b
       -0.008972022 -0.0042480123 -0.008493428 0.0056030927
0001e0 f1 a1 1a 3b 57 44 40 bc ef 4f 0f 3c e7 b9 9c 3b
       0.002359506 -0.0117350435 0.008747085 0.0047829035
0001f0 6e 25 31 3c 8c 62 f2 bb 99 81 c8 3b da fe 30 bb
       0.010812147 -0.0073970016 0.006118965 -0.0027007372
000200 c5 ae 6b 3b 72 67 84 39 db 3f c6 3b 0f b4 29 bc
       0.0035962325 0.00025254075 0.0060500926 -0.010357871
000210 e3 5a fc 3a b4 a4 4b bb 17 fb e2 ba cb c3 a7 bb
       0.001925316 -0.0031073513 -0.0017317262 -0.005119776
000220 9a 68 af 3a 89 3c 76 3b 61 6d 1f bc 46 c0 c2 bb
       0.0013382614 0.0037572703 -0.009730668 -0.005943331
000230 b6 40 fb 39 22 18 18 bc f2 3f 67 3b 19 de 1a bc
       0.00047922664 -0.009283097 0.0035285917 -0.009452366
000240 39 88 84 bb 37 8b 0e bc ff b7 0a bc f7 94 cb 3a
       -0.0040445593 -0.008700184 -0.00846672 0.0015532066
000250 02 54 09 bc ec f8 f5 ba e2 8b db bb 9d 7a 51 bb
       -0.008381845 -0.0018766201 -0.006700025 -0.0031963952
000260 a4 12 78 bb fe ff 0a 3c 6d d6 70 3a be 0e d3 3b
       -0.0037852908 0.008483885 0.00091872254 0.0064409664
000270 09 1e 1d 3c fb 16 c7 bb dc be 0b bb e1 5c 75 3b
       0.0095896805 -0.0060757375 -0.0021323478 0.0037439393
000280 9f 10 05 3c 97 c8 83 3b af 87 14 3c a0 df 31 ba
       0.008121639 0.004021715 0.009065553 -0.0006785337
000290 58 2d e7 3b 45 f0 46 bb c7 08 af 3b 34 7f e0 3b
       0.007054966 -0.0030355614 0.0053416225 0.0068511013
0002a0 50 9e e9 bb 04 0e a9 3a 54 d3 a7 3b 69 d0 1c bc
       -0.007129468 0.0012897854 0.005121628 -0.009571173
0002b0 2f 52 81 3b 29 e4 80 3b 3a 12 ce bb 85 8f 1b bb
       0.0039465646 0.003933449 -0.006288794 -0.0023736667
0002c0 62 fb bf 3b 5b 42 f6 bb 94 11 bc bb d3 66 99 3b
       0.0058588246 -0.0075152344 -0.0057394 0.004681447
0002d0 89 61 20 3c e3 ee 44 3c 91 3e 70 bb 47 48 06 3b
       0.009788879 0.012019846 -0.0036658386 0.0020489858
0002e0 32 e0 12 bb 53 43 bb bb ab ae 15 bc 44 cd d3 3a
       -0.0022411463 -0.005714813 -0.009135882 0.0016159196
0002f0 64 40 1a bc 3e d3 1e ba 64 31 79 bb 62 75 ca bb
       -0.009414766 -0.0006058699 -0.0038023824 -0.006178544
000300 e3 6c 94 bb c8 f7 85 3b 2a 7e 41 bb b8 90 05 3b
       -0.004529582 0.0040883757 -0.0029524663 0.0020380449
000310 f8 00 2c 3a 45 2b 45 3b a4 ad 01 3c f8 77 09 bc
       0.00065614237 0.0030085605 0.007914934 -0.008390419
000320 f3 57 7d 3b b3 c2 db 3b 60 8c fc bb 13 0e e7 3b
       0.0038657158 0.0067065596 -0.0077071637 0.0070512383
000330 0d e6 25 ba 45 e7 96 bb 27 8b 93 bb 3f e0 50 3a
       -0.0006328531 -0.004605206 -0.0045026722 0.00079679856
000340 51 21 04 bb b9 d7 d2 3b f0 fb fe bb f5 4a af bb
       -0.002016146 0.0064344076 -0.007781498 -0.0053495117
000350 ad 16 39 bc 99 ab 48 3a 3c 34 49 3b a6 4a 5e 3b
       -0.01129691 0.00076549646 0.00307013 0.0033919006
000360 9f 89 3f bc ee 97 f8 3b 6c 81 fc ba 0b fa 7e bb
       -0.011690526 0.007586471 -0.0019264645 -0.0038906361
000370 ef 91 40 3b 5b ed 7f bb c9 9c 0f bb 2e 10 c4 bb
       0.0029383858 -0.0039051387 -0.002191352 -0.005983374
000380 a9 79 4b bb 93 0d 98 bb fc 1c b8 3b c5 07 ea ba
       -0.0031047857 -0.00464029 0.0056186896 -0.0017855099
000390 70 77 fd ba 1f a9 79 bb d6 b7 29 b6 9d b6 8f 3b
       -0.0019337963 -0.0038095189 -2.528997e-06 0.004385783
0003a0 7a d3 6c 3a 90 f6 b6 3b 1d 8c 20 ba cf f5 26 bb
       0.0009034198 0.0055835918 -0.0006124394 -0.0025476103
0003b0 0b d4 fa bb a2 1e 0f bb 0b d9 3f 3c 48 9c bc ba
       -0.007654672 -0.0021838327 0.011709462 -0.0014389837
0003c0 96 1a 6a bb 56 8e 17 ba 8b 87 c3 3b 47 44 83 bb
       -0.0035721413 -0.00057814026 0.0059670857 -0.004005942
0003d0 5c 7b 10 3c e9 d9 35 3b 90 18 24 bb da 02 1b 3c
       0.008818474 0.0027748293 -0.0025039054 0.009461129
0003e0 df 0c 11 3c 3d e9 44 3c 29 8b bf bb b6 44 e2 bb
       0.008853166 0.012018499 -0.0058454466 -0.0069051636
0003f0 e5 57 02 3c 9d 79 03 3c 9e 27 97 3b 2a 4d 11 3c
       0.007955526 0.0080246 0.004612877 0.008868495

fc1.bias f4 [8]
000000 bd 42 b0 ba 04 b8 6b 3b b9 13 23 bc 39 4f 1d bc
       -0.0013447624 0.0035967836 -0.009953433 -0.009601408
000010 0e e2 88 3b 19 82 ff bb 03 bd 2e 3a 13 f1 33 bc
       0.0041773384 -0.0077974913 0.0006665738 -0.01098277
