PythonClient/saved_models/0-2024-05-16.pth (torch, 38520 bytes, 3 tensors)

conv1.weight f4 [6, 3, 8, 8]
000000 e8 6f 5a 3d ea cf 26 3c 26 9f 71 3d 54 a2 f4 3c
       0.05332938 0.0101814065 0.058989666 0.02986256
000010 4f f8 e0 3d 55 88 ac bc 31 63 97 3d 84 18 19 bb
       0.10984861 -0.021061102 0.07391966 -0.002336056
000020 0e f5 17 3e ef d4 eb 3d a1 dd f3 3d b6 9f cd 3c
       0.14839575 0.11515223 0.11907507 0.02510057
000030 6e 9a cb 3b 7b d4 8f bc 4b 8d 8b 3d 65 df 49 bd
       0.006213478 -0.017557373 0.06814059 -0.04928531
000040 af 6b c5 3d 8b 3d 02 3e f1 c4 f9 3c 39 24 4a 3c
       0.0963968 0.1271879 0.030489417 0.012337738
000050 72 2f c7 3d 3b 0c 07 3c e6 99 0d bd bb 98 0b bc
       0.09725846 0.008242662 -0.034570597 -0.0085203005
000060 60 22 73 3d da e2 d2 3c 2e 45 a7 3c 9a 43 11 bd
       0.059358954 0.025742937 0.02041873 -0.03546486
000070 4f f9 ab bc 5f 2d 53 3d b3 0f 5a bc 4b b2 0f 3d
       -0.020992903 0.05155694 -0.013309407 0.035082143
000080 fe c9 12 3c 4b cb 81 3d 6a ed 62 3d f5 43 bb 3a
       0.0089592915 0.06337603 0.055402197 0.001428722
000090 ac b6 ae bd e9 f4 cd bd 43 ff c4 bc c2 ad ff bc
       -0.08530936 -0.100564785 -0.0240475 -0.031210784
0000a0 56 cb 84 3c 5f 61 a7 bc b0 ad 3e bd 7b 8f 8c bd
       0.01621024 -0.020432172 -0.04655236 -0.06863304
0000b0 b7 ff 4e bd 4c 27 88 bd 27 1e cf bd 52 e8 fd bd
       -0.050536837 -0.0664812 -0.10113173 -0.12397827
0000c0 14 c9 2d bd a2 2f b9 bb 0f f4 58 bd 56 0a 0f bd
       -0.04242809 -0.00565143 -0.052967127 -0.034921966
0000d0 41 7b fb bd 4b 91 eb bd d1 78 81 bd 4b 88 f0 bd
       -0.12279368 -0.11502322 -0.06321872 -0.11744746
0000e0 fe d0 7c 3d ab 3d 21 bb cd 94 63 bd 29 e4 ac 3c
       0.061722748 -0.0024603407 -0.05556183 0.021104889
0000f0 54 cd ca bd 4d a2 64 bd 40 e3 de bd d9 cc 53 bd
       -0.099024445 -0.055818845 -0.10883188 -0.05170903
000100 9e 5e bc 3d da 39 e1 3d b9 02 d8 3c 7a a9 f1 3d
       0.09197734 0.109973624 0.026368486 0.11799903
000110 74 13 ef 3d 37 2d b1 3d 4b eb af bb a6 89 08 bd
       0.11673632 0.08651202 -0.0053686253 -0.033334397
000120 36 a3 0d 3e 38 bf 06 3e 24 c8 cd 3d 31 7b e3 3d
       0.13831791 0.13158882 0.100479394 0.11107481
000130 ca 3d aa 3a 29 06 9f 3c e3 03 1b bd de fb 84 bc
       0.0012988385 0.019412117 -0.037845504 -0.01623338
000140 e9 f0 20 3d a4 50 fe 3d 1c f8 8e bc ac 75 bf 3d
       0.03929225 0.12417725 -0.017452292 0.09348616
000150 e6 31 ad 3d d8 4c 64 3b a9 38 9f bd c2 5b 0d 3b
       0.08456783 0.0034835842 -0.07774479 0.0021569584
000160 be 10 59 3d 1e 6c 01 3d 7c 0f 9f 3d c3 08 57 3d
       0.052994482 0.03159725 0.07766625 0.05249859
000170 bf 2f c2 3c d5 7d 55 bc 67 77 b8 bc d4 e8 26 bd
       0.023704408 -0.013030489 -0.022517873 -0.040749386
000180 e6 c3 d2 bb b7 ec 4a bd 71 a5 42 bd 03 ab 5f bd
       -0.0064320443 -0.049542155 -0.04752106 -0.05460645
000190 72 44 d0 3c 85 2e 5d bd 95 6f d4 bc 80 25 9a bd
       0.025423262 -0.053999443 -0.025932113 -0.07526684
0001a0 ed a4 45 3d 13 79 68 bc 1d e7 f1 bc b7 71 2d 3a
       0.04825299 -0.014189023 -0.029529149 0.0006616371
0001b0 50 13 ee bd b4 7c 61 bd 33 5a d9 bd 9e 9b a3 bd
       -0.11624777 -0.055050567 -0.10612907 -0.07988666
0001c0 7f 36 e8 3b fe 84 99 bc c9 ba 33 3b 77 e9 8f bd
       0.0070865746 -0.018740173 0.0027424565 -0.07026952
0001d0 e9 cb 90 bc 63 8c 64 bd 5d 2c b5 bd 07 b9 f9 bd
       -0.017675357 -0.055797946 -0.08846352 -0.12193494
0001e0 bf d3 d0 bc 78 14 32 bd 83 7b e0 ba db 36 38 bd
       -0.025491593 -0.04347655 -0.0017126653 -0.04497419
0001f0 4f 7c 01 be 69 71 39 bd fd 1d 09 be 59 3c a6 bd
       -0.12645076 -0.045274172 -0.13390346 -0.08116979
000200 50 df f4 3d d7 a6 9c 3d e5 5d a0 3d 23 fe 4f 3d
       0.11956656 0.0764901 0.07830409 0.050779473
000210 eb 47 08 3e cd a9 b4 3d a7 9a 2d 3d b6 88 8f 3c
       0.13308685 0.088214494 0.042383816 0.017521244
000220 fe 14 67 3d a4 46 ea 3d 02 47 0a 3e 6b 99 58 3d
       0.056416504 0.11439255 0.1350365 0.052880686
000230 d0 4a b8 3d df 40 4d 3d d2 a7 fc bc 17 e0 a3 3c
       0.08998644 0.050110694 -0.030841742 0.020004315
000240 8c 8d 1a 3d 67 83 a2 3c 13 1f 35 3d 7c 20 b8 3a
       0.037732646 0.019838048 0.044219088 0.0014047767
000250 90 0b d2 3d 95 98 23 3d 57 05 43 3c b2 f2 a5 3d
       0.102561116 0.039940435 0.011903129 0.08102931
000260 d4 33 ba 3c 35 f1 c2 3d 9c 12 35 3d 61 f7 f4 3c
       0.022729792 0.09518663 0.0442072 0.029903116
000270 32 0d 67 bd da 80 72 3d 92 7e f8 3c 89 b1 90 bd
       -0.05640907 0.059204914 0.03033379 -0.07065112
000280 0f de da bc f9 5c 22 bd 40 c9 eb bb ff ff 5a 3d
       -0.026717214 -0.039639447 -0.0071956217 0.053466793
000290 77 b0 ff 38 ec 24 a4 bd 2d 1e cf bd ad 84 b2 bc
       0.00012192217 -0.08014855 -0.101131774 -0.02179178
0002a0 e2 8a 9e 3d 5b 2b 02 3d 73 fc 50 bd 3b 51 69 bd
       0.077413335 0.03177963 -0.051022004 -0.056962233
0002b0 9a 28 96 bd 15 66 88 ba 1c e7 10 3c 82 b2 e2 bd
       -0.07331963 -0.0010406399 0.008844163 -0.11069204
0002c0 44 d9 6c bd 0a 81 85 3c 89 72 ac bc 85 cf e9 bb
       -0.05782439 0.016296882 -0.021050708 -0.007135334
0002d0 10 9a 99 bd d8 e5 be bd da 32 59 bc a2 f9 e0 bd
       -0.07500088 -0.09321183 -0.013256753 -0.10985114
0002e0 ad fd 1d ba 5c 2a 54 3d 8b e8 ad 3c 25 88 6b bd
       -0.00060268753 0.05179821 0.02122905 -0.057502884
0002f0 8c 58 bb bc 3a b8 f2 bc 12 f9 67 bc e4 57 40 bd
       -0.02286937 -0.029628862 -0.014158504 -0.04695882
000300 38 d6 54 3d 7a f8 3f bd a2 50 94 bd 35 a1 16 bc
       0.051962107 -0.046867825 -0.07241942 -0.009193708
000310 48 db 2d 3d 9e a1 ad bc 7b 50 45 bd c6 8f 00 bd
       0.04244545 -0.02119523 -0.048172455 -0.031387113
000320 5c 8d c0 bb 59 d6 44 3d 20 b8 90 bd 63 45 c1 bc
       -0.0058762264 0.04805598 -0.07066369 -0.023592656
000330 36 84 49 bc d2 8e dd 3c 01 46 a8 bd 9c 44 90 bd
       -0.012299588 0.027045641 -0.08216477 -0.07044336
000340 ec 77 dc 3b cb 00 c7 3c 05 cd 85 3c b3 c9 54 bd
       0.006728163 0.02429237 0.016333112 -0.051950168
000350 de 3f 95 bc 2c 00 be bd be 60 ad bd 6a 6f aa bd
       -0.01821893 -0.092773765 -0.08465718 -0.08322032
000360 1b 69 1d 3d d0 c4 94 bd 0f 71 20 3b 12 1a 73 bd
       0.038430315 -0.072641015 0.002448145 -0.059351034
000370 ec c4 3f bd 02 2a 12 bd 21 01 5f bd 7b 6c 44 bd
       -0.04681866 -0.035684593 -0.054444436 -0.047955018
000380 74 43 48 bd d5 8b 9d 3d b5 6f 8e 3d 2d 87 1f bd
       -0.048892453 0.076926865 0.069549 -0.038947273
000390 8f 07 34 bd ae ca a8 bd 3b f2 89 3c 47 1a d2 bd
       -0.04395252 -0.08241783 0.016839137 -0.10258918
0003a0 58 eb d3 3c 4d 41 66 3d d9 f9 58 3d b2 26 94 3c
       0.025869057 0.05621462 0.05297265 0.018084858
0003b0 9a fe 57 bd a1 f4 71 bd f8 5e ea bb 10 61 80 bd
       -0.05273304 -0.059071187 -0.0071524344 -0.06268513
0003c0 75 5f 17 bd 4c 4c b4 3d d4 77 ab bb ba ad 6c bc
       -0.03695627 0.08803615 -0.0052327905 -0.0144457165
0003d0 17 58 83 3d 28 b4 28 3a 37 31 b0 bd 66 35 29 3d
       0.06413286 0.0006435537 -0.08603137 0.04131069
0003e0 a8 30 95 3d 00 e6 74 bc fd ef d9 bc e3 f4 35 bc
       0.07284671 -0.014947414 -0.026603693 -0.011105749
0003f0 18 d6 97 bd 3b 7f c2 3c 59 01 2d bd 11 15 2d 3d
       -0.07413882 0.023742309 -0.042237613 0.04225642

conv1.bias f4 [6]
000000 9e 1b 12 be 2d d6 97 be 55 fb b1 bd a5 5a d8 bd
       -0.14268348 -0.2965559 -0.08690516 -0.10564164
000010 fe c1 22 bd 61 24 1c be
       -0.039735787 -0.15248252

fc1.weight f4 [1, 7938]
000000 2e cf 5b bd e3 db 75 bd 35 e3 d2 bc df 9d 8e bb
       -0.05366438 -0.060024153 -0.025743106 -0.004352316
000010 98 ef e4 bc 07 a8 10 bb 48 91 1a bd 1f 3f f2 bc
       -0.027946278 -0.0022072808 -0.037736207 -0.029571114
000020 3b 09 58 3b 8c 7b 7d bb c6 6b 0a 3d 10 ff b5 3c
       0.0032964486 -0.0038678376 0.033794187 0.02221635
000030 5a 0b eb 3b ff 5d d9 3c db 2e d3 3d b8 fc bd 3d
       0.007172984 0.026534079 0.10311671 0.09276718
000040 4e ba ae 3d 80 a8 95 3d 60 fe 8b 3d 17 ad 9e 3d
       0.085316285 0.073075294 0.068356276 0.07747858
000050 fa f1 81 3d 70 5f 51 3d e5 cf 1a 3d 1d 6d 0a 3d
       0.063449815 0.051116407 0.03779592 0.033795465
000060 0a c3 8d bc fa 79 1f bd 40 fe d6 bc c7 b3 dc bc
       -0.017304916 -0.038934685 -0.026244283 -0.026941193
000070 7a 3f 02 bd 59 f1 00 3c c8 d7 03 3c 17 94 15 bd
       -0.031798817 0.007870042 0.008047052 -0.036518183
000080 b1 91 fc bc c5 24 86 bd 6a c7 69 bd ed 92 53 bd
       -0.03083119 -0.06549982 -0.05707494 -0.05165379
000090 e2 66 92 bc 50 88 6e bd 2d 78 95 bd 58 39 ba bd
       -0.017871324 -0.058235466 -0.07298312 -0.09092969
0000a0 8c 98 98 bd 10 87 b1 bc 9e f9 ef bc 8e 3d d0 bc
       -0.07450971 -0.021670848 -0.029293831 -0.025419977
0000b0 ab 65 63 bd 57 85 25 bd 37 a3 0e 3c 6b a0 5f 3d
       -0.05551688 -0.040410366 0.008705906 0.054596346
0000c0 52 5c ed 3c 95 cc 50 bd e6 c7 f6 bc 38 7b b6 bc
       0.028974686 -0.050976355 -0.030124616 -0.022275552
0000d0 92 c7 ce bc a1 b9 f4 bc eb cd 85 bc 5d 72 48 bd
       -0.025241647 -0.029873671 -0.01633354 -0.04893719
0000e0 ec c1 9f bc 2f 93 6b 3c bc 24 c0 3c ae c0 0f 3d
       -0.019501649 0.014378353 0.023455016 0.035095863
0000f0 28 f7 f6 3c 40 2a f7 3c 42 96 57 3d ba ab a6 3d
       0.03014715 0.030171514 0.05263353 0.08138223
000100 d9 3a 82 3d 3f 2b 92 3d cb 32 48 3d 69 e4 70 3d
       0.063588805 0.07137155 0.048876565 0.05881158
000110 c9 38 97 3d 46 e6 6d 3d 77 82 60 3d 74 00 98 3d
       0.07383878 0.058080934 0.05481192 0.074219614
000120 d6 8d 87 3d 85 9c 81 3c 50 59 22 bc ed 1b 03 bd
       0.0661885 0.015821705 -0.009908989 -0.032009054
000130 b0 af 3a bd 69 df 2b bd da 0e 23 bc fb cf 4b bc
       -0.045577705 -0.041961107 -0.009952271 -0.012439723
000140 d3 47 52 bd 0b b6 b6 bd d0 91 af bd ba 7e 08 bd
       -0.05133803 -0.08921441 -0.085727334 -0.03332398
000150 26 3d 25 bd 51 77 e6 bc ee 43 69 bd a0 c7 80 bd
       -0.04034152 -0.028133066 -0.05694955 -0.062880754
000160 62 37 a8 bd 9a ae 8b bd 24 69 39 bd 6f 11 7f bd
       -0.082136884 -0.06820412 -0.045266286 -0.062272485
000170 f0 56 69 bd 84 41 98 bc ae be 34 3d d8 1f 6a 3d
       -0.056967676 -0.018585928 0.04412716 0.057159275
000180 48 38 84 3d d5 6e e1 3c ce b8 b2 bd 7c 6f 40 bd
       0.06456047 0.02751867 -0.08726655 -0.04698132
000190 e1 0f 4e bc a4 e9 68 bc d9 eb 11 bd 67 02 2e bd
       -0.012577028 -0.0142158605 -0.035625312 -0.04248276
0001a0 41 a8 8d bd 6c e6 09 bd 7a 9d 7b 3c 4f 29 0e 3d
       -0.069168575 -0.033667013 0.01535737 0.034707364
0001b0 46 f9 05 3d 58 b0 fc 3c f5 6a 95 3c 98 3e b0 3c
       0.03270843 0.030845806 0.018239478 0.021514222
0001c0 6f 13 b5 3d 62 da f3 3d 2f fe d1 3d 12 9f 68 3d
       0.08841597 0.119068876 0.1025356 0.056792326
0001d0 1e e9 76 3d 83 55 85 3d b4 65 4f 3d c8 a0 5c 3d
       0.06028091 0.06510451 0.0506341 0.05386427
0001e0 3e 89 8c 3d ce aa 41 3d 92 88 aa 3c 0a d9 a8 bc
       0.06862114 0.047282033 0.020817075 -0.020611305
0001f0 c6 22 45 bd 31 4a f2 bc bc 45 79 ba 14 42 19 bc
       -0.048128866 -0.029576393 -0.00095089874 -0.009354133
000200 d7 ba a3 bc 97 0c 9c bc 3f f2 73 bd 77 3c 30 bd
       -0.019986553 -0.019048972 -0.059557196 -0.043026414
000210 1c 0a 8f bc b8 4f de bc 5c db bd bc 8a db 0d bd
       -0.017460875 -0.027137622 -0.023175888 -0.034633197
000220 03 44 71 bd 3a 29 95 bd 69 71 41 bd 4b 9f a3 bb
       -0.05890275 -0.07283254 -0.047227297 -0.0049933544
000230 02 ae 29 bc d6 cf f2 3c fd 24 d3 3b 00 e1 98 ba
       -0.010356428 0.02964012 0.0064436183 -0.0011663735
000240 7e 04 e2 3c 9b 5d 94 3c 7c be 9a 39 27 34 9b bd
       0.027590033 0.01811104 0.0002951509 -0.07578307
000250 6c 97 cd bc 99 72 87 bc f3 95 af 3c 62 ae f4 3b
       -0.025096618 -0.016534137 0.021433806 0.007467077
000260 9b 64 7a 3c c1 d1 c2 bc 2f 0d 83 bc fd ff 5f 3b
       0.015282775 -0.02378166 -0.015997497 0.003417968
000270 28 f3 aa bc 98 dd 91 b9 d3 3c d7 3b ae df b4 3c
       -0.020867899 -0.00027821655 0.00656853 0.022079315
000280 ab 0d 2d 3d 32 e8 b2 3d c8 3f 9f 3d da 85 d6 3d
       0.042249363 0.08735694 0.07775837 0.10474749
000290 c3 bc a2 3d 67 a1 ab 3d 78 aa 30 3d 4e 27 6a bb
       0.0794616 0.083803944 0.04313132 -0.0035728994
0002a0 32 25 59 3c b7 91 13 3b bd 26 f8 3b ef 0d 41 bb
       0.013253497 0.0022517273 0.0075729773 -0.0029457768
0002b0 fa b5 bc bc c0 68 9d bb 31 62 4f 3b 5d 35 18 bd
       -0.023035992 -0.004803747 0.003164422 -0.037160266
0002c0 28 72 f5 bc 67 f0 75 bd 01 d2 8a bd 62 50 3f bd
       -0.02996166 -0.06004372 -0.06778336 -0.04670752
0002d0 94 6c f9 bc c5 8d ec bc ec 6e 00 3c c3 58 01 3d
       -0.030447282 -0.028876195 0.007838946 0.03157879
0002e0 f6 84 97 bc 89 ce 19 bd cf aa 67 bd 97 7a 60 bc
       -0.018496018 -0.037550483 -0.05655938 -0.013701103
0002f0 3e 39 b3 3c 34 67 d4 3b b5 4a 6e 3b 44 f5 be bc
       0.021877881 0.0064820293 0.0036360447 -0.023310311
000300 47 47 01 bc 2c ab 0e 3d 28 44 86 3c be 32 6a bb
       -0.007890529 0.03483121 0.016389921 -0.003573581
000310 6c c2 80 bd ca 37 02 bd 10 cc a1 bc 8b 61 6e 3d
       -0.06287083 -0.031791486 -0.019750625 0.058198493
000320 2f ae ef 3c 62 6c 47 bc 22 c0 54 bd c7 dd 2b 3c
       0.029257862 -0.012171837 -0.051941045 0.010489888
000330 8e 98 23 3d ca 99 a3 3c fc 94 d6 bb 9b fc 32 3c
       0.03994041 0.019970793 -0.006548522 0.010924484
000340 26 fe 17 3d 98 cb 25 3d 2c 8b 07 3e 62 28 eb 3d
       0.03710761 0.040477365 0.13236684 0.11482312
000350 7e 62 be 3d dc e0 8a 3d 7a f8 50 3d f2 ae 7a 3c
       0.0929613 0.0678117 0.051018216 0.015300499
000360 5f 80 25 3d 83 f1 97 3c 77 71 9a 3c 86 26 90 3c
       0.040405627 0.018547779 0.018852932 0.017596494
000370 12 1c d6 bc 5e 50 67 bd 88 c5 73 bd 81 ba 8e bd
       -0.026136432 -0.05647313 -0.059514552 -0.069691665
000380 79 c0 b9 bd d1 7d 94 bd 8e f7 5e bd 3f 84 06 bd
       -0.09069914 -0.0725056 -0.054435305 -0.032840963
000390 06 4d 24 bd 6f 80 9c bc 13 84 1a 3c fd 3b 4d 3b
       -0.040112518 -0.01910421 0.009430903 0.0031316273
0003a0 2f 3b 5d 3c d9 79 35 bd bd 1a 88 bd 54 28 8c bd
       0.01350288 -0.044305656 -0.06645725 -0.068436295
0003b0 36 e7 4a bd 0f 62 2c bd db 59 6f bd 1a 8d 14 bd
       -0.049536906 -0.042085703 -0.058435302 -0.036267377
0003c0 1b b8 90 bd ff 5e d0 bc a5 98 53 bc 2b e9 87 bc
       -0.07066365 -0.025435923 -0.012914811 -0.016590675
0003d0 d0 df 2b bc 29 b2 f7 bc 95 6c 8b 3c 0f e8 92 3c
       -0.010490373 -0.03023632 0.01701955 0.01793292
0003e0 e9 20 0a 3d 0d aa b2 3c 68 63 4e 3c 1a aa 56 bd
       0.03372279 0.021809602 0.0125969425 -0.052408315
0003f0 dc bf 1a bc 4c 2b c8 3c 93 e8 2e 3b c8 d0 8a bc
       -0.009445157 0.024434708 0.0026688918 -0.016945258
