PythonClient/saved_models/0-2024-05-15.pth (torch, 38520 bytes, 3 tensors)

conv1.weight f4 [6, 3, 8, 8]
00000000: d3b7 6cbd f2bc 7dbd 2051 4dbd e88c a3bc
00000010: 682a cf3c c07e e3bc acb3 9dbd 1895 e83c
00000020: a24c 3b3d 5292 87bd 0601 673d 8be7 58bd
00000030: 30b2 9e3c 7510 433d beea 30bd ede3 073d
00000040: 92da 4e3d 9280 613d ec1a 19bd 9f11 19bd
00000050: 4c02 85bd 872c 87bd 5aa3 2ebd e2d1 a8bd
00000060: 7077 f2bc 4963 4fbb a9b1 14bd 35a8 863c
00000070: 3d4c 21bd c6a4 29bd f78c 5cbc 4091 a8bb
00000080: 340f cb3c d363 00bd 3c73 48bc 1987 c23c
00000090: 7a55 c03c c2c2 86bd 1e24 903c 862d 03bd
000000a0: f771 383d 554d 8dbd f2f5 1c3d 5531 f73c
000000b0: 9ecf adbd 9173 89bc 6411 a9bd 7203 afbc
000000c0: f808 0bbd cd2e b1bd 7de4 cfbc a627 6bbd
000000d0: 59fa b4bc 6288 03bc b3f8 543d 03f8 24bd
000000e0: 8bd4 a1bd dc6c df3c d5a7 52bd 0b5e 823b
000000f0: 782d 48bd f487 a5bb 34fe e1bc 5744 cebc
00000100: 57bc a23c 180f ddbb b178 87bb 3622 f1bc
00000110: d104 153d 5d69 763d a51f 59bc 12f2 633d
00000120: 51a0 3cbd 3952 93bd acef 1d3d 5226 9dbd
00000130: 8f76 0e3d e287 4d3b d86b c0bc 4c5d 9ebd
00000140: 4887 a0bd 37c4 1dbd 648d 803c aafa bfbc
00000150: 6775 903c 0e71 9abd e9e4 e73c 6c3d 1dbd
00000160: aebc 673c ff72 37bd 83d0 72bc 9d28 f43c
00000170: b055 15bd 7f68 4e3d cdf3 38bd 590b f7bc
00000180: d70d 793c 38d3 563d 8bec 7cbd e5c4 41bc
00000190: ce11 9cbd e427 8bbd 52fe 07bd d022 1f3d
000001a0: 65cb 19bd 98d3 ad3c 31b5 d8bc acaf 0b3d
000001b0: b7e5 eabc ac6e abbd 7065 35bd 88cc a2bd
000001c0: 9e7c b9bb 373b 37bd f95c 003c 9d56 173d
000001d0: 0e93 af3c 6b1c 54bc ba44 cdbc 3409 acbd
000001e0: 2a85 a6bc 8e06 1e3d 7921 223d 76ca 913c
000001f0: 1ad9 983b 9bce 553d 0e4b 20bc 35c4 70bd
00000200: 77e6 053d 25ca 623c 0cf5 9ebc 6574 46bd
00000210: efd3 e23c cb71 4e3d e76e 96bd c430 553d
00000220: d15a 85bd 30c2 99bc 7f1c 0f3d df53 51bd
00000230: 3fa6 d33c 2162 153c a39f 22bd 31ca 803d
00000240: 352f 93bc 5aa9 6abc d450 24bb 8af3 0f3d
00000250: 1117 5b3c 8cd2 343d 3329 653c ed39 383d
00000260: 9a0c 103d 9841 56bd 21b1 89bd c100 743d
00000270: 1bc1 533c 8e61 c9bb c8e1 25bd fb3e 8ebd
00000280: 5ec7 dd3c 6181 633d 6258 e3bc adfb 6c3c
00000290: 64c7 163d f442 6a3d a8b3 63bc 7565 e538
000002a0: fe69 da3a 40a8 88bd 1dc6 68bd f84c 213d
000002b0: 2005 1d3b c363 ce3c 9af3 27bd f4e7 883c
000002c0: eecd 943c a5ef 3a3d 00eb c03c 7107 fabc
000002d0: 8db2 5c3d 7447 0ebd bd9c 4e3d 7dc1 1e3d
000002e0: d910 18bd 0f8a afbc f6f0 90bd 5c7c 213d
000002f0: 5809 26bc 9134 703d c9fd 9ebc 7f32 fa3c
00000300: 77bf 0e3e e462 003e 15cd f53d f6ad 9e3d
00000310: 3fe7 0f3d 3bbd e73d 35f7 443d 68c1 053e
00000320: 46f1 423d 25e5 033e 50a9 373d d3bf b03c
00000330: 1c6e 123e 608b f53d e311 093e 0357 e7bb
00000340: a0af bd3d 6235 b63d a3d6 e43d b6e0 193d
00000350: 36a1 08bb d552 5fbb 9722 4c3d 7bd1 8e3d
00000360: d928 8c3d b219 0c3e 45e4 b03d 0112 e33d
00000370: 7d74 0b3d 7577 383c 1404 6e3d 0ba0 5e3d
00000380: 22dc 25bc 1032 f5ba afb5 1bbd 7ee6 7c3d
00000390: fc80 cbbc 2c74 9fbd c4bf b1bd d444 b1bc
000003a0: e0c1 573d ff36 2b3d a2f8 ab3d e2ce 563d
000003b0: 73aa 5e3d aba5 25bb b60e 6cbd 13f3 fbb9
000003c0: fe62 5a3d 8b98 623d 387b 733d 0085 90bc
000003d0: 8300 9d3c 89c3 a7bd 0b8e aabd 6dbe 8cbd
000003e0: e675 8c3d e64f 79bd b1b2 7dbc 82aa 33bd
000003f0: e0af c6bd 8470 c3bd bfa9 acbd 91a2 8fbd
-0.057792496 -0.06194777 -0.050126195 -0.01996465 0.025288776 -0.0277704 -0.07700285 0.028391406
0.04572738 -0.06619705 0.05639746 -0.05295519 0.019372076 0.047623117 -0.043192618 0.03317635
0.050501414 0.055054255 -0.03737919 -0.03737032 -0.06494579 -0.0660029 -0.042636253 -0.08243157
-0.029597968 -0.0031644872 -0.036302242 0.01643763 -0.039379347 -0.041416906 -0.013461343 -0.0051442683
0.024787523 -0.0313452 -0.012234505 0.02374606 0.023478258 -0.06580116 0.017595347 -0.032025836
0.04503056 -0.068995155 0.03832049 0.03017489 -0.084868655 -0.01677874 -0.0825527 -0.021363948
-0.0339441 -0.08651505 -0.025377506 -0.05741086 -0.022092031 -0.008028122 0.05199499 -0.040275585
-0.079018675 0.027273588 -0.05142959 0.003978496 -0.048871487 -0.0050516073 -0.027587034 -0.025179071
0.019865198 -0.006746184 -0.0041342606 -0.029435258 0.036381546 0.060159076 -0.013252174 0.055650778
-0.046051327 -0.07193417 0.038558647 -0.07673325 0.034781035 0.003136151 -0.023488924 -0.07732639
-0.07838303 -0.038517203 0.01569242 -0.023434956 0.017634107 -0.07541095 0.028307395 -0.038388655
0.014144106 -0.044787403 -0.014820221 0.029804522 -0.03645867 0.050392624 -0.04515438 -0.030156778
0.015201054 0.052447528 -0.061749022 -0.0118267285 -0.076205835 -0.06794718 -0.033201523 0.03885156
-0.037547488 0.02121906 -0.026453586 0.03410308 -0.02867399 -0.08370718 -0.04428619 -0.079491675
-0.0056606075 -0.044734206 0.007834666 0.036947835 0.021432426 -0.0129462285 -0.025057185 -0.08400193
-0.02032717 0.03858047 0.039582703 0.017796736 0.0046645524 0.052198987 -0.009783519 -0.058780868
0.03269049 0.01384214 -0.019403957 -0.048450846 0.027688948 0.05040149 -0.07345372 0.05204846
-0.065114625 -0.018769354 0.034939285 -0.051105376 0.025836108 0.009117634 -0.039703023 0.06288565
-0.017966846 -0.014322603 -0.0025072591 0.035144366 0.013372199 0.044146106 0.013986873 0.044977117
0.035168268 -0.05230865 -0.06723238 0.05957103 0.012924458 -0.0061456626 -0.040498525 -0.06945606
0.027072605 0.055543307 -0.027752105 0.014464301 0.036811247 0.057192758 -0.013897814 0.00010938469
0.0016663668 -0.06672716 -0.05682956 0.039380044 0.0023959354 0.025194054 -0.0410038 0.016712166
0.018164601 0.0456387 0.023549557 -0.030521126 0.053881217 -0.03473611 0.050442446 0.038758744
-0.037125442 -0.021428136 -0.0707721 0.03942524 -0.010134064 0.05864388 -0.019408124 0.030541657
0.13940226 0.12537724 0.12002007 0.07748024 0.035132643 0.1131539 0.048087317 0.1306206
0.047593378 0.1288038 0.044839203 0.021575844 0.14299816 0.11989474 0.1338573 -0.007059933
0.092620134 0.08896901 0.11173751 0.037567817 -0.0020848042 -0.0034076471 0.049837675 0.06973549
0.068437286 0.13681677 0.08637289 0.11087418 0.03404664 0.0112589495 0.058109358 0.054351848
-0.0101232845 -0.0018706936 -0.038015064 0.061743252 -0.024841778 -0.0778583 -0.086791545 -0.021639265
0.052675128 0.041800495 0.08397032 0.052443393 0.05436177 -0.0025275748 -0.057631217 -0.00048055555
0.053317063 0.055321258 0.059443682 -0.017641544 0.019165283 -0.08191592 -0.08327874 -0.06872258
0.06858425 -0.060867213 -0.015484498 -0.04386378 -0.09701514 -0.09542945 -0.08430814 -0.07013429

conv1.bias f4 [6]
00000000: 727a c6bd 0140 c33e add3 c2bd 47cd 85bc
00000010: e697 8ebc 094c 7cbe
-0.09691323 0.3813477 -0.0951303 -0.016333235 -0.017406415 -0.2463838

fc1.weight f4 [1, 7938]
00000000: ddf7 c43b 118e 5a3b 3131 873a 4665 abbb
00000010: 6008 0b3c a550 cf3a 4385 943b 5c5b 3f3c
00000020: 1efb e53b b094 1d3c 7caa 2b3c 83a7 8c3c
00000030: ec8a 8b3c 88db b83b d9fe cc39 1c75 1a3c
00000040: 2216 e43b 1be5 713b 2d11 733c 4f40 8f3c
00000050: 7ad3 253c 6839 973b db06 3abc 3286 55bc
00000060: 1beb e7b9 9e9a b6bb 798a aabc 3981 e339
00000070: 3241 6bbb 3799 c3bc 1b87 f6bb 53c0 c63a
00000080: f6ae 58bb 1c6f 883b f3e7 b03a 922a 4e3c
00000090: ab1e 213c 09f8 513c 4187 413c a44b 4a3c
000000a0: 32a6 933c 82a8 973c 01f4 3c3c 6606 953c
000000b0: 7404 ee3b e5fa df3c fc16 dd3c f325 5d3c
000000c0: 2fd4 873c 7da5 5ebb 7696 d3bb 4c71 0d3b
000000d0: c4d8 303c 676d f63b fd24 2cba b88f cabb
000000e0: 782c 00bc 2b3f 413c 5d9d 633b 7df7 5c3c
000000f0: 49f5 a1b9 9782 5a3c 3bd2 a7ba 776a 063c
00000100: 6dd8 263b 6c8b 9c3b a204 503b 5dd8 ed3b
00000110: faeb d93b d18d 263c 6c49 643b 40a9 77bc
00000120: 4a05 65bb 6dcc 5cbc 86fa 12bc 704c a33a
00000130: f321 75bc 645a 4bbc 2976 bdbc 47d9 a5bc
00000140: 338e 94bc 8e1e 82bc aea3 f23b b13f 253a
00000150: 198f 053b d015 593c 4f7c 753c 4896 9fba
00000160: 4a5d d23a b6f2 c93b f050 573c e83a c23b
00000170: 1641 903c 8bf5 933c 136d 803b ee67 993c
00000180: 7a0e 9a3c b133 9b3c eca6 2fbb 4048 11bc
00000190: 3345 7cbb 7c20 a4b9 8773 c83a 6a7e 5e3b
000001a0: a989 c2ba a744 ebbb 431f 5e3a dadf 38bb
000001b0: 6425 0a3b 134a 68bb 24cc 0ebb 2cad c0bb
000001c0: 7a11 083c 9215 00bb e446 43bb f5cb acbb
000001d0: 1b2a 55bb 352b 7339 c286 c63b 7bb9 fa39
000001e0: 20e1 6f3b 4e4f 4c3b 98de c9bb 8d90 40bc
000001f0: a982 cabc e443 21bc 66a8 3dbc 60db 1abc
00000200: 1ff2 89bc 8b9c 9dbc 85d3 9abc 4158 8ebb
00000210: 2247 de3b c5cd 3ebb de8e 603c f886 303b
00000220: f7b7 f83b 1dfe 9dba 2914 673c cddc 473b
00000230: b18a 91ba 4016 703b 2625 513b 30d5 653b
00000240: 8985 8a3b 46ab 083a 176c 083c ccb8 403b
00000250: 8d46 1d3c d91c 063c aaa9 7b3b d99c 30bc
00000260: f14c 143c 0f09 3b3b a484 0eba 7ee0 a03b
00000270: 083a 03ba dba2 b43b be2d bb3b 46a8 a93b
00000280: 9783 1fbc b09a 7abb 70ed 44bb f87d a13b
00000290: 7262 9d3b 7324 033b 2124 12bc f0f1 9839
000002a0: bf7b bfbb d60a 01bc e0bd d5ba 712e 55bc
000002b0: 8ef9 19bc 8485 b6bc a71a dcbc b2a3 e0bc
000002c0: 16aa e2bc a1f1 0abd 1d23 ccbc 3a5c 2bbc
000002d0: 8a95 db3a 83e4 4ebc 7fff fc3a 47dc 91bb
000002e0: 87d1 12bc 9ebc 5f38 aa9b d0b9 3e72 b13b
000002f0: 2dbd 02bc 6eff bc3b 2876 663b 563b 6d3c
00000300: 3917 213c ca03 5d3c b909 c03c 7539 8c3c
00000310: 0c98 02bb 3969 1a3c 3f14 14bc 0564 d2bb
00000320: 89b3 83b9 656a 01bc 9d30 e9ba 20e7 39bb
00000330: 8cf1 243b 6447 2c3c 4059 4fbb 29da f4bb
00000340: f645 f83b cce9 f7b9 edd2 04bb eda3 393c
00000350: a319 03bc b384 9fbb eb80 2d3c 4160 87bb
00000360: 969f 133c 5033 d93a 816b 55bc 43b8 83bc
00000370: 2c4a f6bb 2238 acbc 2942 98bc 0bde dabc
00000380: 68b7 e6bb ed6a efbb a1c6 b8bc 49ed fbbb
00000390: e2bb f4bb 5fae a039 4216 dfba f68a 153c
000003a0: a2ec 27bb c0fa 793b 25fc 143c c04b 9bba
000003b0: 3592 0cbc a85a 563c 2f03 703c 5f43 5f3c
000003c0: d960 ab3c 9269 183b 4330 bc3c dce3 863c
000003d0: ec19 ce3b 43a5 e039 020c f93b 7747 2a3b
000003e0: ad84 23bb a653 743a 73ed 23bb 8aaa 1fbc
000003f0: c53c ce3b 946d 37bc b905 14bc d57a 0ebc
0.006010993 0.0033348838 0.0010314343 -0.0052305786 0.0084858835 0.0015816881 0.0045324876 0.011679497
0.007018461 0.009617969 0.010477658 0.01716972 0.017034017 0.0056414045 0.00039099788 0.009427335
0.0069606462 0.003691024 0.014835638 0.01748672 0.010121221 0.0046149977 -0.0113541735 -0.013032483
-0.0004423492 -0.005572631 -0.020817982 0.00043393092 -0.0035897014 -0.02387677 -0.00752343 0.0015163518
-0.003306327 0.004163636 0.0013496861 0.012583392 0.009833972 0.012815484 0.011812032 0.012347136
0.018023584 0.018512968 0.011532784 0.018191528 0.0072637144 0.027341316 0.026988499 0.013497817
0.01658067 -0.003397315 -0.0064571453 0.0021582423 0.010793868 0.007520366 -0.0006566791 -0.0061816834
-0.007823102 0.011794846 0.0034731247 0.01348674 -0.00030891065 0.013336799 -0.0012803742 0.008204094
0.002545859 0.0047773626 0.0031741043 0.0072584585 0.006650445 0.010165648 0.0034833802 -0.015116036
-0.003494578 -0.013476473 -0.008970862 0.0012458693 -0.014961707 -0.0124116875 -0.023127632 -0.020245207
-0.018134212 -0.01588371 0.007404766 0.0006303741 0.0020379482 0.013249829 0.014983251 -0.0012175525
0.0016049531 0.0061629666 0.013141856 0.0059274323 0.01760916 0.01806142 0.0039192527 0.018726315
0.018805731 0.018945547 -0.0026802374 -0.008867323 -0.0038493394 -0.0003130472 0.0015293219 0.003394986
-0.0014842051 -0.007179815 0.0008473286 -0.0028209598 0.0021079415 -0.0035444542 -0.0021789158 -0.0058800187
0.008304948 -0.0019544107 -0.0029796893 -0.005273337 -0.0032526318 0.00023190382 0.006058545 0.0004782191
0.003660269 0.00311752 -0.0061605684 -0.011753214 -0.024720507 -0.009842847 -0.011575794 -0.009451717
-0.016839085 -0.019239685 -0.018899688 -0.004344017 0.006783382 -0.0029114347 0.013705937 0.0026935916
0.0075902897 -0.0012053881 0.014103928 0.0030496598 -0.0011103955 0.0036634356 0.0031913011 0.0035069697
0.0042273444 0.000521351 0.008326552 0.0029407023 0.00959934 0.008185589 0.0038400688 -0.010779583
0.009051547 0.0028539335 -0.0005436635 0.004909574 -0.0005005901 0.005512578 0.00571224 0.0051775305
-0.009735963 -0.0038239174 -0.003004875 0.0049283467 0.0048029954 0.002001074 -0.008919747 0.00029171957
-0.005843609 -0.007876119 -0.0016307198 -0.013011561 -0.009397877 -0.022280462 -0.026868178 -0.027421806
-0.027668994 -0.03392184 -0.024919087 -0.010459 0.001675294 -0.012627724 0.0019302218 -0.004451308
-0.008961088 5.3343007e-05 -0.0003978883 0.00541523 -0.007979673 0.0057677543 0.0035165641 0.014479479
0.009832197 0.013489673 0.023442136 0.017117241 -0.0019927053 0.009424501 -0.00903803 -0.0064206147
-0.0002512003 -0.007898902 -0.0017790977 -0.002836652 0.0025168387 0.010515068 -0.003163889 -0.007472296
0.0075766994 -0.00047285703 -0.0020267323 0.011330587 -0.008001718 -0.004868114 0.0105898185 -0.0041313474
0.009010216 0.0016571078 -0.013026119 -0.016079074 -0.007516166 -0.02102286 -0.018586235 -0.026717206
-0.0070409067 -0.0073064477 -0.022555651 -0.0076881987 -0.0074686864 0.00030647495 -0.0017020183 0.009127369
-0.0025623222 0.0038143843 0.009093319 -0.0011848137 -0.00857978 0.013083138 0.0146491965 0.013626902
0.020920204 0.0023256284 0.022972232 0.016466074 0.006289711 0.0004284774 0.0076003084 0.0025982538
-0.0024950907 0.0009320326 -0.0025013357 -0.0097452495 0.0062938654 -0.011195559 -0.0090345675 -0.008696278
