PythonClient/saved_models/0-2024-05-16.pth (torch, 38520 bytes, 3 tensors)

conv1.weight f4 [6, 3, 8, 8]
0	0xbd041ab0	-0.032252014
1	0xbdf92ea7	-0.12167101
2	0xbe075fb7	-0.13220106
3	0xbd241f2f	-0.0400688
4	0x3d4c27b1	0.04984254
5	0x3d800500	0.06250954
6	0x3d995e3e	0.074886784
7	0x3c278f6a	0.010227064
8	0xbc93ef28	-0.018058375
9	0xbdad152d	-0.084513046
10	0xbd6d6861	-0.05796087
11	0xbc4cef96	-0.012508294
12	0x3a9f2f71	0.0012144876
13	0x3d6288e3	0.055306327
14	0x3c8f4362	0.017488185
15	0x3cd23556	0.025660198
16	0xbd907f97	-0.07055586
17	0xbcab20f5	-0.020889739
18	0xbd32849b	-0.043583494
19	0xbd4b6ef0	-0.049666345
20	0xbd0074bd	-0.03136133
21	0x3d3dc2cf	0.046328362
22	0x3cf3ed57	0.029776258
23	0x3d325662	0.043539412
24	0xbd140207	-0.036134746
25	0xbdc37bee	-0.09545122
26	0xbdfe8f4f	-0.12429678
27	0x3be5f179	0.007017311
28	0xbc820f13	-0.015876329
29	0x3dbb4c6d	0.091454364
30	0x3ddebcd2	0.10875858
31	0x3dc0adb7	0.094081335
32	0xbc9dd71c	-0.019267611
33	0xbdd41544	-0.103556186
34	0xbde2a87a	-0.110672906
35	0xbda69af0	-0.08135021
36	0x3d1bfbe0	0.038082004
37	0x3dcd9ccc	0.10039672
38	0x3d6b7969	0.057488833
39	0x3d5abee4	0.053404704
40	0xbc128e2b	-0.008945028
41	0xbd4fe942	-0.05075956
42	0xbd89d5da	-0.06730242
43	0xbd99b165	-0.075045384
44	0x3c2b1e65	0.010444258
45	0x3c88d528	0.016703203
46	0x3d1e02e8	0.03857699
47	0x3dcdd254	0.100498825
48	0x3b9628aa	0.0045824843
49	0xbd6be4eb	-0.05759136
50	0xbd43212b	-0.047639053
51	0xbdb38713	-0.08765998
52	0x3cb8d30f	0.022561578
53	0xbc0337fa	-0.008008951
54	0x3da918b3	0.08256664
55	0x3dd5ef3d	0.10446022
56	0xbc720329	-0.014771261
57	0xbd6f36b9	-0.058401797
58	0xbd4d78bc	-0.05016397
59	0x3d16f55a	0.03685508
60	0x3c9e71b0	0.01934132
61	0x3da68187	0.08130174
62	0x3c28f957	0.0103133535
63	0x3d00d33d	0.031451453
64	0xbe04c854	-0.12967044
65	0xbc847520	-0.01616913
66	0xbc4e4582	-0.012589814
67	0xbdcf95c4	-0.101359874
68	0x3c72f339	0.014828497
69	0x3c98722d	0.01860913
70	0x3dd48c35	0.10378305
71	0x3d6b1abd	0.057398546
72	0xbe088081	-0.1333027
73	0xbda5d284	-0.08096793
74	0xbdd88104	-0.10571483
75	0xbd9221fd	-0.07135389
76	0xbc225eb6	-0.009910276
77	0x3dbd62a9	0.092473336
78	0x3dddaf21	0.10824419
79	0x3cf9a89e	0.03047591
80	0xbe02474d	-0.12722512
81	0xbd4c6a0d	-0.049905825
82	0xbdb82b99	-0.089926906
83	0xbdbcc17d	-0.092165925
84	0xbd7aee01	-0.061262134
85	0x3ce4e531	0.027941318
86	0x3ddfbb36	0.109243795
87	0x3d9aa653	0.07551255
88	0xbddcc095	-0.107789196
89	0xbda891be	-0.08230923
90	0xbd534e80	-0.051588535
91	0xbda8cdd0	-0.082423806
92	0xbb508ff3	-0.0031824082
93	0x3dd42f83	0.10360625
94	0xbbbe430d	-0.005806333
95	0x3d2d2f0b	0.04228119
96	0xbd8896d1	-0.06669391
97	0xbdb27664	-0.087139875
98	0xbd41c2af	-0.047304805
99	0x3d1024f0	0.035191476
100	0x3d0742b4	0.033022597
101	0x3d9460fa	0.07245059
102	0x3d224906	0.03962042
103	0x3da28e3d	0.07937286
104	0x3ba8e745	0.0051545226
105	0xbdc8869e	-0.09791301
106	0xbd9d5f83	-0.07684233
107	0xbc9cb954	-0.01913134
108	0x3d7977b7	0.060905185
109	0x3d3f13cf	0.04664975
110	0x3d7e0277	0.06201407
111	0x3dc94854	0.098282486
112	0xbddb3e48	-0.107052386
113	0xbdd8b74b	-0.10581835
114	0xbd3a83f4	-0.045535997
115	0xbdba9851	-0.09111083
116	0xbcd48f26	-0.025947165
117	0x3d5ea504	0.05435659
118	0x3deabfc9	0.11462361
119	0x3dbdbdc7	0.09264713
120	0xbd98330d	-0.07431612
121	0xbb3cfb0d	-0.0028836161
122	0x3c0bfba4	0.0085438825
123	0xbd856d40	-0.065149784
124	0x3d8431a4	0.06454781
125	0xbd04c995	-0.032418806
126	0x3d646d03	0.055768024
127	0x3e00d3d2	0.12580803
128	0xbc793d8f	-0.015212431
129	0xbdc74c4f	-0.097313516
130	0xbdad14f3	-0.08451261
131	0x3c5a8057	0.013336263
132	0x3cb14aa4	0.021642037
133	0x3d365cc8	0.044522077
134	0x3b35a56c	0.0027717007
135	0x3d9af1b1	0.0756563
136	0xbd955f9b	-0.07293626
137	0xbdbe0df8	-0.09280008
138	0xbd8c4fce	-0.06851159
139	0xbd8fbd3f	-0.07018518
140	0xbcfec6c5	-0.03110064
141	0x3ddcacb8	0.10775131
142	0x3de43517	0.111429386
143	0x3dedea4f	0.116169564
144	0x3b98bdbe	0.004661291
145	0xbdb451db	-0.08804675
146	0xbcb44046	-0.022003304
147	0xbd51ec95	-0.051251013
148	0x3d8e9e81	0.06963826
149	0x3dd0134c	0.101599306
150	0x3de8c99f	0.11366581
151	0x3df039dc	0.11729786
152	0xbc6dd0a5	-0.014515077
153	0xbd8e9f16	-0.06963937
154	0xbd09f8ed	-0.03368466
155	0x3c129ae2	0.00894806
156	0x3db90f86	0.09036164
157	0x3d939855	0.072067894
158	0x3d7a0930	0.061043918
159	0x3d07d8ca	0.03316573
160	0x3c498bc9	0.012301394
161	0x3cecb01a	0.028892566
162	0xbd1fe48b	-0.039036315
163	0x3ca44848	0.020053998
164	0xbc8540b6	-0.016266208
165	0x3d3df85c	0.046379432
166	0x3e0bbf0c	0.13647097
167	0x3e06a2af	0.13147996
168	0x3ceb5674	0.028727747
169	0xbbbd8ee7	-0.0057848576
170	0xbcf77ec7	-0.03021182
171	0xbd536bf9	-0.051616643
172	0x3ca6b835	0.020351509
173	0x3c89028b	0.016724845
174	0x3d2300d2	0.039795704
175	0x3d6e4781	0.05817366
176	0xbce3e37a	-0.02781843
177	0x3a7a3981	0.0009545312
178	0xbd382177	-0.04495379
179	0xbc4231a9	-0.01185266
180	0x3d28492e	0.041085415
181	0x3db7c91a	0.08973904
182	0x3ce85952	0.028362904
183	0x3dc94676	0.098278925
184	0xbda986c7	-0.0827766
185	0xbd09ef22	-0.03367532
186	0xbd391d1b	-0.045193773
187	0x3d3a4bf2	0.045482583
188	0x3d325ca6	0.043545388
189	0xbc83e8fc	-0.016102307
190	0x3d2a3aa3	0.041559827
191	0x3d9219a4	0.07133797
192	0x3b706949	0.0036683849
193	0x3d786f7b	0.06065319
194	0x3c46fbf1	0.012145028
195	0xbd36396e	-0.044488363
196	0xbd2d368e	-0.042288356
197	0xbd4eb280	-0.0504632
198	0xbd853575	-0.06504337
199	0xbd633b9f	-0.05547678
200	0x3c0a4c6b	0.008441071
201	0xbd679e5a	-0.0565475
202	0x3d2fcbd9	0.042919014
203	0x3d769dc3	0.060209047
204	0xbd4ccf31	-0.05000228
205	0x3d564885	0.052315254
206	0xbcc54096	-0.024078649
207	0xbc8d7c91	-0.017271312
208	0x3cb30e31	0.021857353
209	0x3cc984a3	0.024599379
210	0x3d1a2024	0.037628308
211	0x3d4e2c71	0.05033535
212	0xbd5ecb63	-0.054393183
213	0xbc82c7e0	-0.015964448
214	0xbcd0e985	-0.025501976
215	0xbcb35888	-0.0218928
216	0xbd87eb7f	-0.06636714
217	0x3cb7add5	0.022421757
218	0x3d57cc7c	0.052685246
219	0xbd8da601	-0.06916428
220	0x3d563b69	0.05230275
221	0xbd080c85	-0.033215065
222	0x3d1e20dd	0.03860556
223	0xbc283ed2	-0.010268884
224	0xbd580dd7	-0.052747574
225	0xbda33749	-0.07969529
226	0xbcc7e907	-0.024403108
227	0xbd1723b6	-0.03689929
228	0xbd811a6b	-0.06303867
229	0xbb91e5bc	-0.0044524353
230	0xbd840f34	-0.06448212
231	0xba1833a4	-0.0005806035
232	0x3cc975df	0.024592338
233	0xbd42f71f	-0.047598954
234	0xbd135beb	-0.03597633
235	0x3d7ff663	0.062490832
236	0x3c1bdec3	0.00951356
237	0x3d22bd80	0.039731503
238	0x3cdf54f2	0.027262185
239	0xbd6f524c	-0.058428094
240	0xbc8aa65a	-0.016925026
241	0x3c4a8325	0.012360369
242	0xbc79177b	-0.015203352
243	0xbd6966a7	-0.056982663
244	0xbd229159	-0.039689396
245	0x3d762ad3	0.060099434
246	0x3d7a693d	0.06113552
247	0xbc8c04f8	-0.017092213
248	0x3c0cf26b	0.008602719
249	0x3d200f96	0.039077364
250	0x3d9bce52	0.07607712
251	0x3d45b52b	0.04826848
252	0x3d95aca0	0.07308316
253	0xbd636142	-0.055512674
254	0xbcb4f9ef	-0.022091834
255	0x3d6fab7e	0.058513157

conv1.bias f4 [6]
0	0xbeac1166	-0.33607024
1	0xbe9c9642	-0.30583388
2	0xbf1817ec	-0.594115
3	0xbe982758	-0.29717517
4	0xbea1b131	-0.315805
5	0x3e3151bf	0.1731634

fc1.weight f4 [1, 7938]
0	0xbcde492a	-0.027134497
1	0xbcfa1815	-0.030529061
2	0xbd03a117	-0.03213605
3	0x3b38a3f5	0.0028173898
4	0xbbe61e50	-0.0070226565
5	0xbd5e4242	-0.054262407
6	0x3b2b8088	0.002616914
7	0x3b89d5c3	0.0042063906
8	0x3c32aa8c	0.010904919
9	0x3d1960c3	0.037445795
10	0xbd545f78	-0.05184886
11	0xbd251f29	-0.04031292
12	0xbc864587	-0.016390575
13	0xbb7367c2	-0.0037140702
14	0xbd0c6dcc	-0.034284398
15	0xbd1afdfb	-0.03783987
16	0xbcac2d71	-0.021017762
17	0xbd1a5507	-0.037678745
18	0x3c9daf8e	0.01924875
19	0xbd0a49aa	-0.033761658
20	0xbc903cfc	-0.017607205
21	0xbca16de3	-0.019705718
22	0xbcaaa97a	-0.020832766
23	0xbcd15182	-0.025551561
24	0xbb97ca36	-0.0046322597
25	0x3c9fcdc2	0.019507293
26	0x3ce2636e	0.027635302
27	0x3cfa087c	0.030521624
28	0x3d2335f1	0.039846364
29	0x3d508e23	0.050916802
30	0xbd0686e5	-0.03284349
31	0xbd3466d2	-0.04404337
32	0xbb0638bc	-0.0020480594
33	0x3d2c416d	0.042054582
34	0x3d308ae3	0.043101203
35	0x3c4e0ab5	0.012575795
36	0xbc2cc160	-0.010544151
37	0x3ccc424b	0.024933955
38	0x3a8fa126	0.001095806
39	0xbc7cc9e7	-0.015428997
40	0xbc864085	-0.016388187
41	0xbc9d5a35	-0.019208053
42	0xbc6b98ba	-0.014379675
43	0x3919a8e4	0.00014654134
44	0xbb2d0168	-0.0026398543
45	0xbc09a89f	-0.008402019
46	0xbc8c910f	-0.017159013
47	0xbce06ec9	-0.027396576
48	0xbcb5cb14	-0.022191562
49	0xbb9c0fbb	-0.0047626174
50	0xbcaf4da6	-0.02139933
51	0xbcf12307	-0.029435648
52	0x3c5a118e	0.013309849
53	0xbb4a7d26	-0.0030897348
54	0xbd6cb1e1	-0.057786826
55	0xba9242c8	-0.0011158818
56	0xbadb163d	-0.0016715002
57	0x3cfd0fe9	0.030891376
58	0x3d2e9930	0.04262656
59	0xbd16e975	-0.036843736
60	0xbc97e6af	-0.018542616
61	0xbb947e39	-0.0045316485
62	0x3c430436	0.011902859
63	0xbd2d1dd0	-0.04226476
64	0xbccb431b	-0.024812272
65	0xbd479588	-0.04872659
66	0xbd1ef684	-0.038809314
67	0xbcb3f529	-0.021967487
68	0xbd6cfa14	-0.05785568
69	0xbd3da5e7	-0.046300795
70	0xbd240759	-0.04004607
71	0xbc57aab9	-0.013163262
72	0xbb17eef0	-0.002318319
73	0xbb95fbc7	-0.0045771333
74	0x3cbb1808	0.022838607
75	0x3c07ef2f	0.008296772
76	0x3ce486a6	0.027896237
77	0x3d4e3bc8	0.05034998
78	0x3951d71e	0.0002001193
79	0xbd0f3b5d	-0.034968723
80	0xbd6a7de0	-0.05724895
81	0x3cb12141	0.021622302
82	0x3d6eb6be	0.058279745
83	0x3c370407	0.011170394
84	0xbc3eaa0c	-0.011637222
85	0xbcaf3690	-0.021388322
86	0x3d34fc38	0.044185847
87	0xbcf6c569	-0.03012343
88	0xba5bae18	-0.0008380129
89	0xbc9a3ff5	-0.018829325
90	0xbc9ae76f	-0.018909184
91	0xbcc587c2	-0.024112586
92	0xbcba4f92	-0.02274302
93	0xbbf0adb0	-0.007344924
94	0xbba6a2a8	-0.005085308
95	0xbccfe566	-0.02537794
96	0xbcffddaf	-0.031233637
97	0xbc72a0c6	-0.014808839
98	0x3c7fd4f1	0.015614734
99	0xbc7a3864	-0.015272234
100	0xbd0c70a0	-0.034287095
101	0x3c5dc964	0.013536785
102	0xbc6d3a2f	-0.014479204
103	0xbd22f275	-0.039782006
104	0xbc423571	-0.011853562
105	0x3cacc151	0.021088274
106	0x3cb92d13	0.0226045
107	0x3d8cafab	0.068694435
108	0xbc5dc9c7	-0.013536877
109	0xbcabc66a	-0.020968635
110	0xbd2b55a4	-0.04182972
111	0x3a67712d	0.0008828815
112	0xbced1203	-0.028939253
113	0xbc7c2a02	-0.015390875
114	0xbd549848	-0.05190304
115	0xbcce42f6	-0.025178414
116	0xbc798104	-0.015228514
117	0xbd8ac81a	-0.067764476
118	0xbd42d35f	-0.04756486
119	0xbd0f4a3d	-0.03498291
120	0xbba335c8	-0.0049807765
121	0xbbf60258	-0.0075076036
122	0x3d45d5d8	0.04829964
123	0x3c1c756c	0.00954948
124	0x3c21886e	0.0098591875
125	0x3c924f53	0.01786009
126	0x3d4728f5	0.048623044
127	0xbc8f76cc	-0.017512701
128	0xbd6ab52a	-0.057301678
129	0xbd462d9f	-0.04838335
130	0x3c9da366	0.019242954
131	0x3d4f1ad7	0.050562706
132	0x3b81bd69	0.003959347
133	0xbc565de4	-0.013083909
134	0xbc1edd4e	-0.009696318
135	0x3cda2278	0.026627764
136	0xbcf04a4e	-0.029332306
137	0xbc8b9b50	-0.017041832
138	0xbd2aa995	-0.041665632
139	0xbd4b4d6f	-0.049634393
140	0xbc7e7e04	-0.015532974
141	0xbcf9e213	-0.030503308
142	0xbcc7ae96	-0.024375241
143	0xbccc4b6d	-0.02493831
144	0xbccfedd7	-0.025381966
145	0xbd0ab4be	-0.033863775
146	0xbc0858ea	-0.00832198
147	0x3d183a1e	0.0371648
148	0x3c254282	0.0100866575
149	0xbcf68ff8	-0.030097947
150	0x3ca77d78	0.02044557
151	0xbc2ee6b7	-0.010675124
152	0xbd23eee4	-0.040022746
153	0xbd03e285	-0.032198448
154	0x3d23f474	0.04002805
155	0x3a65702a	0.00087523705
156	0x3d393b20	0.0452224
157	0xbb5d2d50	-0.0033748932
158	0xbd023456	-0.031788193
159	0xbd0cc4ad	-0.034367252
160	0xbc8364c2	-0.016039256
161	0xbcba7419	-0.022760438
162	0xbc5a585f	-0.013326733
163	0xbd80dc6a	-0.06292041
164	0xbccae937	-0.024769409
165	0xbd03e1ac	-0.03219764
166	0xbd8c5202	-0.06851579
167	0xbd1f6e5a	-0.0389236
168	0xbd13277f	-0.03592634
169	0xbce89325	-0.028390476
170	0x3cb92583	0.022600895
171	0x3cc45e1e	0.02397066
172	0xbc338bf7	-0.010958663
173	0x3c047861	0.008085341
174	0xbcafafd8	-0.021446154
175	0x3c644499	0.013932371
176	0xbd15dbc9	-0.036586557
177	0xbd79c048	-0.06097439
178	0xbcdda79f	-0.027057467
179	0xbc24b6ed	-0.0100533785
180	0x3cf69dc3	0.030104524
181	0xbb9e2508	-0.004826192
182	0xbd16729e	-0.0367304
183	0xbd116260	-0.03549421
184	0x3a0054b4	0.0004895434
185	0xbd30bd20	-0.043149114
186	0xbd01e10e	-0.03170877
187	0xbd6de7ff	-0.058082577
188	0x3b63ef76	0.003478018
189	0xbd03af6f	-0.03214973
190	0xbce5ba1e	-0.02804285
191	0xbc954f40	-0.018226266
192	0xbc11c279	-0.008896464
193	0xbc5b23b0	-0.013375208
194	0xbced20ef	-0.028946368
195	0x3bae8c45	0.00532678
196	0x3d02e8ec	0.031960413
197	0x3c9ce955	0.01915423
198	0x3c6a44c9	0.014298626
199	0x3cb72dde	0.022360738
200	0x3c4a513b	0.012348468
201	0xbd3c4bdb	-0.04597078
202	0xbcf85d3f	-0.0303179
203	0x3d0b0c8d	0.033947516
204	0x3bc87ff2	0.006118768
205	0x3d07097d	0.032968033
206	0xbd67c1cc	-0.056581303
207	0xbd1f9ed8	-0.038969845
208	0xbd273662	-0.040823348
209	0xbcca5422	-0.02469832
210	0xbcfda48d	-0.030962253
211	0xbcfccec8	-0.03086032
212	0xbd81c946	-0.06337218
213	0xbca807b8	-0.020511493
214	0xbd128816	-0.035774313
215	0xbd721f62	-0.05911196
216	0xbd3ebe7d	-0.046568383
217	0xbd010966	-0.031503104
218	0xbc3e57bb	-0.011617596
219	0x3c46f652	0.012143688
220	0xbbbab575	-0.005697901
221	0xbb8514e7	-0.0040613296
222	0xbc2a41e8	-0.01039169
223	0xbbbfb692	-0.0058506215
224	0x3cd04bd5	0.025426785
225	0xbc425bd3	-0.011862713
226	0xbd95ba91	-0.07310975
227	0xbce65e89	-0.02812125
228	0x3cd0cf9a	0.025489617
229	0x3d573917	0.05254468
230	0xbcb7e6af	-0.022448866
231	0xbd3efab9	-0.046625827
232	0xbd08a4a4	-0.03336014
233	0xbc2a852f	-0.01040773
234	0xbd590c77	-0.052990403
235	0xbd297120	-0.04136765
236	0xbd17c010	-0.0370484
237	0x3c0d6fc7	0.008632607
238	0xbc32dcab	-0.010916869
239	0xbbe73ef9	-0.0070570675
240	0x39945114	0.00028289168
241	0xba07ade7	-0.0005175755
242	0xbc7a9744	-0.015294854
243	0xbb8edd9d	-0.0043599145
244	0x3c3f4f00	0.01167655
245	0x3d09f940	0.03368497
246	0x3c85f4d3	0.016352093
247	0x3c0552f3	0.008137452
248	0x3cf17892	0.029476438
249	0x3ceec8df	0.029148517
250	0xbd359e9f	-0.044340726
251	0xbd056c78	-0.032574147
252	0x3d2c7afa	0.042109467
253	0x3aa204bc	0.001236103
254	0x3d4f1c7b	0.05056427
255	0xbd74f021	-0.059799317
