PythonClient/saved_models/0-2024-04-22.pth (torch, 55866 bytes, 5 tensors)

conv1.weight f4 [8, 3, 6, 6]
0	0xbdd4f5ce	-0.10398446
1	0xbde2868f	-0.11060821
2	0x3c9de916	0.019276183
3	0xbca5dac6	-0.02024592
4	0xbdbf5c8c	-0.09343824
5	0xbd7ddb1c	-0.061976537
6	0x3d8b4b7b	0.06801506
7	0xbdd8b459	-0.105812736
8	0xbcc99bc5	-0.02461041
9	0xbca3982b	-0.01997002
10	0x3d749849	0.059715543
11	0x3ce50dd5	0.027960697
12	0xbb973d07	-0.0046154293
13	0x3d59bfc2	0.05316139
14	0x3bf4e20f	0.0074732373
15	0xbd9c8fed	-0.07644639
16	0xbddcbc72	-0.107781306
17	0x3d683a5f	0.056696292
18	0x3cad04ec	0.021120511
19	0xbd81a4ea	-0.06330283
20	0x3d119a65	0.035547633
21	0xbddb30c6	-0.10702662
22	0x3d738544	0.059453264
23	0xbdcbd67b	-0.09953018
24	0xbdcdbe7f	-0.100461
25	0x3d48c271	0.04901356
26	0xbdc03ecd	-0.09386978
27	0xbd06c470	-0.03290218
28	0xbcf0a8fc	-0.029377453
29	0x3ca76770	0.020435065
30	0xbda698f2	-0.08134641
31	0x3c725761	0.014791341
32	0xbc89372e	-0.016749945
33	0xbdada099	-0.08477897
34	0xbdac6087	-0.08416849
35	0x3da0f588	0.07859331
36	0xbd276fd5	-0.040878136
37	0xbd8927ee	-0.06697069
38	0xbcaab8fb	-0.020840159
39	0xbd632bac	-0.05546157
40	0xbc698f53	-0.014255363
41	0xbdbdd833	-0.09269752
42	0x3c438386	0.011933213
43	0x3d821d88	0.06353289
44	0xbb85843b	-0.004074601
45	0xbdaec021	-0.085327394
46	0xbd804da8	-0.06264812
47	0xbc2b5c87	-0.010459072
48	0x3d8ec485	0.06971077
49	0x3d86cb4d	0.06581745
50	0xbd202d73	-0.039105844
51	0x3d143f2f	0.03619307
52	0xbb32fea3	-0.002731242
53	0xbd0bc431	-0.03412265
54	0xbcf6c09b	-0.030121138
55	0xbbc6d55d	-0.0060679154
56	0xbd0bc196	-0.034120165
57	0x3c3d9f24	0.011573587
58	0x3d034dae	0.032056503
59	0xbd0d8d95	-0.03455885
60	0x3cd554ed	0.026041472
61	0x3d264e4e	0.04060202
62	0xbadc1699	-0.0016791403
63	0xbdc33f14	-0.095335156
64	0xbdaab0a4	-0.08334473
65	0xbdbe3640	-0.09287691
66	0x3cb968ca	0.022632975
67	0xbd68f51e	-0.056874387
68	0x3d86b7fb	0.0657806
69	0x3d17ea2a	0.03708855
70	0xbc970812	-0.018436465
71	0xbd5f6874	-0.054542974
72	0xbd9f0609	-0.07764823
73	0x3c98b32f	0.018640129
74	0xbd132c5b	-0.035930973
75	0xbd0f50c2	-0.034989126
76	0xbc7ea9ab	-0.015543382
77	0x3d8d7cbf	0.06908559
78	0xbd86eb94	-0.06587902
79	0xbce1c6e4	-0.027560659
80	0x3dcc1588	0.09965044
81	0x3ca96ef0	0.020682782
82	0x39f44c42	0.00046596123
83	0xbc0471b8	-0.008083753
84	0x3de2e86c	0.11079487
85	0xbcbaa9ca	-0.02278604
86	0x3da65ada	0.08122797
87	0x3b82c558	0.0039908104
88	0xbd9c57ab	-0.07633909
89	0xbca4a2cc	-0.020097159
90	0x3cfba8d5	0.030720154
91	0xbc6a1c78	-0.014289014
92	0xbca6da7e	-0.020367857
93	0x3da8e279	0.08246321
94	0xbd6dfa8c	-0.05810027
95	0x3dc28d80	0.09499645
96	0x3ddcc27a	0.10779281
97	0x3d6c4e89	0.057692084
98	0x3d1bfebb	0.038084727
99	0xbd4f8d03	-0.05067159
100	0xbd9009cc	-0.070331186
101	0x3d991055	0.07473818
102	0x3cfed6f5	0.031108359
103	0x3d4d5069	0.050125513
104	0x3a9c8b0a	0.0011943292
105	0x3bd3e0e6	0.006466019
106	0x3d5294b6	0.051411353
107	0x3d9eb24c	0.07748851
108	0x3d87db27	0.06633597
109	0x3d9865e8	0.07441312
110	0x3d0c9e71	0.03433079
111	0xbdc8d9fd	-0.09807203
112	0x3d77f36d	0.060534883
113	0xbdc27ea4	-0.09496811
114	0xbd8daef1	-0.06918133
115	0xbdb279e7	-0.08714657
116	0xbdee2e71	-0.11629952
117	0x3d29cf58	0.041457504
118	0x3cc8fca0	0.024534523
119	0x3d9ad194	0.07559505
120	0x3d958c16	0.0730211
121	0xbd78c07f	-0.060730454
122	0xbbf26d9d	-0.007398321
123	0xbcdfe23f	-0.027329562
124	0xbdc36afa	-0.095418885
125	0xbde38fb2	-0.11111392
126	0xbd53c917	-0.051705446
127	0x3cbdd2e3	0.023171848
128	0xbd7deebf	-0.061995264
129	0xbd382f31	-0.04496688
130	0xbd768306	-0.060183547
131	0xbdb73329	-0.08945305
132	0xbc4364b0	-0.011925861
133	0xbd8e382f	-0.0694431
134	0xbd120527	-0.035649445
135	0x3d0279d5	0.03185447
136	0x3d6d826d	0.05798571
137	0xbd423b5d	-0.047419894
138	0xbd228bfb	-0.039684277
139	0xbdc78f45	-0.09744123
140	0xbda20633	-0.07911339
141	0xbdc203b2	-0.09473361
142	0x3ccc85f7	0.024966223
143	0x3d70c317	0.058779802
144	0xbde1897d	-0.11012552
145	0xbd6dff41	-0.058104757
146	0xbd56b1b1	-0.052415553
147	0xbd9908b4	-0.07472363
148	0xbccb86db	-0.024844578
149	0xbc902bbc	-0.01759898
150	0xbd7eeda5	-0.062238354
151	0xbd511e21	-0.051054124
152	0xbde22a54	-0.1104323
153	0x3d0936a5	0.03349938
154	0xbddc68c0	-0.10762167
155	0x3cf449e9	0.0298204
156	0xbd53f548	-0.05174759
157	0xbd857204	-0.065158874
158	0xbdf752a2	-0.12076308
159	0x3d2a2702	0.041541107
160	0x3d835b5c	0.0641391
161	0xbd4b3b29	-0.049616966
162	0xbdb9ddd9	-0.09075517
163	0xbd2dd80b	-0.042442363
164	0x3d0d50a7	0.034500744
165	0xbdcbd3a0	-0.09952474
166	0x3d718cc4	0.058972135
167	0x3d9f75d2	0.07786144
168	0x3c0d4361	0.008622021
169	0xbde0c8ad	-0.10975776
170	0xbdcdefd6	-0.10055511
171	0xbce90487	-0.028444542
172	0x3c6399cb	0.013891648
173	0x3d7920e3	0.06082238
174	0xbda0da35	-0.0785412
175	0xbd85e65e	-0.0653808
176	0xbde42313	-0.111395024
177	0xbda13aa5	-0.07872514
178	0xbd7b471d	-0.061347116
179	0xbb1f473b	-0.0024303931
180	0x3d4bbcc1	0.049740557
181	0x3d7148ac	0.058907196
182	0xbd9ec60f	-0.077526204
183	0xbc995132	-0.018715475
184	0xbd8e1ca8	-0.069390595
185	0x3d696321	0.056979302
186	0x3d0cce95	0.0343767
187	0xbdf4bb4a	-0.11949785
188	0xbdae39e9	-0.08507139
189	0xbd7ad99e	-0.061242692
190	0x3be8c35f	0.007103368
191	0xbc3747fc	-0.011186596
192	0xbc4fd020	-0.012683898
193	0x3b4294ed	0.0029690817
194	0x3cb2339e	0.021753129
195	0xbdb743a8	-0.08948451
196	0x3c0c446f	0.008561238
197	0xbd4d71a0	-0.05015719
198	0x3d757d7a	0.059934117
199	0xbd2f0d7b	-0.042737465
200	0x3d1ba91f	0.038003083
201	0xbd2cf8e8	-0.042229563
202	0x3c7c443e	0.01539713
203	0x3bbe17e7	0.005801189
204	0x3c5d228c	0.013497006
205	0xbd9f7386	-0.07785706
206	0xbde290ff	-0.11062812
207	0x3cf0282e	0.029316034
208	0xbcd33a6c	-0.025784694
209	0xbdc2aca9	-0.095055886
210	0x3cc7d481	0.024393322
211	0xbd45551d	-0.048176873
212	0xbddd41b5	-0.10803548
213	0xbcbf1a18	-0.023327872
214	0x3d8b2dff	0.067958824
215	0xbdd966f3	-0.10615339
216	0x3dc4039c	0.09571001
217	0x3c7496a8	0.014928497
218	0xbd45f0f8	-0.04832551
219	0x3d932094	0.07183948
220	0x3cb3df92	0.021957193
221	0x3dd8075b	0.10548278
222	0x3d1eaad8	0.038737148
223	0xbd831381	-0.064002044
224	0x3afad2b2	0.0019136278
225	0x3cd281d6	0.025696676
226	0x3d31d0c6	0.043411992
227	0xbd9bcbd2	-0.07607235
228	0x3d066d9c	0.032819375
229	0x3c7c308e	0.015392436
230	0x3d6890ef	0.056778844
231	0xbdb37781	-0.08763028
232	0xbd4c1f60	-0.04983461
233	0x3db7a277	0.089665346
234	0x3d668563	0.05627955
235	0xbcf8e229	-0.030381279
236	0x3d906b9d	0.070517756
237	0xbcdbe2e0	-0.02684158
238	0xbd13be4d	-0.036070157
239	0x3d831e1a	0.06402226
240	0xbd0dcbd2	-0.034618206
241	0xbd2bd6b2	-0.041952796
242	0xbdc497e2	-0.09599282
243	0x3d8d6ab0	0.06905115
244	0x3cd599a9	0.026074247
245	0x3d0ac214	0.033876494
246	0xbdc2c346	-0.09509902
247	0x3d97c3d1	0.07410396
248	0x3cb0dfe4	0.021591134
249	0xbdd6d56a	-0.10489924
250	0xbd3386b4	-0.043829635
251	0xbda3ac52	-0.07991852
252	0xbd969c86	-0.07354073
253	0x3d9efbc0	0.07762861
254	0x3cd9f416	0.026605647
255	0x3dbe66fa	0.09296985

conv1.bias f4 [8]
0	0xbcafdf3c	-0.021468751
1	0xbdc50e37	-0.09621852
2	0x3c5cc0f3	0.013473737
3	0x3dd094be	0.1018462
4	0x3d042103	0.032258045
5	0x3e1188c8	0.14212334
6	0x3e0fa3c2	0.14027312
7	0xbdfe5bc7	-0.12419849

conv2.weight f4 [6, 8, 16, 16]
0	0x3c60ec7b	0.013728256
1	0x3bf7054a	0.0075384723
2	0x3c22e01d	0.009941128
3	0x3bb966d1	0.0056580086
4	0x3cbb20a5	0.022842715
5	0x3c7c4089	0.015396246
6	0x3cc6bcbd	0.02425992
7	0x3c2b56ea	0.010457734
8	0xbb95af7b	-0.004568038
9	0xbc8006ca	-0.015628237
10	0x3c9632f9	0.018334853
11	0x3ba2f6e6	0.0049732802
12	0x3be9e08f	0.007137365
13	0x3cc2f047	0.023796214
14	0xbb2651bc	-0.0025378307
15	0x3cb363c4	0.021898158
16	0xbc5dbd09	-0.013533839
17	0x3be8edfb	0.0071084476
18	0x3cb02c20	0.021505415
19	0x3cd9002d	0.026489342
20	0xbbcf8358	-0.006332796
21	0x3cb51b21	0.022107663
22	0xbc41d2c0	-0.011830032
23	0xb9e025d6	-0.000427528
24	0x3c977da4	0.018492527
25	0xbc22ac3b	-0.009928758
26	0xbc8e2421	-0.017351212
27	0xbc490dcb	-0.012271355
28	0x3c9c89b7	0.019108636
29	0xba3b2fff	-0.0007140636
30	0x3c902099	0.017593669
31	0x3b45289e	0.0030084024
32	0xbc524b53	-0.0128353415
33	0x3c578dc0	0.013156354
34	0x3c109738	0.008825116
35	0x3cca81b2	0.024720047
36	0x3b8ab799	0.0042333123
37	0x3bf3bfea	0.0074386494
38	0x3c73a242	0.014870228
39	0x3bfede25	0.0077779465
40	0x388d2ea1	6.732089e-05
41	0x3c5060d2	0.012718396
42	0xbc508fca	-0.0127295945
43	0xbc7b30db	-0.015331472
44	0xbcb89170	-0.022530288
45	0x3caa0527	0.02075441
46	0xbc164836	-0.00917249
47	0x3c394cf6	0.011309853
48	0x3b6ca34a	0.003610807
49	0x3c89f3cc	0.016839884
50	0x3b9d9c6f	0.004809908
51	0x3cc64526	0.024202894
52	0x3ab80131	0.0014038441
53	0x3c0f56d6	0.008748731
54	0x3ccc212d	0.024918163
55	0x3cbeb957	0.023281736
56	0x3c9e3b7f	0.01931548
57	0x3c0a407d	0.008438227
58	0x3bd402e2	0.00647007
59	0x3b8f70c2	0.0043774555
60	0x38ea4729	0.00011171244
61	0x3ccb6957	0.024830503
62	0xbc51e988	-0.012812026
63	0xbc351f90	-0.011054888
64	0x3c97aef3	0.01851604
65	0xbc6edba3	-0.014578733
66	0xbca01989	-0.019543426
67	0x3bda5e09	0.006664042
68	0xbcb940eb	-0.022613963
69	0x3bbe9913	0.0058165877
70	0x3c8b31d2	0.01699153
71	0xbc7146bc	-0.014726337
72	0xbcb27ead	-0.02178892
73	0xbcad2d51	-0.021139773
74	0xbbea6baf	-0.00715395
75	0x3c87c014	0.016571082
76	0xbcbdb614	-0.02315811
77	0x3b34ad10	0.0027568974
78	0x3c2afa97	0.010435722
79	0x3b8d1dad	0.004306516
80	0x3acf5c33	0.0015820324
81	0x3c984753	0.018588698
82	0xbc899d55	-0.016798655
83	0xbc953247	-0.01821245
84	0x3c4598b0	0.012060329
85	0x38f012aa	0.00011447568
86	0x3c6de269	0.014519312
87	0xbbfc286e	-0.0076952493
88	0x3c84cfc8	0.01621236
89	0xbbe304fc	-0.0069280844
90	0xbc479881	-0.012182356
91	0xbbe65785	-0.007029476
92	0xbafd1cc3	-0.001931094
93	0x3a8d336c	0.0010772771
94	0x3b27b04e	0.0025587264
95	0x3c63b597	0.013898275
96	0xbbcd3138	-0.006261971
97	0xbce70281	-0.028199436
98	0xbce9c774	-0.02853749
99	0x3caa5aa4	0.020795174
100	0x3cab6468	0.0209219
101	0x3c3d18a1	0.0115415165
102	0x3c8ea2a8	0.017411545
103	0x3ca138ed	0.019680465
104	0x3ca1632d	0.019700611
105	0x3c977c4f	0.018491892
106	0xbc998a1b	-0.018742612
107	0xbc156ab1	-0.0091196755
108	0xb92e3403	-0.00016613309
109	0x3c52bcdb	0.012862409
110	0x3b2b0590	0.0026095845
111	0x3c8301a3	0.015991991
112	0xbc9f813a	-0.0194708
113	0xbbe5dd5a	-0.0070149126
114	0xbc68d5f0	-0.014211163
115	0x3cc11fd3	0.023574745
116	0xbc19bbda	-0.009383166
117	0x3ce67fe0	0.028137147
118	0xbbc5f393	-0.006040999
119	0x3c28a8ec	0.01029418
120	0xbcdcded7	-0.026961727
121	0x3c2cb935	0.010542204
122	0xbc449c94	-0.012000222
123	0xbca3f922	-0.020016257
124	0x3c4a1b94	0.012335677
125	0x3caccda5	0.021094153
126	0x3a7f9296	0.0009749321
127	0xbca0fa08	-0.019650474
128	0x3b8f582a	0.0043745236
129	0xbcd0cb47	-0.025487555
130	0x3a774833	0.0009433061
131	0xbc8338af	-0.01601824
132	0x3bd53526	0.00650658
133	0x3cbe8258	0.023255512
134	0xbb42cf37	-0.002972556
135	0xb9a9981b	-0.0003234752
136	0x3ae604a4	0.001754899
137	0x3c51888e	0.012788905
138	0x3bb961b1	0.0056573977
139	0xbc91600a	-0.01774599
140	0xbc74bcc3	-0.014937582
141	0x3cb1eafa	0.02171849
142	0x3c733b05	0.014845614
143	0xbc911e1d	-0.017714554
144	0xbc90de9c	-0.017684273
145	0xbba02a6b	-0.004887869
146	0xbc1e572a	-0.009664336
147	0xbc6e0c37	-0.014529279
148	0x3c6d813b	0.014496143
149	0x3c09d6d3	0.0084130345
150	0xbc870f8f	-0.016486911
151	0xbc0305b9	-0.00799697
152	0xbcaba7fa	-0.02095412
153	0xbc8c1114	-0.017097987
154	0xbb0a9cc9	-0.002115058
155	0x3a951e8a	0.0011376899
156	0x3bc780ab	0.0060883365
157	0x3c86663f	0.016406177
158	0xbb624d42	-0.0034530913
159	0x3ca6bb96	0.02035312
160	0x3c1c498d	0.00953902
161	0xbb572dcd	-0.0032833696
162	0xbc4fd368	-0.0126846805
163	0x3b25b8f6	0.0025287247
164	0x3c808caf	0.015692083
165	0x3bc3733d	0.005964665
166	0xbcfe0432	-0.03100786
167	0xbbdfc617	-0.006829034
168	0xbbc27b3e	-0.005935102
169	0x3b158cf2	0.0022819606
170	0x3c94befa	0.018157471
171	0xbc81b540	-0.015833497
172	0x3c886390	0.016649038
173	0x3bf77bac	0.0075525846
174	0x3cc59adf	0.0241217
175	0xbb16481a	-0.002293116
176	0x3c8dad92	0.017294679
177	0xbc99461b	-0.018710187
178	0xbb3de7cf	-0.002897728
179	0x3bba6340	0.005688101
180	0xbc7dbc91	-0.015486852
181	0xbcaae9e0	-0.020863473
182	0x3c5154eb	0.012776594
183	0xbca7cfe9	-0.020484881
184	0xba17811d	-0.0005779432
185	0xbca70e8c	-0.020392679
186	0x3c8a3453	0.016870653
187	0xbc8b4ce7	-0.017004443
188	0xbc86f9bb	-0.016476503
189	0x3c9ceaed	0.01915499
190	0xbc59e2e3	-0.013298723
191	0x3c9e5608	0.019328132
192	0xbbcbb873	-0.0062170564
193	0x3c163a03	0.0091691045
194	0x3b77e093	0.0037823066
195	0xbc84d2ae	-0.016213741
196	0x3bfa8317	0.0076450217
197	0xbca51d76	-0.02015565
198	0xbc731b25	-0.014838015
199	0xbc0a1514	-0.008427877
200	0xbc3d653d	-0.011559782
201	0x3c4f5055	0.01265343
202	0x3c07b8d6	0.008283814
203	0xbb81dce1	-0.0039630984
204	0x3cd52a3d	0.026021117
205	0x3c88565f	0.016642747
206	0xbb3eeaf8	-0.0029131752
207	0x3b711bd8	0.0036790278
208	0x3b84785f	0.0040426697
209	0x3c78e9d1	0.015192465
210	0xbb1e7c6a	-0.0024183043
211	0x3b12f343	0.0022422827
212	0x3bfacb3c	0.007653622
213	0xbc0475cd	-0.0080847265
214	0xbcf515a7	-0.029917551
215	0xbc9ac90e	-0.018894698
216	0xbcd4d3b7	-0.02597986
217	0xbb23a962	-0.0024972786
218	0xbcb26958	-0.021778747
219	0x3c32c44d	0.01091106
220	0xbb1ff6e7	-0.002440864
221	0x3c37734f	0.011196925
222	0xbba8e720	-0.0051545054
223	0x3ba2aefe	0.0049647084
224	0xbbf03ef9	-0.0073317257
225	0xbc000c11	-0.007815377
226	0xbc49dacb	-0.012320231
227	0xbc503fd9	-0.012710535
228	0xbc74a375	-0.014931549
229	0xbabba69d	-0.0014316622
230	0xbbc47a32	-0.005996012
231	0xbb76619e	-0.0037594805
232	0xbc815807	-0.015789045
233	0xbcf50381	-0.029908897
234	0x3c00a7d6	0.007852515
235	0x3c810a00	0.015751839
236	0x3a8dbfee	0.0010814646
237	0xbc1987cc	-0.009370755
238	0x3c8b7880	0.017025232
239	0xbbdf8122	-0.0068208138
240	0xbaf4663a	-0.0018646189
241	0xbc9da14a	-0.019241948
242	0xbcb2016b	-0.021729192
243	0x3b94bc29	0.004539032
244	0x39b98ead	0.0003539225
245	0xbc2b6591	-0.010461227
246	0xba82e337	-0.0009985928
247	0xbc367cc5	-0.011138146
248	0x3c906867	0.017627908
249	0xbca8d6f8	-0.020610318
250	0xbc7c5adb	-0.015402521
251	0x3af747f7	0.0018866052
252	0x3995a84d	0.00028544888
253	0xbcc95e99	-0.02458124
254	0x3c731bbd	0.014838156
255	0xbb5f7a66	-0.0034100055

conv2.bias f4 [6]
0	0x3cde4bca	0.027135748
1	0x3d408135	0.04699822
2	0x3d5b70cc	0.05357437
3	0x3b4ffaec	0.0031735254
4	0xbc5677d6	-0.013090095
5	0x37f3b4a6	2.9051978e-05

fc1.weight f4 [1, 144]
0	0x3d246031	0.040130798
1	0xbdce274d	-0.1006609
2	0x3daaf2e5	0.0834711
3	0x3e801f3e	0.25023836
4	0x3c4a6015	0.012352009
5	0xbe292950	-0.16519666
6	0x3e5cfe10	0.21581292
7	0x3e358897	0.17727886
8	0x3da28eef	0.07937419
9	0xbd3f1c73	-0.04665799
10	0x3e56d718	0.20980489
11	0x3c59304a	0.013256142
12	0xbca47ddc	-0.020079546
13	0x3d8b14bb	0.067910634
14	0xbdc6b4d5	-0.0970246
15	0xbe66f0aa	-0.22552744
16	0xbe2ad085	-0.16681106
17	0x3bcdd0ff	0.006281018
18	0xbd7c12dd	-0.061541427
19	0xbdcea4ab	-0.10090002
20	0x3c025c89	0.007956632
21	0xbe2c864b	-0.16848104
22	0xbddb9861	-0.10722423
23	0xbcfb5fc2	-0.03068531
24	0x3dead302	0.11466028
25	0xbdc5ef2f	-0.09664761
26	0x3dd792ea	0.105260685
27	0xbdd2a2da	-0.10284968
28	0x3e6c88d4	0.23099071
29	0x3db2f265	0.08737639
30	0xbe11a823	-0.14224295
31	0x3dc8b708	0.098005354
32	0xbe2b0451	-0.16700865
33	0xbd76f683	-0.060293686
34	0x3df9e195	0.122012295
35	0xbe69747e	-0.22798344
36	0x3d6238cb	0.055229943
37	0xbe65c66d	-0.22438975
38	0xbd86ec7a	-0.06588073
39	0xbd37f4bb	-0.044911128
40	0xbd6a5b47	-0.057215955
41	0x3e114ebe	0.14190194
42	0x3de90a6e	0.113789424
43	0xbd0b0d74	-0.033948377
44	0xbe1b9dbf	-0.15196894
45	0x3e0678b7	0.13131987
46	0xbd4396cd	-0.047751237
47	0xbdb7c74e	-0.08973561
48	0x3d6dfbb6	0.05810138
49	0x3d3a50f6	0.045487367
50	0xbd521d0d	-0.051297236
51	0xbdd1a83a	-0.10237165
52	0x3dccb1af	0.09994828
53	0xbdfde3ed	-0.12396989
54	0x3dfb6953	0.122759484
55	0x3d97b8af	0.074082725
56	0xbd927f37	-0.071531706
57	0xbe1a4c32	-0.15068129
58	0x3d1bf2af	0.038073238
59	0xbdb358fd	-0.087572075
60	0x3dc3c445	0.0955892
61	0xbcd2bc0f	-0.025724439
62	0xbe6747ed	-0.22586031
63	0x3cf24cd3	0.029577648
64	0xbbb3267f	-0.0054672356
65	0xbbd399fc	-0.0064575654
66	0xbe106a81	-0.14103128
67	0xbe3e058a	-0.185568
68	0xbc02c2dd	-0.007981029
69	0x3d980604	0.074230224
70	0x3cdf9afa	0.027295578
71	0x3e5ef84e	0.21774408
72	0x3d4a1f76	0.04934641
73	0x3c6d07b1	0.014467166
74	0xbdd81db0	-0.105525374
75	0x3dc73ba3	0.09728172
76	0x3d9faa3e	0.07796143
77	0xbd2a7602	-0.041616447
78	0x3e55b6d9	0.20870532
79	0xbda40c23	-0.080101274
80	0x3b1f6712	0.002432291
81	0xbe342b61	-0.17594673
82	0x3d82ffe5	0.06396464
83	0xbb0f02cb	-0.0021821733
84	0xbce967ab	-0.028491816
85	0x3d783809	0.060600314
86	0x3d81e576	0.06342594
87	0xbe0814dc	-0.13289207
88	0xbb96c423	-0.004601018
89	0xbda93684	-0.08262351
90	0x3d9c4a1b	0.07631322
91	0xbdc11138	-0.09427112
92	0xbdc453eb	-0.095863186
93	0x3e003b90	0.12522721
94	0xbdc02a4c	-0.093830675
95	0xbd62a578	-0.055333585
96	0x3e28893d	0.16458602
97	0x3d9a08db	0.0752122
98	0xbba41ec3	-0.00500855
99	0x3d9457dc	0.0724332
100	0xbe5b6b71	-0.21427704
101	0x3e413979	0.1886958
102	0x3ce5c1ed	0.028046573
103	0x3d70e997	0.05881652
104	0xbbbef3f2	-0.0058274204
105	0x3d4639b3	0.04839487
106	0xbd90badf	-0.07066893
107	0x3d4c9a27	0.0499517
108	0xbe417d60	-0.18895483
109	0x3db694cf	0.08915102
110	0xbd3f670f	-0.046729144
111	0x3e06ddb9	0.13170518
112	0x3dc2bd73	0.09508791
113	0x3d090547	0.0334523
114	0xbce5461c	-0.027987532
115	0x3ca31005	0.0199051
116	0xbe2b9152	-0.16754654
117	0x3dc29c6c	0.09502491
118	0xbd7a7c93	-0.06115396
119	0xbe683a4e	-0.22678491
120	0xbdd1f50d	-0.10251818
121	0x3e007bf9	0.12547292
122	0x3e2b7ee4	0.16747624
123	0x3df3aafd	0.11897848
124	0xbe4deab6	-0.20109066
125	0x3dc68953	0.09694161
126	0x3ca43dc3	0.020048982
127	0xbd806369	-0.06268961
128	0xbdf2a7dd	-0.11848424
129	0x3bcbd41c	0.006220354
130	0xbe623e20	-0.22094011
131	0xbe69dc13	-0.22837858
132	0x3dc4c460	0.09607768
133	0xbb7091bc	-0.0036707958
134	0xbbed8d6c	-0.007249525
135	0xbe3cdada	-0.1844286
136	0x3bf687a4	0.007523494
137	0x3e175143	0.14777093
138	0x3de01dcf	0.109431855
139	0x3df5fe32	0.120113745
140	0x3dfe0c2c	0.12404665
141	0xbe1548d4	-0.14578563
142	0xbc1c0aec	-0.009524088
143	0x3dcd8735	0.10035554
