PythonClient/saved_models/0.5-2024-04-24.pth (torch, 371208 bytes, 4 tensors)

conv1.weight f4 [8, 3, 6, 6]
0	0xbdf4d025	-0.11953763
1	0xbd39f9a5	-0.045404095
2	0xbd9db28b	-0.0770007
3	0xbd800b3d	-0.062521435
4	0xbc6ac17a	-0.014328355
5	0x3e135c16	0.14390597
6	0xbd16e25f	-0.036836978
7	0xbdfedfc9	-0.124450274
8	0x3c097e68	0.008391954
9	0x3c94ae68	0.01814957
10	0x3d6879dd	0.056756843
11	0x3d6dfa27	0.058099892
12	0xbe248a71	-0.16068436
13	0xbe52ec95	-0.20598061
14	0xbe0d986c	-0.13827676
15	0xbe159155	-0.14606221
16	0xbe088fa6	-0.13336048
17	0xbcadc9fa	-0.021214474
18	0xbe3daa58	-0.18522012
19	0xbe8f97a0	-0.28045368
20	0xbde45cb6	-0.11150496
21	0xbe2ab666	-0.16671142
22	0xbd9ea5b6	-0.077464506
23	0x3d8954e9	0.067056485
24	0xbdda05a4	-0.10645607
25	0xbe7cb9f2	-0.24680308
26	0xbde871d4	-0.11349836
27	0xbd64027f	-0.055666443
28	0x3d319e69	0.043363962
29	0xbd4bcedf	-0.049757835
30	0xbe13a20e	-0.14417288
31	0xbe491873	-0.19638233
32	0xbdc14190	-0.09436333
33	0xbd987566	-0.07444267
34	0xbcac6cdc	-0.021048002
35	0xbd90b21d	-0.070652224
36	0xbc8eee45	-0.0174476
37	0x3cf5a6f2	0.029986832
38	0x3ddf9407	0.10916906
39	0x3ddb2542	0.10700466
40	0x3e472a57	0.19449745
41	0x3e3846fd	0.1799583
42	0x3d181251	0.037126843
43	0x3c1a8326	0.009430682
44	0x3dc535f6	0.09629433
45	0x3d4a2a2b	0.04935662
46	0x3dd1e0a1	0.10247923
47	0x3dfa67ec	0.12226853
48	0xbd9920a3	-0.07476928
49	0xbe4901cc	-0.19629592
50	0x3b91b86b	0.004447033
51	0xbdc82368	-0.09772378
52	0xbcdb2fab	-0.026756128
53	0x3d6610d3	0.05616839
54	0xbe4ef1ab	-0.20209377
55	0xbe3045b0	-0.17214084
56	0xbe3bc373	-0.18336277
57	0xbc03b9f0	-0.008039936
58	0x3cbb2c74	0.022848345
59	0x3cbbb025	0.02291114
60	0xbe33fdec	-0.17577332
61	0xbe44dec8	-0.1922561
62	0xbd86fd6c	-0.06591305
63	0xbd209f23	-0.039214265
64	0x3c7fcb5a	0.015612448
65	0x3d93d055	0.072174706
66	0xb8357e5e	-4.327145e-05
67	0xbe0eb715	-0.13937028
68	0x3d3c01cd	0.045900155
69	0x3ca663f6	0.020311337
70	0x3c34f4d1	0.011044697
71	0x3dedc708	0.11610228
72	0xbcd54b78	-0.026036963
73	0x3d13f60a	0.036123313
74	0x3e646cf2	0.22307184
75	0x3e4c9a9a	0.19980851
76	0x3e980d38	0.29697585
77	0x3e1dc47d	0.15406986
78	0x3d3118f8	0.043236703
79	0x3dd546e1	0.1041391
80	0x3e079a97	0.13242565
81	0x3e2b08c1	0.16702558
82	0x3e0e7152	0.13910416
83	0x3e550226	0.20801601
84	0x3da259cb	0.07927283
85	0xbd05a9f0	-0.03263277
86	0x3dc768ef	0.09736811
87	0x3dfba58d	0.12287436
88	0x3adfa7f1	0.00170636
89	0x3db677c0	0.08909559
90	0xbdf5e95d	-0.12007401
91	0xbc5317bc	-0.012884077
92	0x3d60a248	0.054842263
93	0xbc8b801a	-0.017028857
94	0x3e29ba6e	0.16575024
95	0x3e33625e	0.17517993
96	0x3d02f196	0.031968676
97	0xbdd4634d	-0.103705026
98	0x3dbd820b	0.09253319
99	0x3d9c68d9	0.076371856
100	0x3dc61eae	0.096738204
101	0x3dd00d24	0.101587564
102	0xbd8a3209	-0.06747825
103	0xbd4d4115	-0.050110895
104	0xbc441de0	-0.011970013
105	0xbc84c0d2	-0.016205225
106	0x3e32e243	0.17469124
107	0x3e3b8c85	0.18315323
108	0xbd8cd500	-0.06876564
109	0xbd7f41ad	-0.062318493
110	0xbdfbbfa4	-0.12292412
111	0xbe52b81b	-0.20578043
112	0xbd95b5bc	-0.07310054
113	0xbd493f6c	-0.04913275
114	0xbdfa9d1a	-0.12236996
115	0xbe290eb8	-0.16509521
116	0xbdccddec	-0.10003266
117	0xbcbf89c9	-0.02338113
118	0xbce8ef01	-0.028434278
119	0xbe192e71	-0.14959122
120	0xbc335e0f	-0.010947718
121	0xbde6bafc	-0.11266133
122	0xbe04cd98	-0.12969053
123	0xbdc3fcfa	-0.09569736
124	0xbd08a4f4	-0.033360437
125	0xbdc85997	-0.09782713
126	0xbd951b9c	-0.07280657
127	0x3d358882	0.044319637
128	0x3c7281c9	0.014801451
129	0xbb88e430	-0.0041775927
130	0x3de60fae	0.112334594
131	0x3de4df56	0.111754104
132	0x3c4cbcb0	0.0124961585
133	0x3db96d06	0.09053998
134	0x3de47ce7	0.11156636
135	0x3e39d824	0.18148857
136	0x3e5501eb	0.20801513
137	0x3e1e65a4	0.1546846
138	0x3e3b68df	0.18301724
139	0x3e030c7a	0.12797728
140	0x3e48a40d	0.1959383
141	0x3e5b8b93	0.21439962
142	0x3e0a790b	0.13522737
143	0x3e1370b4	0.14398462
144	0xbe1afe6b	-0.15136115
145	0xbe3748a8	-0.1789881
146	0xbe1a2b5b	-0.15055601
147	0xbdc28f4e	-0.094999894
148	0xbcca874a	-0.024722714
149	0xbd7432cf	-0.059618767
150	0xbe080cc0	-0.13286114
151	0xbe24ae79	-0.16082181
152	0xbdbf83f6	-0.093513414
153	0xbcb9245a	-0.022600342
154	0x3c13df4d	0.009025407
155	0xbdd5194b	-0.10405215
156	0xbb12e602	-0.0022414927
157	0xbd2c5842	-0.042076357
158	0xbc898a14	-0.016789474
159	0x3bc93876	0.006140764
160	0x3d87af83	0.06625273
161	0xbdb2380d	-0.08702097
162	0x3d3569bc	0.04429029
163	0x3b970baa	0.0046095448
164	0x3dda96b0	0.106732726
165	0x3d6fdcf5	0.05856033
166	0x3da03b69	0.078238316
167	0xbcbca1d6	-0.023026388
168	0x3d9c3019	0.076263614
169	0x3e24cf79	0.1609477
170	0x3e2b648c	0.16737574
171	0x3de4a35e	0.11163972
172	0x3e631444	0.221757
173	0x3e18fdd3	0.14940576
174	0x3e49ca89	0.19706167
175	0x3e0e66e5	0.13906439
176	0x3e5edc7a	0.21763793
177	0x3d9e1130	0.07718122
178	0x3e612af7	0.21989046
179	0x3da6b754	0.08140436
180	0xbe73b305	-0.2379876
181	0xbe6ecaf9	-0.23319615
182	0xbe44672e	-0.19179985
183	0xbdaeeda2	-0.085414186
184	0xbd23c26f	-0.03998035
185	0xbdb6cf22	-0.08926226
186	0xbe4419b4	-0.1915043
187	0xbe45fe17	-0.19335209
188	0xbd40c037	-0.04705831
189	0xbd90ecee	-0.07076441
190	0x3d05a22f	0.032625373
191	0xbd74650f	-0.05966669
192	0xbe370f9c	-0.17877048
193	0xbc57d803	-0.01317406
194	0xbd6beaa9	-0.057596836
195	0xbd789b14	-0.06069477
196	0x3d523454	0.051319435
197	0xbd059198	-0.032609552
198	0x3c63252a	0.013863841
199	0xbd5ef08e	-0.05442863
200	0x3e0980d1	0.13428046
201	0x3da870ba	0.08224626
202	0x3bc841c8	0.0061113574
203	0x3d8e9b56	0.06963222
204	0x3d8d3e1b	0.06896611
205	0x3e30cb58	0.1726507
206	0x3e1cefa8	0.15325797
207	0x3e4fab89	0.20280279
208	0x3e2f63f0	0.17127967
209	0x3e42cd41	0.1902361
210	0x3de70278	0.11279768
211	0x3e67f74b	0.22652929
212	0x3e5bc54f	0.21461986
213	0x3d5ed403	0.05440141
214	0x3e59b94f	0.21262096
215	0x3e3bf773	0.18356113
216	0x3e126acb	0.14298551
217	0x3de0ee90	0.10983002
218	0x3cddac76	0.027059775
219	0x3e46ff3d	0.19433303
220	0x3e450213	0.19239073
221	0x3dc30284	0.09521964
222	0x3e0ccbfd	0.1374969
223	0x3d87b06c	0.06625447
224	0xbc2db989	-0.010603317
225	0x3b14808e	0.0022659632
226	0x3d6a1cd2	0.05715639
227	0x3e22fe70	0.15917373
228	0x3e008bfa	0.12553397
229	0x3ce0733a	0.027398694
230	0x3b8b089f	0.004242971
231	0x3dd38eb8	0.10329956
232	0x3de2d699	0.110760875
233	0x3e25fe9f	0.16210411
234	0x3dbbb05a	0.09164496
235	0xbbe99b91	-0.0071291407
236	0xbd3c6dd0	-0.046003163
237	0xbdd81216	-0.105503246
238	0x3db98b4b	0.09059771
239	0x3e0b06a6	0.13576755
240	0xbd5e720a	-0.054307975
241	0xbe161b5d	-0.14658876
242	0xbe42e0bb	-0.1903104
243	0xbe4b67f4	-0.19863874
244	0xbe0ed723	-0.13949256
245	0x3c9f0c6a	0.0194151
246	0xbe3ad4a2	-0.18245175
247	0xbd4adb62	-0.049525626
248	0xbe5ee035	-0.21765216
249	0xbe5bb7dd	-0.21456857
250	0xbe5c5738	-0.21517646
251	0xbdbd6def	-0.09249484
252	0x3dae2302	0.08502771
253	0x3df82c4f	0.12117826
254	0x3e3a558c	0.18196696
255	0x3e2b68b5	0.16739161

conv1.bias f4 [8]
0	0xbccdc41b	-0.025117924
1	0x3d826078	0.06366056
2	0x3d7b96ba	0.06142304
3	0x3dc37901	0.09544564
4	0x3d706fe7	0.05870047
5	0xbd5da9b4	-0.05411692
6	0x3d116f4e	0.03550654
7	0xbd34e6bc	-0.044165358

fc1.weight f4 [8, 11424]
0	0xbcd6bf9c	-0.026214413
1	0x3a463bb2	0.0007561996
2	0x3bd904d1	0.0066228886
3	0x3b83ce11	0.0040223678
4	0xbc53e995	-0.012934108
5	0xbcbcf1a7	-0.023064448
6	0xbc009fef	-0.007850631
7	0xbc35e810	-0.011102691
8	0xbca7f8f1	-0.020504447
9	0x3ba0f5ff	0.0049121375
10	0x3c17f2a4	0.009274159
11	0xbc554673	-0.013017285
12	0x3a62946f	0.0008643334
13	0x3cc42b2f	0.023946373
14	0x3ca98a00	0.020695686
15	0x3c88a920	0.016682208
16	0x3c560077	0.013061634
17	0xbc3a5584	-0.011372928
18	0xbba288f2	-0.004960173
19	0xbd005e48	-0.031339914
20	0x3be640df	0.007026776
21	0xbc5ab94b	-0.013349841
22	0x3d0f08fc	0.034920678
23	0x3cce3118	0.025169894
24	0xbc52b9e6	-0.012861704
25	0xbc6545c0	-0.0139936805
26	0xbbb87201	-0.0056288247
27	0x3c43b608	0.011945255
28	0x3a13c177	0.00056364335
29	0xbc697278	-0.014248483
30	0x3bcb9fdd	0.0062141255
31	0xbb75bab8	-0.0037495326
32	0xbb443699	-0.002993977
33	0xbc08ba3c	-0.008345183
34	0xbca87641	-0.0205642
35	0xbbcd847b	-0.0062718964
36	0xbcbf88bf	-0.023380635
37	0x3c9754fb	0.018473139
38	0x3c0d34b0	0.008618519
39	0xbad8587f	-0.0016505866
40	0x3cb09bf9	0.021558749
41	0x3c04b3b0	0.008099481
42	0x3bb573e2	0.005537496
43	0x3c95f6ee	0.018306222
44	0x3d0cd128	0.034379154
45	0x3d118cb2	0.035534568
46	0x3c8bc760	0.017062843
47	0x3cf6ae07	0.03011228
48	0x3c247a09	0.010038861
49	0x3b7f652a	0.003897021
50	0x3cb86bb5	0.022512296
51	0xbc172d56	-0.0092271175
52	0xbc47496c	-0.012163501
53	0x3bccaae3	0.006245957
54	0x3c34f6e4	0.011045191
55	0x3aa5417e	0.0012608019
56	0xbc073b2a	-0.008253852
57	0xba7f1426	-0.00097304804
58	0x3bbcd5dd	0.005762799
59	0xbc82a6fb	-0.015948763
60	0xbb33a139	-0.0027409329
61	0xbb84e520	-0.004055634
62	0x3bdf6917	0.0068179476
63	0x3c0d7d53	0.008635837
64	0x3cb1b5b9	0.021693097
65	0x3cf18248	0.029481068
66	0x3bc9f576	0.0061632944
67	0xba240bb6	-0.00062578486
68	0xbca72fd9	-0.020408558
69	0xbca46ba5	-0.02007086
70	0xbd2c0b0a	-0.042002715
71	0x3c2f9f7e	0.010719178
72	0x3b5c464b	0.0033611234
73	0xbc3c2db1	-0.011485503
74	0xbaa3fe48	-0.0012511695
75	0x3c452809	0.012033471
76	0x3bafe756	0.0053681536
77	0x3cacf083	0.021110779
78	0x3ce175cf	0.027521996
79	0xbc9356fb	-0.017985811
80	0xbc7f04f0	-0.015565142
81	0x3ce58a69	0.0280201
82	0x3c649aac	0.013952892
83	0xbd035b19	-0.0320693
84	0x3abd664d	0.0014450044
85	0x3be6e0f9	0.007045862
86	0x3c4ee491	0.012627737
87	0xbbc4a0cb	-0.0060006133
88	0xbc8cc9e1	-0.017186107
89	0xbad28683	-0.0016061816
90	0x3c5d81d8	0.013519727
91	0x3c329fcb	0.010902355
92	0x3c337d82	0.010955216
93	0x3c799298	0.015232705
94	0x3cf52340	0.029924035
95	0x3bf07556	0.0073382063
96	0x3bf967be	0.007611244
97	0x3d30d89b	0.04317532
98	0x3d15c5b3	0.036565494
99	0x3caa01ce	0.020752814
100	0xb9ae8f5a	-0.0003329467
101	0x3c48b57d	0.012250301
102	0xbb8c67a2	-0.004284815
103	0xb9e07364	-0.00042810582
104	0x3bb65d35	0.0055653104
105	0x3bbc3eb9	0.005744782
106	0xbb2cb20b	-0.002635124
107	0xbb8f870a	-0.0043801116
108	0xbbac29dc	-0.0052540135
109	0x3b85c889	0.0040827435
110	0xbc42f65a	-0.011899555
111	0xbb929a0f	-0.0044739316
112	0x3bbb93ec	0.005724421
113	0x3bbdb89b	0.005789829
114	0x3ab842a4	0.0014057946
115	0xbc42a2be	-0.011879621
116	0x3d0c0611	0.034185473
117	0x3d2d79ba	0.042352416
118	0x39f8cd2e	0.00047455117
119	0x3bb17157	0.0054151225
120	0x3c3ec316	0.011643192
121	0x3c6881f9	0.014191144
122	0xbc191b58	-0.009344898
123	0xbbccfc37	-0.0062556523
124	0xbc257e8f	-0.010100975
125	0xbbe1e872	-0.0068941647
126	0x3c4e0d0b	0.012576352
127	0x3c3dcf05	0.011585002
128	0x3c873ab0	0.016507477
129	0x3bef6e1c	0.007306827
130	0x3cb1b7ae	0.02169403
131	0xbbf03ac0	-0.0073312223
132	0x3d07e6e5	0.033179183
133	0x3ca59db8	0.020216808
134	0xbc5175cd	-0.012784434
135	0xbbac3ff1	-0.005256646
136	0x3a393387	0.0007064868
137	0xbb06d5ac	-0.0020574136
138	0x3c5baecb	0.013408373
139	0xbb001cc6	-0.00195484
140	0xbc6d57cf	-0.014486267
141	0x39819205	0.0002471359
142	0xbc5e2cd1	-0.01356049
143	0x3c874209	0.01651098
144	0x3ca8cdce	0.020605948
145	0x3c6a3a4d	0.014296127
146	0xbc30eb94	-0.010798354
147	0x3bc508e4	0.0060130227
148	0x3c9d682b	0.01921471
149	0x3c2c889e	0.010530619
150	0xbad0dc17	-0.0015934733
151	0xbba76869	-0.005108882
152	0x3d20b9cd	0.039239693
153	0x3ba63fd2	0.005073526
154	0x3adbdd89	0.0016774397
155	0x3c064673	0.008195507
156	0x3c1f157a	0.00970971
157	0xbafac22c	-0.0019131354
158	0xbc61285d	-0.0137425335
159	0xbc124c75	-0.008929362
160	0x3aac5000	0.00131464
161	0xbc20180c	-0.009771358
162	0x3c34f503	0.0110447435
163	0x3a20ebc5	0.0006138648
164	0x3b859dfe	0.004077672
165	0x3a9ead5f	0.0012106112
166	0x3b157f8a	0.0022811615
167	0x3c6e220f	0.014534487
168	0x3c8f066d	0.017459119
169	0xbb8032da	-0.003912312
170	0x3bb80362	0.0056156376
171	0x3c47d432	0.012196587
172	0xbc83fc28	-0.016111448
173	0xbbd89b07	-0.0066102776
174	0xbb4cc5ec	-0.00312459
175	0xbc6de865	-0.014520739
176	0xbcb072e4	-0.02153916
177	0x3adbec9e	0.0016778891
178	0x3c222e71	0.009898768
179	0xbb379bc2	-0.0028016423
180	0xba7d65c1	-0.00096663466
181	0x3b0aa57e	0.002115577
182	0xbc796194	-0.015221018
183	0x3c690ee5	0.014224743
184	0xbb9e2e5d	-0.0048273043
185	0xbcc89a29	-0.024487572
186	0xbc0e4c06	-0.008685118
187	0xbc832ffd	-0.016014094
188	0x3b637f63	0.003471338
189	0xbbe5744e	-0.00700239
190	0x3c26487f	0.01014912
191	0xba9a1b95	-0.0011757488
192	0x3c58ac36	0.013224652
193	0x3c3f031d	0.011658457
194	0x3c8ff1b6	0.017571311
195	0x3b41f9cc	0.0029598353
196	0x3cb490db	0.022041729
197	0xbba9d5a5	-0.005182939
198	0xbc20cca6	-0.009814417
199	0x3c9574a4	0.018244095
200	0x3ca50454	0.020143665
201	0x3c3da517	0.011575005
202	0xbc36680a	-0.011133203
203	0xbaafe80d	-0.0013420597
204	0x3c438bfb	0.011935229
205	0x3cba48ed	0.022739852
206	0x3c2dcbf3	0.010607707
207	0x3c4e69fd	0.012598512
208	0xbbd210ac	-0.006410679
209	0xbc40eb83	-0.0117749
210	0xbcaebc87	-0.021330131
211	0xbb2bd9f8	-0.0026222449
212	0xbcb9daee	-0.022687402
213	0xbb96651f	-0.0045896913
214	0xbbd5082a	-0.0065012174
215	0x3b41989b	0.0029540423
216	0xbb53e10d	-0.0032330186
217	0x3c643789	0.013929256
218	0x3bf25fdd	0.0073966817
219	0x3b8e6d4a	0.0043465244
220	0x3a413dfb	0.00073716015
221	0x3b2e562b	0.0026601653
222	0xbbf30088	-0.007415835
223	0xbce27511	-0.027643712
224	0xbc1c008e	-0.009521617
225	0xbc1ecf40	-0.009692967
226	0xbc525d73	-0.012839663
227	0xbc526bd7	-0.012843094
228	0xbb944988	-0.004525367
229	0x39972550	0.00028828764
230	0x3b03ae1a	0.0020092786
231	0x3cff7270	0.031182498
232	0xbc55a28a	-0.013039241
233	0x3c34226c	0.010994535
234	0x3c36a2c5	0.011147206
235	0x3afcd785	0.0019290304
236	0xbc6ac2ce	-0.014328672
237	0xb9e15b76	-0.00042983488
238	0x3c9e2363	0.019303983
239	0x3cb10858	0.021610424
240	0x3b82cf69	0.0039920104
241	0xbb1fc190	-0.0024376847
242	0x3c8bf213	0.017083203
243	0x3c25a1de	0.010109393
244	0x3c0ffbf5	0.008788099
245	0x3cc2340d	0.02370646
246	0x3bc6726c	0.0060561206
247	0x3c5e7dc0	0.013579786
248	0xba341422	-0.0006869455
249	0xbcc4a3f5	-0.024003962
250	0x3bc2fdbb	0.005950657
251	0x3ba6beef	0.005088679
252	0xbcd815d8	-0.026377603
253	0xbc06b989	-0.008222946
254	0xbc0ef36b	-0.008725028
255	0x3bf5a190	0.0074960664

fc1.bias f4 [8]
0	0xbbce4e2e	-0.006295941
1	0xbbbd74af	-0.005781732
2	0xbc98fc05	-0.01867486
3	0xbc8e6b90	-0.017385274
4	0xbb2ae58b	-0.002607676
5	0xbc1d07b1	-0.009584353
6	0xbc0784c2	-0.008271398
7	0xbc5602a0	-0.013062149
