PythonClient/saved_models/0.5-2024-04-23.pth (torch, 55886 bytes, 5 tensors)

conv1.weight f4 [8, 3, 6, 6]
00000000: 6f7e 91bd e2a7 533d f92e 6c3c ac76 f2bc
00000010: 2d6d d8bd c21c f1bc 0cfa 4b3b dac1 593d
00000020: 56f5 aa3d 64f5 62bd b51f 863d 356a 8abd
00000030: db76 53bc e2f7 5b3d 5c19 653d c5f6 153d
00000040: 8c95 3c3d 0fd6 753d 561f 5f3d f9fc 02bc
00000050: a926 a8bd c096 b8bd afa7 823c e6b0 9d3c
00000060: cd33 df3c 7bf6 2abd d91b 50bd a5b7 433c
00000070: 9db0 fe3c d5c3 9fbd de30 cdbc 1903 793d
00000080: bea9 9fbd 891a 4b3c f006 65bd 1c17 99bd
00000090: 4346 83bd d868 a83c f3d7 7a3c de5a 823d
000000a0: 61c1 afbd 0816 dabd deaa 88bc daee 8dbd
000000b0: e82d 85bc 96b9 163d 51bb bdbd e068 b9bd
000000c0: bdf4 c83d b400 bd3d 463f 073d 5234 943d
000000d0: fb06 83bd c26e a53d f09c c53c 83ff be3d
000000e0: a3e2 b53d 89e6 843d 39fc 02bc e2a2 833d
000000f0: 866d 823d f830 a93d d3dc 323d a4d4 c5ba
00000100: 3ff0 263d 9e81 c53c 0bc4 10bd d0c6 aa3d
00000110: c769 aabd 7246 22bd fbd3 15bd 7480 41bc
00000120: 2c4e 363d 3565 803d bdb9 62bd ccdd afbd
00000130: e67a a1bd 6e38 83bd f954 79bd 930b 7c3d
00000140: 9cd1 5cbd 4cbd d9bd e945 28bd 0d18 99bd
00000150: e571 31bd fd52 adbd 175d 15bd 830c 4d3d
00000160: 1c7e cebd 01af 773d 3e9e a8bd 2a1b a83d
00000170: 82c3 0a3d a884 3dbb 34fb eb3b 1098 b33d
00000180: e00a 8abd c250 2d3d de33 123c 734a c8bd
00000190: 0ab2 97bd c21f 613c 08ed bdbd b896 62bd
000001a0: 9400 713d 4fce 5c3d 51b6 c6bc d164 0ebd
000001b0: a128 23bd 9968 973c 7b40 cb3c fcea bcbd
000001c0: 4d33 d7b9 64fd a3bb b4b2 893c 99c9 d2bc
000001d0: a44f 923d a943 9bbd 04b5 803d 90f9 4b3d
000001e0: c50b 91bd 7220 b63d feed 8fbd 4bb7 26bb
000001f0: e21b 24bc 78c5 94bd 33f1 d53d a2fc 5e3d
00000200: d679 67bc 2042 59ba 7dd8 41bd 90cf a0bd
00000210: 040b a83d 570c 1a3d 5de7 e2bc 3ba5 373c
00000220: ee8b e5bc a3c6 3b3d e09a 4f3d 21d4 b5bd
00000230: ce11 dcbc ea05 97bd 7998 923d 532e 853d
00000240: 1bca 383d 7a01 623a abcb f2b9 936f 1abc
00000250: 49ba b23d 2595 ba3d 7a96 a5bd 9ed2 353c
00000260: 761e 9e3d 6b8d dc3c c6f8 94bd a609 293d
00000270: 1935 4bbc a7a4 65bd 8eb9 02bb 2456 183b
00000280: f244 623d 014f 4dbc 5306 2f3d e988 92bb
00000290: 0ba6 423d 6d5d 43bd d9a2 8a3d 7e04 4e3d
000002a0: 2c79 173c 2dd0 773c 2c28 24bd 9324 863d
000002b0: db32 e8bc 4732 c73d 461b f0bc 6dab 923d
000002c0: 8cfc aa3d b7dd d2ba 8f75 4e3c f899 443d
000002d0: 2927 ce3d 2c6c 193d f22d 93bc 7a2f a43d
000002e0: e9d5 483d 8889 803d 6632 6ebc f53e 8c3d
000002f0: 8e8e 343d 55f4 f93d 8d21 85bd 27e1 da3c
00000300: 7990 613c f5e5 b33d c7a6 2abc 58b8 973d
00000310: 6984 f03d 2486 523d 4673 953d 5bf0 febc
00000320: 9eb6 003e c82c d63d 1ff9 33bd fdd0 c4bb
00000330: 807e 013e 69c7 ba3d e4e9 72bd 25f8 5cbc
00000340: f064 813d 5511 4b3d 809f 543d d8c9 8fbb
00000350: 1bcf 323d 769a 03bc 7978 833d 2ea1 303d
00000360: a988 c53d fd05 a83d 1509 5e3c 09da d83d
00000370: ed70 90bc c35f ef3d 8627 d83d 3440 223d
00000380: 845f 053e 8c1d c7bb 398e 3a3d 03c4 98bd
00000390: 33cc e13d 8331 273d 27cb b83d 0fa5 d63d
000003a0: 7546 203d 7bde ca3d d425 383b 2fca 823c
000003b0: df69 753d a7c8 a3bc 2039 cabc 260f 89bd
000003c0: 0140 d6bc a5d8 003c 1b0c f53d 5d4f 2fbd
000003d0: 1001 f9bc c0eb 0abd 711d 883c a725 8d3d
000003e0: cde5 d7bc 33d4 233d 2657 c13c d6b9 603d
000003f0: d869 263c d0c0 c43d f8e3 2d3d aa92 c43d
-0.071041934 0.051673777 0.014415496 -0.029597603 -0.10567699 -0.029432658 0.0031124381 0.053163387
0.08347575 -0.055409804 0.065490164 -0.06758539 -0.012906755 0.053703196 0.055932388 0.03661229
0.046041057 0.060018595 0.054473244 -0.007994884 -0.08210499 -0.09013128 0.015949098 0.01924939
0.02724638 -0.04173897 -0.050807808 0.01194564 0.031090075 -0.07801024 -0.025047716 0.06079397
-0.07796048 0.012396463 -0.05591482 -0.07475111 -0.06409886 0.020557806 0.015310275 0.06364988
-0.08581806 -0.106487334 -0.016683038 -0.06930323 -0.016257241 0.036798082 -0.092642434 -0.090532064
0.09812305 0.0922865 0.033019327 0.07236542 -0.06397816 0.08077766 0.024122685 0.09326079
0.08881118 0.064892836 -0.007994705 0.06427552 0.06368546 0.08261293 0.043667626 -0.0015093279
0.04075646 0.024109658 -0.03534321 0.08338702 -0.08320957 -0.039617963 -0.036579113 -0.011810411
0.044508144 0.06269304 -0.055352915 -0.08587226 -0.07884769 -0.064072475 -0.060872052 0.061534476
-0.053910837 -0.10631809 -0.041082297 -0.074752904 -0.04332151 -0.084630944 -0.03646573 0.05006076
-0.10082647 0.06046963 -0.08233307 0.08208306 0.033877857 -0.002891818 0.0072015766 0.08769238
-0.067403555 0.042313345 0.008923499 -0.09779825 -0.07407005 0.013740482 -0.09273726 -0.055319518
0.058838442 0.05390769 -0.024256857 -0.034764115 -0.03983367 0.018482493 0.02481102 -0.09224507
-0.00041046218 -0.0050045718 0.016808845 -0.025730895 0.071440965 -0.075812645 0.06284526 0.04979855
-0.07082323 0.08892907 -0.07027815 -0.002543884 -0.010016413 -0.07264227 0.10446396 0.05444015
-0.014128169 -0.00082877465 -0.0473256 -0.078520894 0.08205226 0.037609424 -0.027698213 0.011208828
-0.028020825 0.04584373 0.05068481 -0.08878351 -0.026863959 -0.07374175 0.07157988 0.06502976
0.045114618 0.0008621436 -0.0004630958 -0.009426015 0.08726937 0.09110478 -0.08085342 0.011097578
0.07720654 0.026922902 -0.07274012 0.041268967 -0.012402796 -0.056065228 -0.0019947025 0.0023244703
0.055241533 -0.012531043 0.04273064 -0.0044718874 0.047521632 -0.04769652 0.06769342 0.050297253
0.009245198 0.015125317 -0.040077373 0.06549945 -0.028344562 0.097263865 -0.02930988 0.07161603
0.08348951 -0.0016087805 0.01260127 0.0479984 0.10066063 0.037456676 -0.017966244 0.08016868
0.049032126 0.06276232 -0.014538383 0.068479456 0.044081263 0.12204806 -0.0650054 0.02671869
0.013767355 0.08784095 -0.010415739 0.07408208 0.11744005 0.051397458 0.07297377 -0.03112047
0.12569663 0.1045776 -0.043938752 -0.0060063587 0.12645912 0.09120066 -0.059305087 -0.013486897
0.063180804 0.049577076 0.051909924 -0.0043880753 0.043654542 -0.008032432 0.06419463 0.043122463
0.096452065 0.08204267 0.01355197 0.10588462 -0.017631972 0.11688187 0.105544135 0.03961201
0.13024718 -0.0060765203 0.04554579 -0.07459261 0.11025276 0.040818702 0.09023123 0.10480701
0.039129693 0.09905716 0.002809872 0.01596555 0.05991542 -0.01999314 -0.024685442 -0.066923425
-0.026153566 0.007864152 0.119651996 -0.042800296 -0.030396014 -0.033916235 0.016615601 0.06891947
-0.026354695 0.03999729 0.023601126 0.054864727 0.010157071 0.096070886 0.042453736 0.095982864

conv1.bias f4 [8]
00000000: 42fe afbd 6e5f a3ba 2492 29ba 587a 4e3c
00000010: 45ab c73d 8221 493e 0957 0fbd 8f14 1a3d
-0.08593418 -0.0012464353 -0.0006468615 0.012602411 0.09749464 0.19641688 -0.034995113 0.037617262

conv2.weight f4 [6, 8, 16, 16]
00000000: 7f40 a73c 64c3 d83b ca7a a0bc ed94 95bb
00000010: 6c42 c23b 9810 bf3a 0b24 a03b 22db 96bc
00000020: 207d 8d3c 89c0 693c 1308 3abc 97cf 783c
00000030: fb75 973c f689 f0b9 b007 e93b 944d a83c
00000040: e6b9 0f3c 16b2 4bbc 8494 383c 67c2 943c
00000050: f519 93bc 7935 88bb 16c8 4f3c f392 c3bb
00000060: 1e18 8cbb 987c ac3c ead6 c73b 0786 6cbc
00000070: 0db3 26bc 8b6c 713c bea7 75bc 81c2 543c
00000080: 05bc b53c 22aa 143b 71c1 e3bb bb31 61bc
00000090: 1179 d6bb 09ae 6d3c b3cd 093b e772 b139
000000a0: 2708 fb3b a1d2 3d3c f310 2ebc c3b8 fcbb
000000b0: 4ca0 79bc 478c 51bc bd9d 3ebc 1155 1b3c
000000c0: 51e7 af3c 24da d93b aed8 243b f179 8c3b
000000d0: e956 803c 1688 103a e2c7 8bba 971a 393c
000000e0: 5322 073b 5caa ecbb 2c09 64bb d486 833c
000000f0: 2cea 253c 872e 51bb 2808 6cbc f391 a73c
00000100: bf55 61bc cb9f a93c e9a8 15bc 2d10 80ba
00000110: f7d1 91ba 3c2b 943c ae43 d6bb 221c 7e3c
00000120: 8212 a3bc 47d6 a6bc eb32 92bc e6de 8c3c
00000130: eadd 10bc 0d97 723b 31e4 9e3a 8c8f 4c3b
00000140: 5577 abbc 69f4 9fbc ac68 99bc 7c3f 94bc
00000150: 1dd0 c2ba 0f73 c5bb 105c f73b a689 923c
00000160: 9cab 103c b94e ac3c 3b7f 6abc 934b 5e3c
00000170: c33d 74bc d7af 16ba da2c b03c 2b00 85bc
00000180: 3274 58bc 2804 9abc 6af8 203c e81a 383c
00000190: aed6 c6bb 01f3 2fbb 6081 8a3c eb64 e33b
000001a0: b906 aabc 4c1b ffbb bb4f 8cbc 9a7b 0f3c
000001b0: 7617 5fbb 75d2 99bc b3e9 413c 4ede 043c
000001c0: 3b1a 233c 9333 abbc 4205 23bc d145 633c
000001d0: d774 2cbb fa33 96bc 77b8 9e3c 4834 d23a
000001e0: 35b1 b4bb 06d8 843c 7bd3 71bc 3ee8 2dbc
000001f0: d3fc 8b3c 5b5c 58bc d1a1 d13b 3d72 1ebc
00000200: b1eb 3a3c bab4 89bb c34c d8bb 6add 3cba
00000210: ede1 803a e61c 9f3c 9a9e 5e3c 6f7b 8d3c
00000220: 3af7 8bbc cf2c b1bc 3e25 3f3c 574c 3b3b
00000230: 8ee7 5b3c 8372 44bc e3f3 9abc a754 fd3b
00000240: ec4f 64bc 4a51 6f3c f008 a93c c64c 86bc
00000250: 9498 9cbc 1fa8 1dbc 053f 2ebb af48 453c
00000260: 097b 723c 91d3 8e3b d6d6 7abc 2f2c 8f3c
00000270: c4db ff3b d2e8 05bc 8dbe 05bc 6225 04bc
00000280: b7f5 9abc d556 383c d305 a9bc 7082 9a3c
00000290: 6eb9 893c 3e9c ccbb 9a04 60ba 9d26 8d3c
000002a0: 42c0 a9bc 535c 753c f679 89bc d4f3 243c
000002b0: 2e59 62bc 01cc 46bc 0c53 13bc b1de c03b
000002c0: f541 5f3c 3a1d 523c 705c 703c 6c7d fbbb
000002d0: 24f1 acbb 78bf 03bc f5d4 713c b5af abba
000002e0: 78df ed3a 0260 703c 26a2 8f3c 330d 753c
000002f0: 6c9f 13bc d6a0 d63b d2fa 81bb 12c5 0cba
00000300: 63e2 903c 2063 533c 0465 7d3c c28c a6bc
00000310: a006 0abc 566a 09bc 0649 a0bc 4924 cdba
00000320: e839 fd39 851d aaba d09c bebb 027e 463c
00000330: 3bd3 213c f44d 5ebc ba12 493c 8b9e 73bc
00000340: 86b5 493c a161 833c 727e 0bba 832d 973c
00000350: 2056 9bbc 1264 303c f574 753c 61f9 ac3b
00000360: f08c afbc bc0b 263c 4901 1b3c 508e 1cbc
00000370: 5665 56bc de07 0fbc ce19 47ba 9053 183b
00000380: b77a 66bc 2c1c 813c 829a 90bb b532 82bc
00000390: a9ba a4bc 1393 983b 125f 9dbc e6b2 0ebc
000003a0: f6cc a8bb b8dc b33c 2463 b13c 70f0 a7bb
000003b0: d122 6a3b c126 1a3b 7028 933c 58cf 9fbc
000003c0: 5739 8fbb cc17 333b 9615 deba 25ad 333b
000003d0: c37b afbc 4605 abbc 2535 b13c 1f5b 7b3b
000003e0: afa4 8b3c 8a97 b1bc c615 32bc 2f5e 9fbc
000003f0: a844 b73b 5c1d 6e3c 2b36 df3b ac9f 9abb
0.020416496 0.0066150893 -0.0195898 -0.0045648725 0.0059283283 0.0014577089 0.004887109 -0.018415038
0.017271578 0.014267095 -0.011354464 0.015186212 0.018488875 -0.00045879156 0.007111512 0.020544805
0.008772349 -0.012432596 0.011265878 0.018159105 -0.017956713 -0.004156765 0.012681982 -0.0059684454
-0.004275336 0.021055505 0.006098618 -0.0144362515 -0.010174525 0.014735351 -0.014993606 0.0129858265
0.022184381 0.0022684415 -0.0069505502 -0.013744767 -0.006545194 0.014506825 0.0021027147 0.0003384568
0.007660884 0.011585862 -0.010624158 -0.007712455 -0.015235972 -0.012789792 -0.011634287 0.009480731
0.021472605 0.006648319 0.0025153565 0.0042869975 0.015666442 0.00055134424 -0.0010664428 0.011297843
0.0020619824 -0.007222457 -0.0034795506 0.016055502 0.010126632 -0.0031918602 -0.0144062415 0.020455336
-0.013753354 0.020706078 -0.00913451 -0.0009770446 -0.0011125196 0.018087022 -0.0065388298 0.015509637
-0.019906286 -0.020365847 -0.017846545 0.01719613 -0.008841971 0.0037016303 0.001212245 0.003121349
-0.020930925 -0.019525724 -0.01872667 -0.018096678 -0.0014863048 -0.006025679 0.0075488165 0.017887902
0.008829977 0.021033632 -0.014312561 0.013567823 -0.014907303 -0.0005748248 0.021505762 -0.016235432
-0.013211297 -0.01880081 0.0098248515 0.011236884 -0.0060680723 -0.0026847722 0.016907394 0.0069395206
-0.020755159 -0.0077852365 -0.017127862 0.008757496 -0.0034041083 -0.018777112 0.011835503 0.008109642
0.009954984 -0.020898616 -0.009949984 0.013871626 -0.002631476 -0.018335331 0.019375069 0.001603731
-0.005514289 0.01621629 -0.0147598935 -0.010614453 0.01708833 -0.013205613 0.006397464 -0.009670791
0.011408732 -0.0042024525 -0.0066009476 -0.0007204624 0.0009832956 0.01942296 0.013587618 0.017270772
-0.01708566 -0.021627812 0.011666594 0.0028579438 0.013421906 -0.011990192 -0.018915122 0.0077310386
-0.0139350705 0.014606783 0.020634145 -0.01639403 -0.019115724 -0.009622603 -0.0026587856 0.012041255
0.014799842 0.004358717 -0.01531001 0.017477123 0.0078081805 -0.0081731845 -0.008163107 -0.008065553
-0.018915994 0.011251171 -0.02063266 0.018861026 0.016812053 -0.0062442115 -0.00085456076 0.017230326
-0.020721558 0.014975625 -0.016781788 0.010067899 -0.013815207 -0.012133599 -0.008991968 0.005885922
0.013626565 0.012824351 0.014670476 -0.0076748636 -0.0052777696 -0.008041255 0.014760246 -0.001309863
0.0018148264 0.014671328 0.017533373 0.01495676 -0.009010177 0.006549935 -0.0039666677 -0.0005369942
0.017686075 0.012902051 0.0154659785 -0.02033079 -0.008424431 -0.008387169 -0.01956607 -0.0015651073
0.00048299064 -0.0012978768 -0.0058170334 0.012115004 0.009877021 -0.01356839 0.012272531 -0.014869343
0.012311345 0.016037764 -0.0005321271 0.018454319 -0.018961966 0.010766046 0.014981498 0.0052787517
-0.021429509 0.010134634 0.009460756 -0.009555414 -0.013085684 -0.008729903 -0.0007595093 0.0023243167
-0.014067343 0.015760504 -0.00441295 -0.01589332 -0.020108538 0.0046562045 -0.019210372 -0.008709645
-0.0051513864 0.021955833 0.02165372 -0.005125098 0.0035726319 0.0023521634 0.017963618 -0.019508049
-0.004370849 0.0027327416 -0.0016943689 0.0027416435 -0.021421319 -0.020876538 0.021631787 0.0038353873
0.0170463 -0.021678705 -0.010869449 -0.01945409 0.0055929013 0.014533367 0.0068118772 -0.0047187414

conv2.bias f4 [6]
00000000: f00d 3c3c b90d 32bc 3b01 0f3d 0187 213d
00000010: f2e2 053c 8b68 803c
0.011477932 -0.01086753 0.034913283 0.03943539 0.008171784 0.01567485

fc1.weight f4 [1, 144]
00000000: 0adb e53a db64 843d be5a 8d3d ccd3 16bd
00000010: 781d 803d 7a4a 073d f051 d33c d73f 62bb
00000020: d5c3 f0bc 3e5f 05bd bca3 87bb 5a79 79bd
00000030: 30fb acbd 8852 623d b077 a1bb bdbb 5abd
00000040: cecc 13bc f07e 563d f3de 773d bc65 3c3d
00000050: 8b71 7dbb a390 9b3d 702a bcbc 903f 8f3d
00000060: ee32 3ebe 5dc8 c53d bb6f d7bd a9a0 d939
00000070: 1f30 393d 7536 c73d 7586 503d 89b4 ac3d
00000080: 0ca1 213e caeb 4c3d afa5 183e 0d4a 133e
00000090: e4df 8cbd 47e2 b3bd c87f 34be 444e b13d
000000a0: bfab 5fbe c0c6 60bd ae0b 2abd b887 b8bc
000000b0: 968e cfbc 7e12 f6bd b2b3 62bd 44c0 29be
000000c0: 3ff1 92bd 45cb cebd 9f27 f53d 0f3a 0b3e
000000d0: 73af a03d 975d 96bc 30c6 e53d f869 9dbd
000000e0: 9c16 62bc 9318 edbd 4603 13be 07ce acbd
000000f0: 98e2 e5bd ffb1 193e 7474 1fbe f584 403e
00000100: 9316 e13d 9944 233c 438f 103d a39a 95bb
00000110: 6365 003e 56f0 e7bd d79c 28be 419d 03be
00000120: 4352 fbbd c5d9 dabd 031e 0c3e 5461 74be
00000130: e24d babd 8a2e 2cbd 0b2f d33d 82b2 1a3e
00000140: 5b71 753d 6c56 b63c e199 163d 9cd1 a63d
00000150: e558 40bd e2a0 cd3d 9314 763d 64b5 0bbe
00000160: 186e db3d 8b2a 8dbc c1e2 12be 0d7e 513d
00000170: 70d6 abbd e165 353e 79ef 53bc a536 aa3d
00000180: ced6 963d 040d 313c 1239 08be 201e 293e
00000190: 63f4 23bd dd39 66be 2efc 063d 25ae 57be
000001a0: e692 24bc 6a40 af3d 6a78 013d d76e fdbd
000001b0: aecb ca3b fb89 a53c 8907 a33e 847e 233e
000001c0: dee6 52be 6158 cebd fe22 0a3d dad5 603e
000001d0: 7f81 9bbd 437f b13c 0063 5abd 8962 bcbc
000001e0: 329f c0bd beb0 363e d76f a53d 7ba4 2bbd
000001f0: 9b87 053e 5ba4 cabd 3690 f0bd 9f23 a1bc
00000200: 4ed6 59be 0e92 2e3d 6216 0cbd 8d4e 20be
00000210: 8a72 44bd 34a9 c1bb 34b5 d63c 1780 ce3d
00000220: d782 883e 7ff0 4e3e 2bdd 063d 8323 77bd
00000230: c09e a03d b1e2 e9bb 67f9 753a 993b 01be
0.0017536592 0.06464549 0.06902073 -0.03682308 0.06255621 0.03303001 0.025795907 -0.0034522915
-0.029390255 -0.032561533 -0.0041393917 -0.060906745 -0.08446348 0.05525449 -0.004927598 -0.053401697
-0.009020997 0.05236715 0.060515355 0.04599546 -0.0038672413 0.07595947 -0.022969455 0.069945455
-0.18574116 0.09657357 -0.10519358 0.00041509166 0.045211907 0.09727184 0.05090948 0.08432872
0.15784091 0.050029553 0.14906953 0.14383717 -0.06878641 -0.08783393 -0.1762687 0.08657506
-0.2184286 -0.054877043 -0.041515045 -0.022525653 -0.025336545 -0.12015246 -0.055347152 -0.1657725
-0.0717492 -0.10097364 0.11970448 0.13596366 0.07845964 -0.018355174 0.11219442 -0.076862276
-0.013799336 -0.11576953 -0.14356717 -0.08437734 -0.1122486 0.15009306 -0.15571767 0.18800719
0.10990634 0.009965085 0.035292875 -0.0045655533 0.12538676 -0.11325137 -0.1646608 -0.12852956
-0.122715496 -0.106860675 0.13683324 -0.23865253 -0.09096886 -0.04203657 0.10311707 0.15107158
0.059922557 0.022258006 0.036767844 0.081454486 -0.046959776 0.100404516 0.060078215 -0.13643414
0.10714358 -0.0172322 -0.14344312 0.051145602 -0.0839051 0.17714645 -0.012935513 0.08311204
0.073651895 0.010806326 -0.1330302 0.16515398 -0.040027987 -0.2248301 0.03295534 -0.21062525
-0.010044789 0.08557208 0.031608976 -0.12374657 0.0061888313 0.020207396 0.31841686 0.1596623
-0.20595881 -0.10075451 0.033724777 0.21956578 -0.07593059 0.021667128 -0.05331707 -0.022996204
-0.09405364 0.1784086 0.080779724 -0.041904908 0.1304001 -0.098946296 -0.11746256 -0.019670306
-0.21273157 0.042619757 -0.034201033 -0.15654965 -0.047960795 -0.005910063 0.026209451 0.10083025
0.26662323 0.2020893 0.032925766 -0.0603366 0.07842779 -0.0071376194 0.0009383172 -0.12620391
