PythonClient/saved_models/0.5-2024-05-22.pth (torch, 38536 bytes, 3 tensors)

conv1.weight f4 [6, 3, 8, 8]
00000000: 66d9 0cbd 2965 d9bc 5f39 dbbb e371 98bd
00000010: 352d 1dbd 16e3 82bd 5218 bebb 7176 c5bb
00000020: 6625 11bb 74c3 e83a e6f8 3ebc 3f16 083d
00000030: 926b 8b3d 214c 82bb 95e1 81bd 25b1 56bd
00000040: 6894 6e3c 019c 87bd f3bb 1dbc b4c4 b1bc
00000050: 60f7 f5bc 06af 273d e87d 943c 5474 acbc
00000060: ac09 f9bc 1602 a0bd 5980 abbd 041e 233d
00000070: 9b2b 22bc 8ff1 87bd dacd 87bd 22f2 a8bd
00000080: b794 a7bd 92da 133d 5c5c dd3c 0832 f6bc
00000090: 6a17 083d 1681 be3c 9fbd 9dbd 7c8b 213a
000000a0: 4b16 f8bc 7bbd bb3c e276 9b3b f506 3e3d
000000b0: 6939 163d c805 aebd 13eb 86bc e036 63bd
000000c0: 2f1a 2b3d 77be 4abd 06f6 97bd 158f 99bd
000000d0: 8bda 0e3b ec53 e33c 1cbc 81bd f239 373d
000000e0: 8ca2 3dbd 46fb cabd c54c 91bb 426d 8dbd
000000f0: 814d 27bd bb5a 89bd 2766 2bbd ea3e c0bb
00000100: 4786 82bd 6a54 55ba c550 9a3c 2fdf 7ebc
00000110: db8d bcbb 7ccd 533c 4271 103d 82a3 7fbd
00000120: 726a 003d 534d 1bbd d902 8bbd dde4 bbbc
00000130: c5ed d03b 3308 923d d015 f7bc 3714 2dbb
00000140: 9790 243b 6c1c c53b a1ca 7dbc 5348 d2bc
00000150: 4791 7b3d ac07 79bb d84c 843d dfdf a73c
00000160: 94db 8a3c 40b8 a2bd 4ada 423d 7f25 0ebd
00000170: 0b3b 7b3c 15db bf3c 48b2 4fbd 1f04 7abc
00000180: eae8 de3c e551 e73c 4559 a0bc 29d3 483d
00000190: 3b8b 81bd 8566 783b 976b a4bd 8a62 57bd
000001a0: 38e0 4fbc d331 babd 5b39 a5bd 730a 44bc
000001b0: f388 bdbb 4eaf 9bbd d5f2 513c af85 74bd
000001c0: 0be4 5cbd c2e8 d6bc ef92 223c 3eee c9bc
000001d0: 5f41 423d 4a13 ba3c 83fa 6ebd 252f 48bd
000001e0: 606b bebd 33ec 8ebd dd8c 9e3c e533 42bd
000001f0: 1c2e 383c 12e5 44bd 235a 4cbd 206f 6cbd
00000200: 3000 3abd de56 e63c 4656 bc3c 7a98 6e3c
00000210: fa6c 953d cc63 86bd 05bb 073d 8252 ecbb
00000220: 14fe 303d f5a5 413c 3a74 f13c 80db 9f3c
00000230: 51ef 373c a2d2 3fbc d39b 633d 4762 2cbc
00000240: d5a3 d33b 04d5 5c3c d647 50bd bad7 e23c
00000250: d78c 88bc 6bce 6fbd 9baa e0bb b9a0 673d
00000260: 5c9c 5dbd ff3b 97bd d329 f2bc 8cba d3bc
00000270: 59a8 253d e0b3 e0bc 6118 93bd 37f4 853d
00000280: da7e a1bc 9e53 0bbd c4bc 693c d487 10ba
00000290: 6257 3fbd 05fe 6f3d 4486 093b b712 bdbc
000002a0: 3e42 443d 64ad c83c 4ab5 9bbd 0bfb cbbc
000002b0: 525e 1abd c164 77bd 08c0 373d f7c4 293c
000002c0: 6d5f 1d3d 5c43 ca3b 80e9 23bd 7429 f23c
000002d0: 9e63 8cbd 1e9b 3a3d 8d38 793d d722 143d
000002e0: 37e7 8bbd 6105 1b3d 2626 88bd 80f2 96bd
000002f0: 79da a8bd f61b 90bd 691c edbc 7a73 4abd
00000300: 451e 2e3d 242b 8dbd e04f a73c c3bb e6bc
00000310: e92c e8bc 65e0 11bd 0106 c7bc dfbd 383d
00000320: 3ba8 d6bc c78b 353d 8dea 12bc 5ef8 27bd
00000330: 7a0a 4d3d d722 b6bc e202 abbc 28ff e33c
00000340: 2f52 6e3c 0ad7 04bd fad9 513c dfff 1abd
00000350: a651 8fbd 06bf a0bc a408 08bd 3a33 11bd
00000360: 6579 243d 93c5 7bbd 4c7d bbbc 6122 293c
00000370: e99b 893d 4e53 ce3c d661 b6bc bb76 5dbc
00000380: 8629 9b3c 7c98 4dbd d882 b13b 4226 543d
00000390: 6dc7 f83c 11c8 613d c374 513d 7315 40bc
000003a0: 1e02 19bd c723 59bd e6d1 793d 2afe f2bc
000003b0: 2754 87bb af01 873b d19a 5bbd 3172 bc3c
000003c0: 79a6 303d ee46 433d d72b 733c 2cda 18bd
000003d0: 110c 423d 7332 6dbd a3d0 45bd 3971 49bd
000003e0: 9fa2 643d 19f2 40bd 45ce f33b 258e 383c
000003f0: be59 4ebd 8827 0b3d cd68 42bd 87aa c6bc
-0.034387015 -0.026537495 -0.006690189 -0.07443597 -0.03837319 -0.063909695 -0.005801239 -0.006026082
-0.0022147535 0.0017758445 -0.011656022 0.03322434 0.06807627 -0.0039763604 -0.063418545 -0.052415032
0.01456175 -0.06621552 -0.00962733 -0.02170024 -0.030025184 0.0409384 0.018126443 -0.021051563
-0.03040012 -0.07812898 -0.0837409 0.039823547 -0.009898092 -0.066378705 -0.0663106 -0.08249308
-0.08182662 0.036097117 0.02702158 -0.030053154 0.033225454 0.023254912 -0.07702183 0.00061624474
-0.030284068 0.0229175 0.0047443965 0.046393353 0.036675844 -0.084971964 -0.016469514 -0.055472255
0.041773017 -0.049498048 -0.07419972 -0.07497994 0.0021797742 0.027749978 -0.06334707 0.044732995
-0.046297595 -0.09911208 -0.0044342005 -0.06905605 -0.040845398 -0.067067586 -0.041845467 -0.005866875
-0.063732676 -0.0008137884 0.018837342 -0.015556141 -0.005754215 0.012927409 0.03526426 -0.062411793
0.031351514 -0.03791554 -0.067876525 -0.022936279 0.0063760006 0.0713047 -0.030161768 -0.0026409754
0.0025110596 0.006015351 -0.015490205 -0.025669252 0.061417844 -0.0037998958 0.06459969 0.020492492
0.016950406 -0.07945299 0.047571458 -0.034703728 0.015333901 0.023419896 -0.05070713 -0.015259772
0.027210671 0.028237293 -0.019573817 0.049029503 -0.06325384 0.0037902903 -0.08028334 -0.05258421
-0.012687735 -0.090915345 -0.0806758 -0.011965382 -0.005784148 -0.07601796 0.012814243 -0.059697803
-0.053928416 -0.026234034 0.009922727 -0.024649736 0.047425624 0.022714276 -0.058344375 -0.048873086
-0.09297824 -0.06978645 0.019354278 -0.04741277 0.011241462 -0.04807002 -0.04989065 -0.057723165
-0.045410335 0.028117593 0.022990357 0.01456272 0.07296176 -0.065620035 0.03313734 -0.007211984
0.043211058 0.011819352 0.029474366 0.019513845 0.011226491 -0.011707934 0.055568527 -0.010521478
0.0064587393 0.013478521 -0.050849758 0.027690757 -0.01666872 -0.058546465 -0.0068562753 0.05654976
-0.054104194 -0.0738449 -0.029560959 -0.025845788 0.040443752 -0.027429521 -0.07182384 0.06540721
-0.019713808 -0.03401529 0.014266197 -0.0005513404 -0.046714194 0.05859186 0.002098457 -0.023080213
0.047914736 0.024496742 -0.076029375 -0.02489998 -0.037687607 -0.06039882 0.04486087 0.0103619015
0.038421083 0.0061725806 -0.040017605 0.029560782 -0.06854938 0.045558088 0.060844947 0.03616604
-0.0683121 0.037846927 -0.06647901 -0.07370472 -0.08244795 -0.07036583 -0.028944211 -0.049426533
0.042509336 -0.06892994 0.02042383 -0.028165704 -0.028341727 -0.03561439 -0.024294855 0.04510295
-0.026203265 0.044322755 -0.008967054 -0.041008346 0.05005882 -0.02223341 -0.020875398 0.027831629
0.014545961 -0.03243164 0.012808317 -0.037841674 -0.06997995 -0.019622337 -0.033211365 -0.035449244
0.040154833 -0.06146772 -0.022886895 0.010323138 0.067191906 0.025186207 -0.022263449 -0.013517077
0.018940698 -0.05019425 0.005417209 0.051794298 0.030368531 0.05512244 0.051136743 -0.011723864
-0.037355535 -0.053012636 0.06099119 -0.02966221 -0.004129905 0.0041200737 -0.05361444 0.02300367
0.04312751 0.047675066 0.014841995 -0.03731744 0.04737479 -0.05790944 -0.048294675 -0.049180243
0.05581915 -0.047105882 0.0074403607 0.011264359 -0.050378554 0.033973247 -0.047463227 -0.024251236

conv1.bias f4 [6]
00000000: 9c1d 433d 6e3b 87bd ad89 3dbe 3b38 053d
00000010: a610 28be ba05 3fbe
0.04763566 -0.06603132 -0.1850955 0.03252433 -0.16412601 -0.18654528

fc1.weight f4 [1, 7938]
00000000: fa57 59bc 0c47 81bc d18b adbc 994c d4bc
00000010: 8dec 0ebd 7944 0bbd f8c9 6fbc 2921 81bc
00000020: 8d83 663c 7ce1 d53c 54fa e53b 0f52 acba
00000030: 1317 53bb 487d fabb e91e 56bb 7886 383c
00000040: af9b ed3c 1ac5 043d 3078 3a3c 4f66 563c
00000050: 8c80 2a3c 13db 9a3c 80f7 663c 3f55 e6bb
00000060: 34a2 0f3c 933f 1b3c 8d3e b43c 1be2 3c3c
00000070: 1ed4 13bc 7801 3ebb 008d c13c 4c8f 643c
00000080: fe8a f2bb eec6 9438 496f 82bb fff6 1ebd
00000090: 2fc4 36bd 671d 27bd 2dd1 1ebd 01c0 f3bc
000000a0: 320c aebc 4c06 89bc bf87 c3bc c0a9 3dbc
000000b0: 7cc9 9abc 1af9 a2bc d8ac edbb 406d 053b
000000c0: 11c2 2f3c 3cb4 26bc a49e 83bc 0700 80bc
000000d0: 1277 a9bc f179 e3bc 6158 bfbc 3440 ecbc
000000e0: 8fc2 c8bc b894 13bc 831b 6d3c 2221 9a3a
000000f0: e5c7 04bc 2b4b ecbb 8f5d 41bb 23fe 94bb
00000100: bdd8 c53c ca63 0d3d 2a03 cd3c 9230 ca3a
00000110: 5a80 233a 0c4b 2f3c 2c05 9a3c e20d b03c
00000120: 1bde f33b d347 6e3c e0c3 d73b 6b9e a73b
00000130: 4a5c 983c 1897 33bc 9c0b 68bc 21fc 0dbc
00000140: ea7a 0ebc e8ed 80bc 0a94 1ebc 0549 e5bc
00000150: 6280 3dbd 5d21 52bd e8dd 00bd 509e a3bc
00000160: deeb 56bc 8270 3dbc 36df afbc 99da 8cbc
00000170: 3d51 adbc 0825 80bc 8c30 cfbc ca68 0b3c
00000180: 1060 a53b 8156 a33c 6527 b9bc 960e 0cbc
00000190: 7d38 d9bc 3a01 bfbc dc57 e5bc 45d7 26bd
000001a0: 7a0c 99bc 4c7f b6bc 27de 4bbc ac80 963c
000001b0: 4e31 d2ba 5d01 52bc c5f7 3abc 7662 48bc
000001c0: 667e 04bc 3da3 b23c 678c e83c 526a aa3b
000001d0: a7ee 52bb 6422 e8bb 6470 64bc bcf3 193b
000001e0: 1713 903b e739 fc3b 1277 193c 4c2a c13b
000001f0: a7a8 0f3c 962f 483b 70c4 a0bc 3011 b5bc
00000200: 40c5 00bc 31a1 bcbb 00fa 1abd c105 19bd
00000210: 75aa e9bc 1f93 f9bc 40be 2dbd f973 1bbd
00000220: 8bb1 bdbc 6110 333b 8c5a 1b3b e36a 42bc
00000230: b918 2dbc 7c3e 723c 06f3 c6bb 9506 14bc
00000240: 0a29 d2bc 5b80 69ba d4aa 993c a076 13bd
00000250: 7cba a7bc 0453 b4bc 93ad ffbc da4f ddbc
00000260: c7cb fabc 3dde d8bc 4c8e a0bc 4f98 4ebc
00000270: 143d 903c d247 ecbb 4894 07bc cd99 81ba
00000280: e813 39bc bd9d 81ba fbb7 ab3c a53f 103c
00000290: ed91 863c 65bd 6cbc d0e3 9e3b d1fb 19bc
000002a0: 9f40 733b d374 013b 25d6 50b9 195b 563b
000002b0: 1fa1 963c 330d ad3c 0815 9dba 61ec 67bc
000002c0: 2cdb 94bc 4f63 70bc 1964 61bc 7c88 e0bc
000002d0: 21d0 adbc 7b96 7cbc f897 84bc 5699 84bb
000002e0: cc8a 7bbb fe65 f8bb fe73 403c 8c11 b83c
000002f0: dbf2 563b ab9b 113c ef0b c53b a24f cfbb
00000300: 3d8b fbbc af99 d7bc aba4 82bc c2d8 2f3c
00000310: 5f3a debc e957 84bc dd0a 82bc 47c1 23bc
00000320: 7be0 91bc 81a2 fbbc 1b6b e7bc 762b 8dbc
00000330: acdb 42bc fec4 943b 0a1c 9abb acf1 b83b
00000340: 40ff 7a3a 7fcc 99bb cc51 183c f635 403c
00000350: 3e78 a53c 62b7 493c dd19 1dbc b3db e4bc
00000360: c547 2cbc b8f5 2a3b 3497 143c 3b88 163c
00000370: df6e c23c f4f5 c53b 663c 8139 3b7d 183c
00000380: 094e 85bc 1164 c4bc 9333 a7bc f94c a9bc
00000390: cc04 0ebd 94bf 0ebc 2d13 31bc 193e 25bc
000003a0: 77da d1bc 37ee e1bb d284 e23b 1c56 28b8
000003b0: 7c92 193d cca9 f33c fd86 b43c 9170 c53c
000003c0: ee2e 2ebb 572e c6bc b8d3 38bd 2831 b1bc
000003d0: bf1e 043b 50c7 18bd 1987 14bd 9b19 babc
000003e0: 4645 70bc fd49 b6bb 6d54 f5bc 9f71 edbc
000003f0: 1e45 4fbc abc6 c03b 9c74 963a dcf0 68bc
-0.013265604 -0.015780948 -0.021184834 -0.02591543 -0.03489356 -0.034000847 -0.014635555 -0.015762882
0.01406945 0.026108496 0.007018367 -0.0013147014 -0.0032209798 -0.007644329 -0.0032672232 0.011262529
0.0290049 0.032414533 0.011381194 0.013085916 0.0104066245 0.01890329 0.014097095 -0.007029205
0.0087667 0.0094756065 0.022002483 0.011528517 -0.009022741 -0.0028992575 0.023626804 0.01395018
-0.007401823 7.0942435e-05 -0.0039805514 -0.038809773 -0.04462069 -0.040799525 -0.038773704 -0.02975464
-0.02124605 -0.016726635 -0.02386844 -0.011576116 -0.018894903 -0.019894172 -0.0072532706 0.0020359308
0.010727421 -0.010174807 -0.016066857 -0.015625013 -0.02068666 -0.027768107 -0.023357572 -0.028839208
-0.024506835 -0.009007625 0.014471891 0.0011759142 -0.008104299 -0.007211109 -0.0029505228 -0.004546897
0.0241512 0.034518994 0.025025923 0.0015425852 0.00062370824 0.010699045 0.018801294 0.021490995
0.0074422485 0.014543491 0.0065846294 0.0051153204 0.018598694 -0.0109613165 -0.014162924 -0.008666069
-0.008696297 -0.015738443 -0.00967885 -0.02798892 -0.046265014 -0.05130135 -0.031461626 -0.01997295
-0.013117759 -0.0115624685 -0.02146874 -0.01719408 -0.021156901 -0.015642658 -0.025291704 0.00850887
0.005046852 0.01993871 -0.022601793 -0.008548399 -0.026516194 -0.023316015 -0.027995996 -0.04073264
-0.018682707 -0.022277497 -0.012443102 0.018371902 -0.0016036422 -0.012817708 -0.011411612 -0.012230506
-0.008086776 0.021806354 0.028387262 0.0052006627 -0.0032185705 -0.007084178 -0.013942812 0.0023491224
0.004396807 0.007697332 0.0093667675 0.0058949348 0.008768237 0.0030545942 -0.019624919 -0.022102922
-0.007859528 -0.00575652 -0.037836075 -0.037359003 -0.028523663 -0.03046566 -0.042417765 -0.037952397
-0.023155948 0.0027322995 0.0023705093 -0.011866304 -0.010564976 0.014785405 -0.006071451 -0.009034772
-0.025654335 -0.0008907371 0.018758215 -0.0360018 -0.020474665 -0.022012241 -0.031210696 -0.027015615
-0.030614747 -0.026473159 -0.019599102 -0.012609555 0.01760725 -0.00721071 -0.008275099 -0.0009887755
-0.01129625 -0.0009888929 0.020961752 0.008804237 0.016427005 -0.014449452 0.0048489347 -0.009398417
0.0037117375 0.001975347 -0.00019916201 0.0032708107 0.018387375 0.021124458 -0.0011984417 -0.014155478
-0.018170916 -0.0146721145 -0.013756775 -0.02740883 -0.021217408 -0.015416737 -0.016185746 -0.0040465994
-0.003838229 -0.007580518 0.011746405 0.022469305 0.0032798562 0.008887212 0.0060133855 -0.0063266316
-0.030706042 -0.0263184 -0.01594766 0.010732831 -0.027127443 -0.0161552 -0.01587432 -0.009994811
-0.017807236 -0.030717136 -0.028249314 -0.017232638 -0.011893194 0.004540085 -0.0047030495 0.005644044
0.00095747784 -0.0046935673 0.009296846 0.011731615 0.020198938 0.012311788 -0.009588686 -0.027936792
-0.010515158 0.0026086401 0.009069253 0.009187753 0.023734508 0.006041283 0.00024649798 0.009307201
-0.016272562 -0.023973497 -0.020410335 -0.020666586 -0.034672543 -0.008712668 -0.0108077945 -0.010085606
-0.025616867 -0.0068948525 0.006912806 -4.0134517e-05 0.037493214 0.029744051 0.022037024 0.024101527
-0.0026578265 -0.024192018 -0.045123786 -0.021629885 0.0020159928 -0.037299454 -0.03626165 -0.022717288
-0.014664954 -0.0055630193 -0.029947484 -0.028984843 -0.012650756 0.005883058 0.0011478844 -0.014217582
