PythonClient/saved_models/0.5-2024-05-18.pth (torch, 38536 bytes, 3 tensors)

conv1.weight f4 [6, 3, 8, 8]
000000 ac 51 20 bd 62 f6 4c 3d bf 54 7a bc 3c 54 fe bb
       -0.03914039 0.050039656 -0.015278994 -0.0077615064
000010 e2 a7 86 3d 97 cd e2 3c 5b 5b 6f 3d cb 24 01 bd
       0.0657499 0.027685924 0.058436733 -0.03152923
000020 d3 fb 3a bd 35 6a fb bb 35 ab 88 3d 3e bb 45 3d
       -0.045650315 -0.007672573 0.0667328 0.04827427
000030 27 5a 96 3d df e7 41 3d b4 2b 36 bc 6b 1c d9 bc
       0.07341414 0.04734027 -0.011118818 -0.026502809
000040 2c d7 7f bd 60 c0 3c 3b 3f 55 ba b9 63 dd 0d bb
       -0.062461063 0.0028801188 -0.00035540198 -0.002164685
000050 37 51 09 bc 72 bd 92 bc 26 53 5c 3d a2 cf 4d bd
       -0.0083811795 -0.0179126 0.053790234 -0.050246842
000060 d8 48 45 bd 83 6d c9 3c 40 7b cf 3c 21 b1 f6 bb
       -0.048165172 0.024588352 0.025327325 -0.0075284396
000070 70 d1 3c bd 19 78 cd bc b9 2a 50 3c 8a 9a 26 3a
       -0.046098173 -0.025081681 0.012705498 0.00063554256
000080 a0 bb 45 3d cc 9d ad bc 0b e1 2b 3d c8 73 1d 3d
       0.048274636 -0.021193407 0.041962665 0.038440496
000090 c6 8c 1b 3c ca 47 67 bd 30 df 2f bd d9 89 c6 3b
       0.009494012 -0.056464948 -0.042937458 0.006058913
0000a0 94 df 84 3d bc 18 a1 3d df d4 07 3d 43 94 ce bc
       0.06487957 0.07866046 0.033161994 -0.025217181
0000b0 d0 39 7b 3d b6 7c 80 3d 70 8e d4 ba f6 01 66 bd
       0.06133443 0.06273787 -0.0016216766 -0.056154214
0000c0 d0 72 8a 3d 4e 22 cb 3c 06 7b 16 3d b2 3c 78 3d
       0.0676018 0.024796631 0.036738418 0.06060476
0000d0 6f 50 a9 3d c0 52 1c bc fe be a7 3c d2 39 12 3d
       0.082672946 -0.0095412135 0.020476814 0.035699673
0000e0 a7 3d be 3c ff d3 37 bd 67 31 13 3d 7c c3 99 bc
       0.023222758 -0.04487991 0.035935786 -0.018769972
0000f0 0b 16 0d 3d da b4 b1 3c 93 3b 23 3c e1 c6 56 3d
       0.03444485 0.021692682 0.009962934 0.05243576
000100 32 7b 8c bc fc ea 80 3d 7e c8 a9 3b 7a 38 90 3c
       -0.017148588 0.0629482 0.0051813712 0.017605055
000110 88 35 e9 39 78 c9 8d 3d 1a 53 3f bd 5e d8 05 bc
       0.00044481107 0.06923193 -0.04671011 -0.008169262
000120 cb 98 40 bd f0 fa 1e bc 25 3a 5b bd f1 86 03 bd
       -0.047020715 -0.009703383 -0.053522248 -0.032111112
000130 3f 7d c9 3c 7e 87 57 3c 59 45 87 3d 70 7a da bc
       0.024595855 0.013154862 0.06605024 -0.02666971
000140 14 13 00 3d 19 80 b4 3c e4 23 65 bc bb 38 21 3d
       0.031268194 0.022033738 -0.013985608 0.039360743
000150 49 cb 70 3b 11 53 58 3d 86 a7 f1 3c 5c 6e 38 3d
       0.003674226 0.052813593 0.029498827 0.045027122
000160 a1 4c 53 3d f5 bc 3e bd 33 42 a3 bc cb 73 72 3d
       0.05158675 -0.046566922 -0.019929027 0.05919246
000170 56 79 35 3d 2e a1 09 bd 90 2a b6 bc 22 9d 76 3d
       0.044305168 -0.03360098 -0.022237092 0.060208447
000180 2c 1b 8e 3d ad f4 60 bb e2 7b 1a bd 6a d2 09 bd
       0.069387764 -0.0034325526 -0.0377158 -0.033647932
000190 b0 17 58 3d da 02 fb 3c 39 42 a0 bc e1 ed 08 bc
       0.052756965 0.030641008 -0.019562827 -0.008357496
0001a0 10 bc 32 3d 2a fe 3d bd 03 50 a4 3c af 58 82 3d
       0.04363638 -0.046384968 0.020057684 0.06364571
0001b0 9b 2b 7c 3c 5d af b4 3c be 58 22 3d 2e c1 5f bd
       0.015391256 0.022056276 0.039635412 -0.05462759
0001c0 ba c9 04 3c d7 3b 81 bc 2a f1 e8 ba b4 fd ec 3c
       0.008104736 -0.015775604 -0.0017772068 0.028929569
0001d0 ac 94 47 3d a7 06 53 3c f8 a0 9d 3d 03 cd 4e 3d
       0.04872577 0.012880004 0.07696718 0.050488483
0001e0 8c ab 3b bc 48 00 b9 3c b7 37 30 3d e8 b4 a5 3c
       -0.011454474 0.022583142 0.043021884 0.020227864
0001f0 7a 88 83 3d a0 82 58 3d 22 20 90 3c 35 6c 3b bd
       0.06422515 0.05285895 0.017593447 -0.04575749
000200 57 97 6a 3b b2 e6 76 3c 51 53 f5 3c 09 f2 11 3d
       0.0035795772 0.0150696505 0.029946955 0.035631213
000210 27 22 7f bd 61 ee b7 3c a6 e8 e1 bc d0 62 95 3d
       -0.06228843 0.022452535 -0.027576756 0.072942376
000220 c1 a1 75 bd 2e 31 99 3d 95 f8 31 3d ca fd 52 ba
       -0.059968714 0.074800834 0.043449957 -0.0008048682
000230 e7 26 66 bd 96 19 93 bb 26 c2 26 bd dc fb c8 bc
       -0.056189444 -0.004489134 -0.040712498 -0.024534158
000240 a4 20 3e bc e7 71 7e 3b e6 91 40 bc 81 5d 4b bd
       -0.011604462 0.0038825215 -0.011753535 -0.04964972
000250 5f ba b0 bb 82 91 2b bd 18 01 49 3d 72 27 17 bd
       -0.005393311 -0.041886814 0.04907331 -0.036902852
000260 de 06 29 3d 35 1c 72 3d 45 91 7f bd 3e 28 53 3c
       0.041266315 0.05910893 -0.0623944 0.012888012
000270 f1 16 05 3d 56 38 57 bb e6 34 86 bc c4 a4 24 3d
       0.03249258 -0.0032839975 -0.016382646 0.040196195
000280 33 c6 8e 3c 8b ca 2b 3d 3a 02 22 bc 9e a9 42 bc
       0.017428493 0.041941207 -0.009888226 -0.01188126
000290 29 ab cf 3b e7 63 21 bc 89 6f 77 3d 54 da 54 bd
       0.0063375426 -0.009850479 0.060409103 -0.051966026
0002a0 86 b3 40 bd f3 4d 8d 3d 92 b5 14 bd d3 70 13 3d
       -0.047046207 0.06899633 -0.03630597 0.03599627
0002b0 4b 6f 57 3d 99 53 1d bd 7f 98 6e 3d c9 ce 95 3d
       0.05259637 -0.038409803 0.0582509 0.07314832
0002c0 df 51 62 bd 2f da 02 bd bf be a7 3d ef 4c f3 3c
       -0.05525386 -0.031946357 0.08190679 0.02969977
0002d0 f1 37 8e bb fd 73 98 3b 4d bf 32 bd 0a 01 c1 bb
       -0.004340165 0.0046524988 -0.04363947 -0.0058900164
0002e0 b0 79 69 bd a8 0d 92 3d 36 95 1a bd 19 c5 7a 3d
       -0.057000816 0.07131511 -0.037739955 0.061223123
0002f0 b4 de 2b bd db 2d 43 bd 42 6f 1a 3c e0 4e ec bc
       -0.041960433 -0.047651153 0.00942594 -0.028846204
000300 53 62 96 3d a9 58 9d 3d 8f 9b 6e bb e0 f8 be bc
       0.073429726 0.07682926 -0.0036408638 -0.023312032
000310 2e 3d 1a 3d 77 3c 2a 3d 8f 56 0d bd ee 3c 66 bc
       0.037656 0.04156157 -0.034506377 -0.014052613
000320 0a 0f f5 3b dd 8b 4a bc bc a4 68 bd 13 e3 83 3d
       0.0074785994 -0.012362448 -0.056797728 0.06439795
000330 1f 2f 24 3d ac 46 37 bd 97 4a 19 3d fa 38 96 3d
       0.040084 -0.044745132 0.03742465 0.07335086
000340 7e 1e 9b 3d 3b f3 e5 bc 6c 23 39 3d 32 25 7d bd
       0.07574175 -0.028070083 0.045199797 -0.06180305
000350 84 37 16 3d a3 99 66 3d bc 8f 21 3d db ea 15 3c
       0.036674038 0.056298863 0.039443716 0.009150232
000360 03 fe e6 bc b7 b6 72 bc fc 29 98 bb fc 1c 80 3c
       -0.028197294 -0.01481407 -0.004643677 0.01563882
000370 84 db 6a bc b9 ef 5d 3d 76 f2 e4 3c 89 d6 25 3d
       -0.014334563 0.054183695 0.027947646 0.0404878
000380 9a 6a 08 bd dc 05 80 bc 85 74 e6 3c d0 c2 82 bd
       -0.03330479 -0.015627794 0.028131733 -0.06384814
000390 19 74 30 3d fe 73 95 bb d5 f8 90 bc 8a 47 82 3c
       0.04307947 -0.0045609465 -0.017696777 0.015903253
0003a0 6b ac 47 3d 33 c6 4a bd a4 4e 39 3d 2b 93 00 3d
       0.048748415 -0.049505424 0.045241013 0.03139035
0003b0 17 a4 6f bd 77 c3 08 bc 55 82 0a bd 2f 0b 3e 3d
       -0.058506098 -0.008347384 -0.0338157 0.046397384
0003c0 b0 e8 72 bc 5c e1 c5 3c 19 52 a3 bc 33 68 dc 3b
       -0.014825985 0.024155311 -0.019936608 0.0067262887
0003d0 10 8e 59 3d 8f b2 9b 3c 5b e5 5d 3d 59 c3 85 bd
       0.053113997 0.019006042 0.05417381 -0.065314
0003e0 9a 38 83 3d 39 14 93 bc 3d ae 90 3d bf 2b 73 3d
       0.0640728 -0.017953979 0.07064483 0.05936789
0003f0 72 77 64 3c 4c 09 00 bd 35 02 6c bd 09 3c ff bc
       0.013944494 -0.031258866 -0.057619292 -0.031156557

conv1.bias f4 [6]
000000 25 72 02 be c2 e1 93 be 2b 31 30 be 9f 9e 04 be
       -0.12738855 -0.28883177 -0.17206256 -0.12951134
000010 b3 9d 75 be 9b bb 30 be
       -0.23985939 -0.17259066

fc1.weight f4 [1, 7938]
000000 ea 66 0b bc ac ed db bc 96 c1 bf bc 91 e2 e0 bc
       -0.008508423 -0.02684673 -0.023407739 -0.027451785
000010 78 1b 28 bc 87 a8 81 bc b8 00 2f bc d2 d1 42 bc
       -0.010260455 -0.01582743 -0.010681324 -0.011890845
000020 b4 95 cb ba 06 96 f6 39 db 91 68 3c cf fe ef 3c
       -0.0015532286 0.00047032553 0.014194931 0.029296307
000030 4c 9f f7 3c dd 43 87 3b 90 41 fc 3a d6 82 c3 bb
       0.030227326 0.004127963 0.0019245613 -0.0059665246
000040 b9 a1 22 3c 7d 5b 6c 3b a1 9e 10 ba 13 31 0e 3b
       0.009926253 0.0036065273 -0.00055168016 0.002169673
000050 53 fd 29 3c c3 81 37 3c 8a 0f 5f ba 8e 0e c5 3a
       0.010375339 0.011200371 -0.00085090904 0.0015034245
000060 3b f9 8c bb b7 c8 7f bc de 8b dc 3b 3c f0 d5 3b
       -0.0043021715 -0.015611819 0.0067305407 0.0065288823
000070 6d cf d3 3b d4 5c df bb a6 fb 4c 3c fc 28 f5 bb
       0.006463936 -0.006816486 0.01251117 -0.0074816924
000080 2b d8 68 3b e5 ac 95 bc b1 30 a9 39 83 64 af 3b
       0.0035529237 -0.01827092 0.0003227047 0.005352558
000090 d2 fe 52 bc d3 ed af bc 59 b8 69 bb 1e 15 da bb
       -0.012878137 -0.021475708 -0.0035662858 -0.0066553494
0000a0 68 77 b1 bc d1 64 2f bc ad 09 a5 bc 13 d5 09 bd
       -0.021663383 -0.010705189 -0.020146215 -0.03365047
0000b0 5a ee 2d bc 5a f8 c3 bc 33 79 d3 bc 18 d4 64 bc
       -0.0106159095 -0.023922134 -0.025814628 -0.013966583
0000c0 dd 49 97 bc af 4a 23 bb f9 71 8e bc 9c 93 e2 bc
       -0.018467838 -0.002491634 -0.01738833 -0.027658276
0000d0 3a 94 c0 bc b3 66 a2 bc fd bb 94 bc 2e 64 4b bc
       -0.02350818 -0.019824361 -0.018156046 -0.012414021
0000e0 70 21 37 bc b9 18 73 ba 4b dc ee 3b 32 99 88 3c
       -0.011177406 -0.00092733983 0.0072894446 0.016674612
0000f0 a1 5d d5 3c 52 df c6 3c 8f c4 71 3c 1d ba a0 3b
       0.026045622 0.02427641 0.014756336 0.004904999
000100 f3 49 60 3c b8 4f be bb c9 3f f7 bb af 94 83 3b
       0.013689506 -0.005807843 -0.0075454456 0.004015527
000110 1b 24 84 3b 21 3f 7b ba 60 fc ba bb 51 c0 07 3b
       0.0040326244 -0.0009584297 -0.005706355 0.0020713995
000120 b1 9b 39 ba b4 f0 2a bc 06 77 5a bb 51 54 8c bb
       -0.000708039 -0.010433365 -0.0033335104 -0.0042825122
000130 c8 4a 20 3b a9 0d 44 bc e8 8e 6a ba ba 6a 3c bc
       0.0024458636 -0.011966147 -0.00089476863 -0.011500055
000140 d1 ac ab bc 92 89 19 bc d3 45 24 bc ec ff d2 3b
       -0.020956429 -0.009371178 -0.010026413 0.0064391997
000150 71 e4 f1 3a 97 ac d4 bb 81 e5 f4 bc d6 f8 a1 bc
       0.0018454922 -0.006490301 -0.029894592 -0.019771975
000160 06 f4 c7 bc a2 af b7 bc e0 dc b9 bc 90 3a 79 bc
       -0.024408352 -0.022422615 -0.02268833 -0.015211716
000170 b8 24 c4 bc 96 82 03 bd 85 7a 00 bc 3a c0 ed bb
       -0.02394329 -0.03210696 -0.007841711 -0.007255581
000180 fa 41 e1 bc 5f 69 fb bb 88 88 9c bc e3 8d 5a bc
       -0.02749728 -0.0076724733 -0.019108072 -0.0133394925
000190 ee 3a 40 bc 13 9b 0c bc 51 b4 61 bc ca 95 67 3b
       -0.0117328 -0.008581894 -0.013775901 0.0035337084
0001a0 18 6a 80 bc 9e 75 9d 3a d5 15 41 bb d9 e9 e6 3a
       -0.01567559 0.0012013202 -0.0029462476 0.00176173
0001b0 0b 4a 8b 3c c5 f7 a7 3c 8c f3 13 3d 04 1b dc 3c
       0.01700308 0.020503888 0.036120936 0.02686835
0001c0 c7 5c a6 3c 2d e9 0b bb df 69 70 3b 46 1b 3a 3c
       0.020307912 -0.00213487 0.0036684198 0.011359042
0001d0 db 98 38 3c fe c9 f6 3b fe 66 d2 ba ad 5e a7 bb
       0.011266912 0.0075314036 -0.0016052423 -0.005107722
0001e0 2e bf 32 bc d0 db ee bb 2d 0d c6 ba 8e 20 7c 3a
       -0.010909839 -0.0072893873 -0.0015110128 0.0009617888
0001f0 27 f8 23 bc 3d e9 d0 3a 66 f3 5e ba c5 93 d6 bb
       -0.010007895 0.0015938651 -0.0008504897 -0.006548377
000200 b0 86 38 bc bf 02 a7 bc 20 63 e9 bb 87 64 fb b9
       -0.011262581 -0.020387052 -0.0071224123 -0.0004794935
000210 94 52 0a bc db 86 b5 bb 25 c9 da bb 5f 2a e6 bc
       -0.00844254 -0.0055397577 -0.0066768103 -0.028096376
000220 7c 20 8a bb c4 cc 6d bc 6f 47 c7 bc f3 79 03 bc
       -0.004215298 -0.014514152 -0.024326054 -0.00802468
000230 29 d0 bb bc 15 12 bf bc e1 90 8b bc 40 86 89 bb
       -0.022926407 -0.023324052 -0.017036857 -0.004196912
000240 b7 82 b7 bb 68 63 9d bc c5 b9 3c bc 42 c4 62 bc
       -0.005600299 -0.01921244 -0.0115189 -0.013840737
000250 96 1f 71 bc a6 6a 79 bc 91 22 c0 bc 0e 85 80 bc
       -0.014717003 -0.015223181 -0.023453983 -0.015688445
000260 55 ee 9c 3b bb 97 8e bc 36 d0 00 3b 18 c9 27 3a
       0.0047891536 -0.017406335 0.0019655353 0.000640051
000270 1c 23 cb bb 08 6c 5c 3c d0 cc 61 3c ac 27 89 3c
       -0.0061992537 0.013453491 0.013781741 0.01674255
000280 ec 4d cd 3c dd f0 41 3c cd 40 81 3b 26 be 4e 3c
       0.02506157 0.011837211 0.0039444924 0.012618577
000290 9a 7b a6 3c 28 f4 b2 3b 8a e6 8c 3c ba bf 68 3c
       0.02032261 0.0054612346 0.017199773 0.014205867
0002a0 71 a1 4f 3b e1 69 24 3c 80 e7 16 3c f5 eb 10 bb
       0.003168192 0.010035009 0.009210467 -0.0022113298
0002b0 09 28 79 bb e1 9c e8 bc 13 f1 30 bc 5d be 48 bc
       -0.0038018248 -0.028395118 -0.010799664 -0.012252417
0002c0 68 ea 8c ba 44 69 b8 bc e4 19 b8 bc b5 26 53 bc
       -0.0010751011 -0.022511132 -0.022473283 -0.012887646
0002d0 ae e0 d0 bc 14 13 98 bc 1f e3 3d 3a b3 5b 26 bc
       -0.02549776 -0.018563785 0.00072436215 -0.010153699
0002e0 dc 71 c6 bc 5c eb 58 bc fa 3b 92 bc 64 2f b6 bc
       -0.024224214 -0.013239708 -0.017850865 -0.022239394
0002f0 54 03 a8 bc 58 21 4d bc 8b aa 99 bc 2e eb cc bc
       -0.0205094 -0.012520157 -0.018758079 -0.025014486
000300 24 fc ba bb 4a 50 7f bc 6a db a3 bc a4 4e 0b bc
       -0.005706327 -0.015583107 -0.020002086 -0.008502636
000310 b9 3f 90 bb f4 f9 9c bc f2 e8 9c bc ba 18 14 bb
       -0.0044021276 -0.019162156 -0.019154046 -0.0022597746
000320 16 a5 2e bc 6b f2 70 bb e5 e5 90 bc df d0 19 bc
       -0.010659477 -0.0036765586 -0.017687747 -0.009388178
000330 29 b2 98 bc 83 1a e5 3b 18 b7 24 3c 15 bc ba 3c
       -0.01863964 0.006991686 0.010053419 0.022794763
000340 8a 70 a9 3c b7 60 eb 3c d0 cf ac 3c cd d2 93 3c
       0.020683546 0.02873264 0.021095186 0.018044854
000350 23 a2 41 3c ce bc 6e ba f3 cf 5b 3c 93 5e 30 3c
       0.011818442 -0.00091071136 0.013416278 0.010764736
000360 b9 9c 07 3c 04 fc 3a ba 06 6f ff 3b 94 d1 04 3c
       0.008277112 -0.000713289 0.0077952174 0.008106608
000370 25 96 80 3b 99 45 44 bb be 30 a8 bb 8e 4a ac bb
       0.0039241486 -0.002994871 -0.0051327636 -0.005257911
000380 7c 60 28 bc 50 51 01 bb d5 34 93 3b 57 03 cf bb
       -0.01027691 -0.0019732304 0.004492382 -0.006317537
000390 2c 3b 0c bc 4d 66 cd bc bf 63 92 bc 83 ba 64 b9
       -0.00855903 -0.025073195 -0.017869828 -0.00021813255
0003a0 78 b9 87 bb aa 2d b0 ba 13 ba 8e 3b da 4b f0 bb
       -0.0041419826 -0.0013441343 0.004355678 -0.007333261
0003b0 d3 51 77 3b 1d 8e ee bb 74 b9 01 39 df 06 ad bc
       0.003773798 -0.007280125 0.00012371485 -0.02112144
0003c0 98 4d f8 ba 47 5b 9d bc ad 0f 99 bc 2e 21 e6 bc
       -0.0018944023 -0.019208563 -0.018684233 -0.028091993
0003d0 f2 9a f1 bb 61 3e 93 3a cc 2f 81 bb e4 f7 17 bc
       -0.0073732072 0.00112338 -0.0039424654 -0.00927541
0003e0 f7 eb cb bb 10 9b ba bb 9c 09 d1 39 55 a8 77 3b
       -0.0062231976 -0.0056947544 0.00039870746 0.0037789543
0003f0 e9 be 71 bb fc 73 a7 bc cf 83 41 3c e8 e4 3c 3c
       -0.0036887473 -0.020441048 0.011811211 0.011529185
