PythonClient/saved_models/0.75-2024-05-16.pth (torch, 38544 bytes, 3 tensors)

conv1.weight f4 [6, 3, 8, 8]
0	0xbd597bf4	-0.053096727
1	0x3c148635	0.009065201
2	0xbd5a5fe8	-0.05331412
3	0xbcd2d265	-0.02573509
4	0xbd887c61	-0.066643484
5	0xbbf79c6a	-0.007556488
6	0xbcf59512	-0.029978309
7	0x3d47b870	0.048759878
8	0x3d216516	0.039403044
9	0x3c8b89d2	0.017033491
10	0x3d77dda4	0.060514107
11	0xbb88ff8f	-0.0041808556
12	0x3d6f6582	0.058446415
13	0xbd4d8c55	-0.05018266
14	0x3bf2b80f	0.0074071954
15	0x3ae7654f	0.0017654094
16	0xbc4b16b2	-0.012395548
17	0x3d80cadf	0.062886946
18	0x3d0f7008	0.03501895
19	0x3c77f1c9	0.01513333
20	0x3d6ea87e	0.058266155
21	0xbcfd558a	-0.030924577
22	0x3c2c4fc4	0.0105170645
23	0xbd187d83	-0.037229072
24	0xbcd7afae	-0.026328888
25	0x3d51efa7	0.05125394
26	0x3b028e0d	0.0019921095
27	0x3a7509a7	0.00093474466
28	0xbd86f791	-0.06590188
29	0x3d0ba1f3	0.034089994
30	0xbcaa4700	-0.020785809
31	0xbc93b06b	-0.018028459
32	0x3d571f70	0.052520216
33	0x3d8411d1	0.06448711
34	0xbd01db0e	-0.031703047
35	0x3b247214	0.002509241
36	0xbc615cba	-0.013755018
37	0xbd452416	-0.048130117
38	0xbd091308	-0.033465415
39	0xbbb97215	-0.0056593516
40	0x3d33bf60	0.04388368
41	0xbce3b391	-0.027795585
42	0xbd83cdf4	-0.06435767
43	0x3ca5e099	0.020248698
44	0x3d659526	0.056050442
45	0xbd57bad1	-0.052668396
46	0x3d69b6c8	0.05705908
47	0x3d3ccb4d	0.04609232
48	0xbd1ae3fd	-0.037815083
49	0x3cd52b55	0.026021639
50	0xbd605ece	-0.054777913
51	0xbcd9850f	-0.026552705
52	0x3cf3820c	0.029725097
53	0x3cc11fc8	0.023574725
54	0xbce3bd38	-0.027800187
55	0x3cf7e772	0.030261729
56	0xbcb73973	-0.022366261
57	0xbc371016	-0.011173269
58	0xbca4a9d2	-0.020100508
59	0x3bf01cd0	0.0073276535
60	0xbd810904	-0.06300548
61	0xbd88acf6	-0.06673615
62	0x3d20f45c	0.03929554
63	0xbd49472d	-0.049140144
64	0xbd79c7ca	-0.06098155
65	0x3c191627	0.00934366
66	0xbd0a0ba9	-0.033702526
67	0x3cd97eb8	0.026549682
68	0x3d076f3a	0.03306506
69	0xbc94b446	-0.018152367
70	0xbdad6eb5	-0.08468381
71	0xbc6d5b38	-0.01448708
72	0xbcf1baec	-0.029508077
73	0x3cb24118	0.021759555
74	0xbd4a97fc	-0.04946135
75	0xbbedffee	-0.007263175
76	0x3b73bcff	0.0037191508
77	0xbd5eeeea	-0.054427065
78	0x3ceafdc0	0.02868545
79	0x3b45cdad	0.0030182407
80	0x3d4e1271	0.050310556
81	0xbd3fbdd3	-0.04681189
82	0xbbbb8b03	-0.0057233586
83	0xbd3889b6	-0.045053206
84	0xbc8b3059	-0.016990827
85	0xbd1daa05	-0.03849222
86	0x3caa6498	0.02079992
87	0xbd644a76	-0.055735074
88	0xbb87cbd6	-0.004144172
89	0x3d3d134d	0.046160985
90	0xbd104af0	-0.035227716
91	0xbced3a17	-0.028958363
92	0x3d2e370a	0.042532958
93	0x3cd0ea2d	0.025502289
94	0x3bff2234	0.0077860598
95	0xbd8539f2	-0.06505193
96	0xbd8046db	-0.062635146
97	0x3c7f8d84	0.015597705
98	0xbd193a20	-0.037408948
99	0x3c4a93ca	0.012364337
100	0xbd94251b	-0.0723364
101	0xbcb080e3	-0.021545833
102	0xbc935866	-0.017986488
103	0x3c2bec46	0.010493344
104	0xbc3687aa	-0.011140743
105	0xbd62f542	-0.055409677
106	0xbd5b766f	-0.053579744
107	0x3d74d5e0	0.05977428
108	0x3c3b3aee	0.011427624
109	0x3d5b3f06	0.0535269
110	0xbd564c23	-0.052318703
111	0xbd5e5fd4	-0.054290608
112	0xbcf04b7e	-0.029332872
113	0xbcc28110	-0.023743182
114	0x3c79de14	0.015250701
115	0xbcb11f84	-0.021621473
116	0x3bbf0035	0.005828882
117	0x3d5046d3	0.050848793
118	0x3d08b5f7	0.03337666
119	0x3bbcd278	0.0057623945
120	0xbcc1d073	-0.023658967
121	0x3d403dac	0.046933815
122	0x3bf3e303	0.0074428334
123	0xbcb140f9	-0.021637427
124	0x3d7079f2	0.058710046
125	0xbd9cc6f4	-0.07655135
126	0xbcb58116	-0.02215628
127	0x3ccd8bd2	0.025091086
128	0xbc0df24c	-0.008663725
129	0x3ce3861e	0.027773913
130	0x3c36475e	0.011125414
131	0xbd671a40	-0.05642152
132	0xbb5cb6ba	-0.003367825
133	0xbda33b0a	-0.07970245
134	0x3cc1d9df	0.02366346
135	0xbd289cbd	-0.041165102
136	0x3ca7df07	0.02049209
137	0xbd87cc28	-0.066307366
138	0x3bd41368	0.00647204
139	0xbd88c0d8	-0.06677407
140	0x3c87f5da	0.016596723
141	0xbd5c519f	-0.053788777
142	0xbb226ce4	-0.0024784142
143	0xbd9897d0	-0.07450831
144	0x3c736b48	0.014857121
145	0xbd532583	-0.051549446
146	0xbd8536c4	-0.06504586
147	0xbc86a9db	-0.016438415
148	0x3d49ec3b	0.049297553
149	0xbd57a6d9	-0.052649353
150	0xbc4cfeeb	-0.012511949
151	0x3d3d96e3	0.046286475
152	0x3d6fa199	0.05850372
153	0xbc27e019	-0.0102463
154	0x3d1f4560	0.03888452
155	0x3d0ca3f4	0.034336045
156	0xbd951c57	-0.07280796
157	0x3cf2c5a3	0.029635256
158	0x3bf406e4	0.0074471105
159	0xbc7e76b6	-0.015531233
160	0x3cba0628	0.022708014
161	0xbd834faf	-0.06411683
162	0xbbaa1393	-0.0051903217
163	0xbd19cbb4	-0.037547782
164	0x3d3e2d54	0.046429947
165	0xbd0fb4a6	-0.03508439
166	0x3cf28264	0.02960319
167	0x3cdc01a3	0.02685625
168	0x3d62e10f	0.055390414
169	0xbd601ec6	-0.054716848
170	0xbab304f2	-0.001365809
171	0xbd207715	-0.039176065
172	0xbc1bba1b	-0.00950482
173	0x3b4996b2	0.0030759987
174	0xbd8ff3e7	-0.070289426
175	0xbc48deba	-0.012260133
176	0xbc63dd78	-0.013907783
177	0xbd832ca5	-0.06405
178	0x3c6e5515	0.014546652
179	0xbd25f953	-0.040520977
180	0x3d45c702	0.04828549
181	0x3d850fca	0.06497152
182	0x3d7bde21	0.061491136
183	0x3cbfd8bc	0.023418777
184	0xbb7a9165	-0.0038233635
185	0xbd19bdd8	-0.037534565
186	0x3d82d55c	0.06388351
187	0x3d71a521	0.05899537
188	0xbc4c06f5	-0.012452831
189	0x3d53833a	0.05163882
190	0xbb28f4e3	-0.002578073
191	0x3d694a39	0.05695555
192	0xbcd6779d	-0.026180083
193	0x3d645bc0	0.055751562
194	0x3d9cda7b	0.07658859
195	0xbd1e022d	-0.038576294
196	0x3c362f63	0.011119696
197	0xbce9bc71	-0.028532239
198	0x3d10f884	0.035393253
199	0xbc9f91be	-0.019478675
200	0x3d1118ae	0.035423927
201	0xbd482d01	-0.048871044
202	0x3c79ab99	0.015238666
203	0x3d42876c	0.04749243
204	0x3c2a6f99	0.0104025835
205	0x3d944d25	0.07241277
206	0x3d510f76	0.051040135
207	0xbd37ec6a	-0.044903196
208	0x3cd7eff4	0.026359536
209	0x3d483eaf	0.048887905
210	0xbcbed709	-0.023295896
211	0x3ca3c33a	0.019990552
212	0x3da638c0	0.08116293
213	0xbb2c498e	-0.002628896
214	0xbd150784	-0.03638412
215	0xbd093165	-0.033494372
216	0x3cb29e67	0.021804048
217	0x3d6110ab	0.054947536
218	0x3d6d5338	0.05794069
219	0xbca55e1d	-0.020186478
220	0xbb25b9d9	-0.0025287776
221	0x3d561aa1	0.05227149
222	0x3d587ae7	0.052851584
223	0x3c4a4b5e	0.0123470705
224	0xbd2a4b88	-0.04157594
225	0x3d954fca	0.07290609
226	0xbc0634a6	-0.008191263
227	0xbc97e2fd	-0.018540854
228	0xbc6ad325	-0.014332567
229	0xbbe99474	-0.0071282927
230	0x3c912847	0.017719401
231	0xbc4f04a1	-0.012635381
232	0xbc8ce41d	-0.017198617
233	0xbd1ce5c0	-0.038305044
234	0x3cdb8e94	0.026801385
235	0x3c42e5b2	0.011895584
236	0x3b6890b6	0.0035486645
237	0xbbe5674d	-0.00700084
238	0x3d099050	0.033584893
239	0x3c9614e4	0.018320508
240	0xbc437ed2	-0.011932092
241	0x3d6c6175	0.05771013
242	0x3c991e02	0.018691067
243	0xbd36702c	-0.04454057
244	0x3da41bfd	0.08013151
245	0xbcd403cd	-0.025880719
246	0xbc80d1f8	-0.01572512
247	0xbc9f9055	-0.019478003
248	0x3d60ee82	0.05491496
249	0xbb577742	-0.003287748
250	0x3d68cbf0	0.056835115
251	0xbcbf35b1	-0.023341032
252	0x3d7ee871	0.062233392
253	0x3db2e095	0.08734242
254	0x3bc9aaa1	0.0061543738
255	0x3d130203	0.03589059

conv1.bias f4 [6]
0	0xbd73b3f2	-0.05949778
1	0x3cd8a573	0.02644608
2	0x3d2d3e6e	0.042295866
3	0xbd1f25a7	-0.038854267
4	0xbe037093	-0.12835912
5	0x3ca2ad50	0.019858032

fc1.weight f4 [1, 7938]
0	0xbc0bbd62	-0.008529039
1	0x3b8f303a	0.0043697627
2	0x3be6165b	0.007021708
3	0xbb418fea	-0.0029535242
4	0x3ae51ed9	0.0017480507
5	0x3b774804	0.0037732134
6	0xbc2adaaa	-0.01042811
7	0xbb52f945	-0.0032192033
8	0xbbcb59ce	-0.006205774
9	0x3b9e3924	0.004828589
10	0xbba9f9d2	-0.0051872516
11	0xbc112ea7	-0.00886122
12	0x3acaeca9	0.0015481907
13	0x39e9ee9b	0.00044618998
14	0xbaa9e5ad	-0.0012962125
15	0xbb718fb9	-0.0036859347
16	0x3bfaea82	0.00765735
17	0xbc2966e5	-0.010339473
18	0xbbaf45b6	-0.0053488864
19	0x3bb6089f	0.005555227
20	0x3c6d1ada	0.014471734
21	0x3c5eca79	0.013598078
22	0x3b09330d	0.002093497
23	0x3c2fff75	0.010742058
24	0x3c80b960	0.015713394
25	0x3be3b8f2	0.0069495374
26	0xb9e93650	-0.0004448169
27	0xbb8d866f	-0.0043190042
28	0x3c13b357	0.009014926
29	0x3bf86e9c	0.007581545
30	0xbbcea910	-0.006306775
31	0xbaed97e7	-0.0018126935
32	0x3ba29715	0.004961858
33	0x3c10fbb4	0.008849073
34	0xbbf2c34b	-0.0074085346
35	0xbc5af6d9	-0.013364517
36	0xbb2bd190	-0.0026217438
37	0xbbe89324	-0.0070976187
38	0xbc25bb76	-0.010115495
39	0xbbfaf0a4	-0.007658081
40	0x3bb27f80	0.005447328
41	0xbc718ed4	-0.014743526
42	0xbc92c50e	-0.017916229
43	0xbc7f6bf0	-0.015589699
44	0x3a494dfb	0.00076791615
45	0xbc76f7b8	-0.015073709
46	0xbb0898de	-0.002084307
47	0xbc4d3a2d	-0.012526077
48	0xbbeb036f	-0.00717204
49	0xbb2cba9f	-0.0026356352
50	0x3a2e9835	0.0006660254
51	0x3bc3876d	0.0059670717
52	0xbc2ebee8	-0.010665633
53	0x3bc3dd78	0.005977329
54	0xbc337494	-0.010953087
55	0x3be411f9	0.0069601503
56	0xbc1367de	-0.008996932
57	0xbc0cc583	-0.008592012
58	0xbbec613c	-0.0072137397
59	0x3a087b61	0.0005206373
60	0xbbdd93c3	-0.0067619993
61	0xba6d2f60	-0.0009047892
62	0x3bcf1c12	0.006320485
63	0xbc32ee5f	-0.01092109
64	0xbc48b149	-0.012249299
65	0xbc67db93	-0.014151472
66	0x393ef4c6	0.00018210997
67	0xbc04bba2	-0.008101376
68	0x3beb7375	0.0071853944
69	0xbb2b9291	-0.002617989
70	0x3b9a0d4a	0.004701291
71	0x3c78abf2	0.015177714
72	0x3b04d531	0.0020268674
73	0xbb8ee64b	-0.004360949
74	0xbb2fa034	-0.002679837
75	0xbc12b345	-0.008953874
76	0x3bf1ff0a	0.0073851394
77	0xbbeafed0	-0.0071714893
78	0x3bc4365a	0.0059879245
79	0x3bc5ba8a	0.0060342
80	0x3a906948	0.0011017704
81	0x3b821ae9	0.003970493
82	0xbc0d4605	-0.008622651
83	0xbc4b193a	-0.012396151
84	0xbb534ee6	-0.0032243072
85	0xbc145e28	-0.009055652
86	0xbaea074a	-0.0017854956
87	0xbc11a910	-0.008890405
88	0xbaf812e6	-0.0018926531
89	0xbc1f865f	-0.009736626
90	0xbc913df2	-0.017729733
91	0xbbe931d6	-0.0071165366
92	0xbbce5bab	-0.006297549
93	0xbcafdeca	-0.021468539
94	0xbc93d507	-0.018045915
95	0xbc6aa4cc	-0.014321517
96	0xbb03b89d	-0.0020099052
97	0x3a5ed3af	0.0008500171
98	0xbc945d05	-0.018110761
99	0xbc6200fc	-0.01379418
100	0xbbbb30a3	-0.005712585
101	0xbc8e40ec	-0.017364942
102	0x3b31c309	0.0027124307
103	0x3b7f7626	0.0038980334
104	0x3b818c3a	0.003953484
105	0xbc73ae9b	-0.014873172
106	0xbc85a4a1	-0.016313853
107	0xb95884dc	-0.00020648859
108	0xbbeb75ac	-0.0071856584
109	0xbc2968fa	-0.01033997
110	0x3b9099d5	0.0044128695
111	0xbbb8255e	-0.005619689
112	0xbc098b72	-0.008395063
113	0xbc03c89b	-0.008043434
114	0xbb8be010	-0.0042686537
115	0x3c15125b	0.009098615
116	0xbc263d61	-0.01014647
117	0xbb9d44fd	-0.004799484
118	0x3c347a64	0.011015508
119	0x3c13fd9c	0.009032633
120	0x3c89a5be	0.016802665
121	0x3c9254a3	0.017862624
122	0x3bf45d50	0.007457413
123	0xbbb2d3fc	-0.0054573994
124	0x3c52cfd9	0.012866938
125	0x3bca856a	0.006180455
126	0xbabacce1	-0.0014251733
127	0xbc1008fd	-0.0087912055
128	0xbc0d23bc	-0.008614477
129	0xbbb8f634	-0.005644584
130	0xbc08792e	-0.008329673
131	0x3a8a0e55	0.0010532836
132	0x3c13e002	0.009025576
133	0x3bcac6bb	0.0061882413
134	0xbc30a0d8	-0.010780536
135	0x3b795991	0.003804777
136	0x39798be3	0.00023798602
137	0xbc223266	-0.009899711
138	0xbca55a21	-0.020184578
139	0x3b631501	0.003464997
140	0xbc1b6eab	-0.0094868345
141	0xbb808f26	-0.0039233146
142	0xbc1ce727	-0.009576595
143	0xbc50d555	-0.012746175
144	0xbbfd4d13	-0.007730135
145	0xbc4e8fe8	-0.012607552
146	0xbc4b9d37	-0.01242762
147	0xbc11f3b7	-0.008908204
148	0xbc6dcf4b	-0.0145147545
149	0xbc36d059	-0.011158072
150	0xbb4021f8	-0.0029317122
151	0x3b7571cb	0.003745186
152	0xbb14e4cb	-0.002271938
153	0xbc5dbdaa	-0.013533989
154	0xbc14fe6e	-0.009093864
155	0xbc54c2e4	-0.012985919
156	0x3ba883cf	0.005142666
157	0xbc07fe68	-0.008300401
158	0x3aee40e4	0.0018177298
159	0x3beda06e	0.0072517907
160	0x3abaf835	0.0014264645
161	0xbc0dbd88	-0.008651145
162	0xbc11242f	-0.0088587245
163	0xb9ea6237	-0.00044705134
164	0xbb27eac6	-0.0025622114
165	0xbb397ed9	-0.0028304367
166	0x3c02220c	0.007942688
167	0xbb2fcb9c	-0.0026824242
168	0xbb8f3f1d	-0.0043715374
169	0x3c5f859b	0.013642694
170	0x3c2c8705	0.010530238
171	0x3b94c282	0.0045397887
172	0xb9ae4456	-0.0003323878
173	0xbb654139	-0.0034981503
174	0xbb270346	-0.002548413
175	0xbb932c18	-0.0044913404
176	0x3b5c68dc	0.0033631837
177	0x3ba1cd1c	0.004937781
178	0xbbc8e37e	-0.006130635
179	0x3beb8afe	0.0071882
180	0xbc07c4bc	-0.008286651
181	0xbbd87bda	-0.006606561
182	0xbbf6c92b	-0.0075313053
183	0xbbddb6b7	-0.006766166
184	0xbc7ddba1	-0.015494258
185	0xba087311	-0.00052051345
186	0xbc415413	-0.01179983
187	0xbc65b330	-0.014019772
188	0x3994456a	0.00028280477
189	0xbaa0b357	-0.0012260479
190	0xbc30ea80	-0.010798097
191	0xbc11da57	-0.008902154
192	0x3aa8f487	0.0012890258
193	0x3bf0442e	0.0073323464
194	0xbbeb8a3e	-0.0071881106
195	0x3bb7179a	0.0055875303
196	0xbb1bb0f0	-0.0023756586
197	0xbae480b8	-0.0017433381
198	0xbabf56ba	-0.001459799
199	0x3b06bbd0	0.0020558722
200	0x3ba9df09	0.0051840586
201	0xbc04d946	-0.008108443
202	0x3b7f2972	0.0038934615
203	0xbc57fb86	-0.013182526
204	0xbc27d9c2	-0.010244789
205	0x3b455da4	0.0030115629
206	0xb7d5e176	-2.5496567e-05
207	0xbc552016	-0.013008138
208	0xbc248bb8	-0.010043077
209	0x3be6c499	0.0070424792
210	0x3a4b604d	0.00077581854
211	0xbb9afc2e	-0.004729769
212	0xbc22e758	-0.009942852
213	0x3ac97cd1	0.0015372281
214	0x3c19381a	0.009351755
215	0xbbf63971	-0.007514172
216	0xbb39c806	-0.0028347983
217	0x3bcb272b	0.0061997375
218	0xbb908bc8	-0.0044111945
219	0x3c57c9cd	0.013170672
220	0x3c245952	0.010031061
221	0x3c4c4d27	0.012469566
222	0x3b8c3bdb	0.0042795963
223	0xbb931135	-0.004488135
224	0x3bc6f9ca	0.0060722576
225	0x3c550555	0.01300176
226	0x3b969d4c	0.004596388
227	0xbb45098a	-0.00300655
228	0x3c39117b	0.011295672
229	0x3c106e20	0.008815318
230	0xbc2307fd	-0.009950635
231	0x3b373ede	0.0027961056
232	0xba46eda4	-0.0007588512
233	0x39eaa22a	0.0004475278
234	0xbb631760	-0.0034651384
235	0xbc9aafc8	-0.018882647
236	0xbc828580	-0.015932798
237	0x3a651765	0.0008739143
238	0xbc4fe56e	-0.012688978
239	0xbc37a3c7	-0.011208481
240	0xbc8e41c0	-0.017365336
241	0xbb46bc2f	-0.0030324569
242	0xbc27dbc6	-0.010245269
243	0x3a9a8baf	0.0011790897
244	0x3c1b5442	0.009480538
245	0xbb800abb	-0.003907529
246	0x3bff2f75	0.0077876397
247	0xbb392213	-0.002824907
248	0xbaa4a1f6	-0.0012560475
249	0xbc1acd2b	-0.00944833
250	0xbc2d421b	-0.010574843
251	0x3b72d839	0.0037055148
252	0xbc230775	-0.009950508
253	0xb9dba8c7	-0.00041896684
254	0x3add34e4	0.0016876725
255	0xb6311669	-2.63881e-06
