PythonClient/saved_models/0.75-2024-05-22.pth (torch, 38544 bytes, 3 tensors)

conv1.weight f4 [6, 3, 8, 8]
00000000: 444e 213d 09dc a93b 297b 703d 2b51 973d
00000010: c0eb ccbc c753 23bc 4fb4 ad3d 06d9 1539
00000020: 2eb1 e33c 1a20 893d 5ffb 2abc 9e4a e4bc
00000030: c3b5 473d 450f df3c 56b8 c6ba d561 e13c
00000040: 6bdc e5ba d010 e9bc 7f90 8a3d 4f01 063d
00000050: 4a50 983d cc02 853d aab2 5e3b 1de2 923d
00000060: a2c8 023d dfef 02bd 7f04 44bd 2450 20bd
00000070: 52ad fcbc abb4 aa3c c5bc 29bd d40f 083d
00000080: 5b35 c13c 0891 50bd 3d7c 51bd 6d7e 4e3d
00000090: 5f2c 4abd f3d7 803d 19fc 03bd d86f f93c
000000a0: 35c8 353d e792 f73c afe0 48bc b42d 64bc
000000b0: eb02 dbbc cefd bebb 8f1e b3bc b455 6e3b
000000c0: 4b42 bcbc dd94 3cbd b447 073d ac3f c8bb
000000d0: 16d0 193d 3dea 8cbd e51d 943c 1b1d ec3c
000000e0: d1e2 7cbd c35b 593d b37a 6cbd 575e 9cbd
000000f0: 4c87 7cbd ff26 a33a 38f9 abbd d57b 7f3b
00000100: 4b54 a43d 1b41 2f3d 9414 3b3c 66dc 14bd
00000110: de51 b1bc 0ed7 3cbd 77a9 0cbd 3f4d 69bd
00000120: ffd2 34bd 66f6 47bd ac7a 4b3d fcae 6dbd
00000130: 0ef6 5abd 73ee 46ba f47f 9f3d 2f07 583d
00000140: 29f0 9c3d 70a6 863d bd07 9d3d c25f 02bd
00000150: e02e 283d 359c bdbc 3b90 963d e5f2 42bd
00000160: 547f a7bc dba2 783d 2300 03bd 489d 613d
00000170: 0e6d 273d a0a7 743d c614 993c 93ad 4f3d
00000180: 2d44 16bd 7e94 6f3c 4738 6c3c 75c2 2abd
00000190: 4987 5fbd 6b95 f43c b2f8 9c3c 2a24 523d
000001a0: d3c5 18bd 2846 7dbd 9211 703d 2e86 053d
000001b0: 7336 43bd c6d7 cb3c f456 3abd 8638 143d
000001c0: da47 93bc 2f89 74bc ebe5 32bd 7098 f6bc
000001d0: bc2e 02bd 0f5b 393d 1de7 183d fc4d aebd
000001e0: 4776 5fbc a87b 2dbd 0abd aa3b 779d 4ebd
000001f0: 1cd1 82bd 1a17 94bd 70cf fabb d945 013c
00000200: b02d febc 482c 3b3d 4f02 aa3d 9426 7e3d
00000210: cf43 74bd 982b 6c3b 1824 b33c 6ddd 1ebd
00000220: 047c dcbb c0c7 803c 7736 28bd 0585 7e3d
00000230: 354a 173d 8115 9c3d b13b 6ebd 0af5 09bd
00000240: 625e 763d e27d f93c 40e7 b93c 11c9 823d
00000250: bdff 9a3d 1866 a13d ff58 313d 4642 a6bc
00000260: 5c6a c7bc 5ef1 5ebd 92b0 31bd d41e 04bd
00000270: 4c1f 7d3b 8193 51bd 8eea 173c 0c33 2b3b
00000280: a02d 8ebc b5b9 ccbc b068 46bd c0aa 22bd
00000290: 6071 8dbd 51b7 b9bc 96f2 9b3d e18e 1cbd
000002a0: 67fb 03bd 90f8 58bd 4833 443c 9700 b1bc
000002b0: 7459 adbc 2a3d 79bd 019d 493d 4013 bfbc
000002c0: d15b b13c a3f3 81bd 038d 503d 08cc 86bd
000002d0: 0803 c2bc cf94 c0ba c20d 9abd 36cd 363d
000002e0: 6e7e a6bd 2abe 143d ae3e 17bc 6425 333d
000002f0: e46a a8bd ee40 5bbd bd46 a4bd 74ec 19b9
00000300: 053d 933d 14bf 693d 4930 0dbd e656 873c
00000310: 227e 6dbc 64b9 fabc 65a3 a8bc 623d e3bc
00000320: 0c4b 7cbd 219b 2c3d 24a8 a03d 923c e53c
00000330: 052f ae3d 6873 383c 8ccb e83b 856d 003d
00000340: 7c23 a03b 6341 c93c 5bb4 6d3d 2e37 0fbc
00000350: 6633 f839 ba69 1e3d 1d9a 083d a336 d1bb
00000360: 4174 18bd cab2 3e3d 5530 babc 3fdc efbc
00000370: 494a 773d 4bf6 1a3d 5820 1abd 15f9 0bbd
00000380: 8ee6 2c3d 5e8c 06bd e205 ab3d 6a8d c2bb
00000390: 249b f9bc 8756 e73c a7b6 ae3d 7bd8 603d
000003a0: 1fcf 4fbc 40ff 813d 8622 14bc 746e 3dbd
000003b0: 3d67 52bc 5a35 3abd 9e7b 1bbd 65d5 c83d
000003c0: fd97 4abd fe5d 693c c6ef 9fbc b7bf 323d
000003d0: 224a 933a d4e8 773d d470 8d3d f71c e03b
000003e0: 9f1d a23d 9ba4 b7bb 3057 96bb 1f0f c33d
000003f0: 1da7 eebb b660 8f3c 17ce 1d3d b489 1c3d
0.03938128 0.005183701 0.058711205 0.073885284 -0.025014758 -0.009968705 0.08481657 0.00014290595
0.027794447 0.06695576 -0.010435908 -0.027867611 0.048757326 0.02722896 -0.0015161138 0.02751247
-0.0017537003 -0.0284504 0.06765842 0.03271609 0.07437189 0.06494674 0.0033981004 0.07172034
0.03192962 -0.03196704 -0.04785585 -0.039138928 -0.030844364 0.020838102 -0.04143979 0.03321822
0.023585012 -0.050919563 -0.051143873 0.050413538 -0.04935872 0.06291189 -0.03222284 0.030448839
0.044380385 0.030221416 -0.0122606 -0.013926912 -0.02673479 -0.0058285957 -0.021865157 0.0036367
-0.02298083 -0.046040405 0.033027366 -0.006111106 0.03755196 -0.06880615 0.018080661 0.028822472
-0.061739746 0.053066026 -0.057734203 -0.076351814 -0.061652467 0.0012447535 -0.08397144 0.0038983722
0.0802389 0.0427867 0.01141848 -0.036343 -0.021645483 -0.04610353 -0.0343413 -0.056958433
-0.044146534 -0.04881897 0.049677536 -0.058028206 -0.053457312 -0.0007588632 0.07788077 0.052741226
0.076629944 0.06574714 0.076674916 -0.031829603 0.04106033 -0.023145774 0.073517285 -0.047594924
-0.020446457 0.060702186 -0.031982552 0.055081636 0.040875487 0.059730172 0.018686663 0.050702643
-0.03668611 0.014622806 0.014417714 -0.041689355 -0.054572377 0.029856404 0.019161556 0.05130402
-0.037298035 -0.061834484 0.058610506 0.032598667 -0.04765935 0.024883162 -0.04549308 0.036186717
-0.017978597 -0.014925285 -0.043676298 -0.030101985 -0.03178285 0.045252856 0.03732978 -0.08510968
-0.013639039 -0.042354256 0.0052105235 -0.05044314 -0.06387541 -0.07230969 -0.007654123 0.007890188
-0.031027645 0.045696527 0.083012216 0.06204851 -0.05963498 0.0036036726 0.021867797 -0.038785387
-0.006728651 0.015720248 -0.041067567 0.062138576 0.036936004 0.07621289 -0.058162395 -0.033680953
0.060148604 0.030455533 0.022693276 0.063860066 0.075683095 0.07880801 0.043297764 -0.020295274
-0.024342708 -0.054429404 -0.04338128 -0.032255962 0.003862339 -0.05116606 0.009272231 0.0026122956
-0.01735574 -0.024990896 -0.04843968 -0.03971362 -0.0690639 -0.02267042 0.07614629 -0.038222197
-0.032222178 -0.052971423 0.011975117 -0.021606727 -0.021160819 -0.060849346 0.049221996 -0.023324609
0.021650227 -0.06345298 0.05091573 -0.065818846 -0.023683086 -0.0014692786 -0.07522155 0.0446293
-0.08129583 0.036314167 -0.009231253 0.04373683 -0.08223513 -0.05352872 -0.08021305 -0.00014679303
0.07189373 0.057066992 -0.034469876 0.016520929 -0.014495404 -0.03060598 -0.020585725 -0.02773923
-0.061595008 0.04214013 0.0784457 0.027982984 0.08505062 0.011257984 0.007104343 0.031354446
0.0048870426 0.024567312 0.05803333 -0.008741183 0.0004734054 0.038675047 0.0333501 -0.006384687
-0.037220243 0.046557225 -0.022728125 -0.029279826 0.06037358 0.03783254 -0.0376285 -0.03417309
0.04221206 -0.03284871 0.083507314 -0.005937268 -0.030469485 0.028239502 0.08530932 0.054893952
-0.012683659 0.06347513 -0.009041434 -0.046247914 -0.012841997 -0.045461036 -0.037959687 0.09806327
-0.049461354 0.014243601 -0.019523513 0.043639865 0.0011237303 0.060524777 0.06906286 0.0068393904
0.07915806 -0.0056043393 -0.0045880303 0.095243685 -0.007283105 0.01750217 0.03852662 0.03821726

conv1.bias f4 [6]
00000000: c642 05be 559a d2bd ada2 38bd 6dbd a5be
00000010: 3970 97bd bfc5 2dbe
-0.13013753 -0.10283343 -0.045077015 -0.32371083 -0.07394452 -0.16969965

fc1.weight f4 [1, 7938]
00000000: 2a8e a7bb 8616 993a fb94 0c3b c89a 0c3c
00000010: d0a5 c23c 480c 413c 820f 853c 072b cc3a
00000020: 2913 b63b f39c 033c 6679 593c 0db6 da3a
00000030: 6c5c e63c b27d 473d 9134 f83c 7207 f53c
00000040: 9a8d b43c 8c8b ca3c c97c 073d 8dbe 0c3d
00000050: cdcf b63c 4384 ea39 9cd7 d3bb 50db 943c
00000060: 5c2b 033c 2e78 98bc 4d52 00bc 16d2 663b
00000070: 1b64 a73c fd62 a23c baa9 283c c052 9739
00000080: 1ef5 023c 039c bd3b a8fc c1ba 6a59 10bc
00000090: 5a0a 9abc d805 633b fbbc 11bc ee44 93bb
000000a0: 136e e7bc f2b3 eebc 79b0 a3bc b4a9 8cbc
000000b0: bf7b e1bc 0d5b 38bc 58c9 3abc 7c77 e0bc
000000c0: ad1b 21bc 64c8 ddbb 3d0b 2b3c 2921 0a3c
000000d0: ae36 333c 4013 bd3c bf08 1e3c c40e 493c
000000e0: a530 bf3a a055 e2b9 156e a8bc fa71 233a
000000f0: 9487 abba 3f5d 443c 24d7 4abc 1c72 6f3c
00000100: 365c 1f3c c98a aa3c 55d9 8abb d31d 103c
00000110: 84df 3c3c 9795 423b 161b 98bb cc67 53bc
00000120: fd59 0fbb 2d18 98bc cfed c2ba 8578 8fbc
00000130: 76dc e6bc c483 bb3a e9ee 62bc da0f 16ba
00000140: 7052 92bc 3088 40bb 3e15 8fba fa0b 58ba
00000150: c26e 46bc 45c8 19bc 252c eaba 4783 1bb9
00000160: a43d 13bb 4d51 20bc d2c7 01bc 182b a7bc
00000170: 4c72 50bc e6a2 c7bc c165 a4bc 19c5 5dbc
00000180: 94a5 2cbc 62db 79bc f49c d6bb d01d 563c
00000190: e5a9 803c bd84 a53b c9e7 1f3c 2351 643c
000001a0: ad0e 9bba 70b2 a03b 740a be3c c2b5 7a3c
000001b0: a60b 213c 8285 8fbb 1367 e3bb 32a9 bd3c
000001c0: aeb3 d33c 1691 aa3c ecce 88ba bbcc 45bc
000001d0: 6119 30bb be5a 7e3b 669a 1bbc 2b84 02bc
000001e0: eca1 2d3c a264 57bb 23f6 a53b 0ce1 cbbb
000001f0: f9a2 ccba b296 3ebb 864e 50bb 4a4c 4aba
00000200: c922 a7ba 80c8 f23b 54fe 9c3b 531b 6b3c
00000210: 8452 983c 3100 843c 53f6 c33b 9b14 0a3c
00000220: 5e53 733c 82b6 353c 5440 df3b 1c27 76bc
00000230: 25a5 97bc c631 42bc e4fc 56bc a673 34bb
00000240: 94a0 cdbc 2560 52bc aea4 82bc 8004 81bb
00000250: 38da ea3b af62 78bb 26d2 4e3b 908e 043d
00000260: 8248 693c 69e6 a13c 66b4 a73c 3ac3 8f3b
00000270: 2c8f 2cbb 6802 253c c15a c23b 2e6c d9b9
00000280: 20bc 283c 88e8 41bb ae89 083c f58e 5f3c
00000290: e806 a63c 4186 663b aa69 89bb 60bf 01bc
000002a0: 0d9a 0e3c eb28 37bb 7150 803c 5f56 bf3b
000002b0: 87ab 1abc 7030 64bc acf9 c1bc eae9 ddbc
000002c0: 54f9 a1bc c098 9cbc 91be ee3b f21a 9f3b
000002d0: 3e77 b13c 7b4c 8b3c f6f2 673c 4cce 2a3c
000002e0: 766b 703c 007c d3bb 4536 ddbb a702 133c
000002f0: 7cef 9d3a c984 a1bc b577 02bc 301d 4ebc
00000300: d413 d5bc 1b2a a1bc 601d 1bbc 39e0 abbc
00000310: ff02 8cbb cef6 103c 8145 763c 1958 de3b
00000320: c392 31bb 8ed7 363c 45fd bc3a d957 cc3b
00000330: 334a ad3a 7d19 5e3c 8038 1dbc 4af9 163c
00000340: c2ce 28bc 0bab 16bb 61a3 12bb 0bf4 613c
00000350: 1d89 cfba eece 3d3b 2790 53bb ac28 8d3c
00000360: f62d fbba 4c02 ee3b e872 85bb cd56 d1ba
00000370: b437 773c 6c0b c03b 71c0 58bb 5fa3 21bc
00000380: e56e 86bb 8cbd 2fbc 60bf 1fbc 9fb7 6bbc
00000390: 2515 02bd 178b 56bb 22c4 9c3c 2f8d 0f3c
000003a0: 1447 973c da32 08bc f0d8 fd3b baf0 99bb
000003b0: 605f d3bb f3ee 8cbb c506 e9bb c61d d0bc
000003c0: 9f5a 71bc e878 2bbc e7a7 7dbc 14df f5bc
000003d0: 5b30 dcbc 9722 3b3c 341f 04bc 9f13 b03b
000003e0: eb9c 913c ea81 bd3b 5ad8 e7ba 0b23 713c
000003f0: babd 513b 587e 273c 6a4d a43c b23a 153c
-0.005113383 0.0011679686 0.0021451104 0.008581825 0.023760706 0.011782713 0.016242746 0.0015576788
0.0055564833 0.008033025 0.013273573 0.0016686335 0.028120242 0.048703857 0.030298503 0.029910777
0.022040177 0.024724744 0.03307799 0.03436141 0.022315884 0.000447305 -0.0064649116 0.018170983
0.008005943 -0.018611994 -0.007832122 0.0035220436 0.020433476 0.019822592 0.010294372 0.00028862618
0.007993011 0.0057864203 -0.0014800029 -0.0088103805 -0.018803764 0.0034640934 -0.008895154 -0.004494301
-0.02825073 -0.029138539 -0.01998161 -0.017170765 -0.027524827 -0.011252177 -0.011400543 -0.027400725
-0.009833259 -0.006768273 0.010439691 0.008430758 0.01093833 0.023080468 0.00964564 0.012271587
0.0014586641 -0.00043169875 -0.020560304 0.00062349404 -0.001308667 0.011985122 -0.012380395 0.014614608
0.009726575 0.020818131 -0.004237334 0.008796173 0.0115279 0.0029691213 -0.004641901 -0.012903165
-0.0021873706 -0.018566215 -0.0014871898 -0.017513523 -0.028181296 0.0014306237 -0.013850906 -0.0005724408
-0.017861575 -0.002937805 -0.0010916365 -0.0008241531 -0.012111368 -0.009386127 -0.0017865939 -0.00014830857
-0.002246716 -0.009785009 -0.007921176 -0.02040629 -0.012722563 -0.024369668 -0.020068051 -0.013535761
-0.010537524 -0.015250059 -0.006549472 0.013068631 0.015706012 0.005051224 0.009759852 0.01393536
-0.0011829935 0.004904084 0.023198344 0.0153021235 0.009829437 -0.004379929 -0.0069397776 0.023151968
0.025842514 0.020821135 -0.0010437644 -0.012072737 -0.0026870596 0.003881141 -0.009497261 -0.007966082
0.010597687 -0.0032866378 0.005064742 -0.006221896 -0.0015612534 -0.002908152 -0.0031785085 -0.00077170564
-0.0012751456 0.0074091554 0.0047910605 0.014349776 0.018594034 0.016113373 0.005980292 0.008427764
0.014851419 0.011090877 0.0068130884 -0.015023973 -0.018511364 -0.011852687 -0.013121817 -0.0027534752
-0.025100984 -0.012840305 -0.015947666 -0.003937304 0.007167127 -0.0037900617 0.0031558364 0.03236252
0.014238479 0.019763188 0.020471763 0.0043872865 -0.0026330454 0.0100713745 0.005931229 -0.00041470065
0.010298759 -0.0029588062 0.008333607 0.013644923 0.020266965 0.0035175236 -0.0041935043 -0.0079191625
0.008703721 -0.0027947973 0.015663357 0.0058391537 -0.009440309 -0.013927564 -0.023678623 -0.027089078
-0.01977221 -0.019115806 0.007285901 0.004855507 0.021663304 0.017004242 0.0141570475 0.010425162
0.014674058 -0.006453991 -0.006750854 0.0089728 0.0012049521 -0.019716637 -0.007963111 -0.012580201
-0.026010431 -0.019673398 -0.009467453 -0.020980941 -0.004272818 0.008847905 0.015031219 0.0067854044
-0.0027095533 0.011159791 0.0014418742 0.006236058 0.0013220966 0.013555882 -0.00959599 0.009214709
-0.010303201 -0.0022990133 -0.0022375213 0.0137910945 -0.001583371 0.002896245 -0.0032281966 0.017231308
-0.0019163478 0.0072634574 -0.004072536 -0.0015971303 0.015088964 0.0058607366 -0.0033073688 -0.009865611
-0.004102575 -0.010726344 -0.009750217 -0.01438704 -0.031758446 -0.0032736713 0.019136492 0.008761688
0.01846651 -0.008312905 0.007746808 -0.0046978863 -0.0064505786 -0.004300946 -0.0071114027 -0.025404822
-0.014731078 -0.010465838 -0.015481926 -0.030013599 -0.026878526 0.011421821 -0.00806408 0.0053734328
0.01777502 0.005783309 -0.0017688379 0.014717828 0.0032003955 0.010222994 0.020056445 0.009108232
