PythonClient/saved_models/0.8-2024-04-24.pth (torch, 371208 bytes, 4 tensors)

conv1.weight f4 [8, 3, 6, 6]
0.0035651955 0.1313166 0.07455938 0.014923444 0.065722644 0.08025025 0.2083711 0.25287107
0.112176165 0.09333662 0.030790893 0.11827919 0.0723533 0.19940747 0.05777691 0.12782653
-0.0012905711 0.012866978 0.14465965 0.18348013 0.033425212 0.005363153 0.08817805 0.10407995
-0.12354169 0.07626265 -0.06783707 -0.056271885 -0.08190168 -0.005914922 -0.08382904 0.012728514
-0.076414354 -0.015735848 -0.04145659 -0.0864084 0.10358574 0.16146645 0.087880656 0.042748068
0.061367776 -0.009478543 0.12427765 0.261994 0.13789323 0.01987906 0.050706886 -0.037360404
0.21317543 0.25447437 0.1790959 0.18422945 0.012121967 0.06072426 0.030353704 0.13202974
0.04800459 -0.01065092 0.12755981 0.039265186 -0.021963656 -0.094840124 0.019507168 0.07806434
-0.0076199444 0.06239291 -0.1497202 -0.11956684 -0.1211889 0.034982584 -0.0016858622 -0.07217802
-0.14393213 0.050491482 -0.13467504 0.019400658 -0.036399957 -0.13707668 -0.051821224 -0.06330682
0.038937714 -0.11497049 -0.13857317 -0.036943726 -0.00091167144 0.07673812 -0.01549121 -0.07158303
-0.0035827248 -0.025640681 -0.077038 -0.059393387 -0.1507473 -0.102282576 -0.08196535 -0.11647105
-0.13804749 -0.098938644 -0.19492209 -0.20737262 -0.02429295 -0.05922392 -0.16686054 -0.198461
-0.17889455 -0.24209456 -0.030128857 -0.19086562 -0.1358617 -0.16049811 -0.05589973 -0.039971508
-0.027890747 -0.13153523 -0.034607276 0.045238294 -0.10644145 -0.021514095 -0.09215229 -0.09120957
-0.021200728 -0.02403631 -0.038562734 0.10244022 -0.034458518 0.011165539 -0.10773073 -0.022329768
0.12369801 0.060892653 0.032745425 0.111422874 0.026647236 -0.07327446 0.108990535 0.026791492
0.14354834 0.0518609 -0.055929888 -0.11087618 -0.08492358 0.03410678 0.030788021 0.07091448
-0.14283738 -0.017419945 -0.11258388 -0.05366508 -0.056409713 -0.02740202 -0.10000943 -0.11283191
-0.06731813 0.04027125 -0.09105127 -0.044218436 0.058481947 -0.007562381 0.055601433 0.040616337
-0.0031863942 0.06959903 0.047082953 -0.006522545 0.014869499 0.104014024 0.10358477 0.1223826
0.062293656 -0.028005438 0.020513063 0.146051 0.082986996 0.0127340155 -0.14668678 0.014936259
-0.0022286382 0.090973824 0.015709553 0.053306364 0.03802986 0.04235139 -0.039634682 -0.011750798
-0.071257904 -0.07752866 0.010613841 0.0012956007 0.10126253 -0.017444905 0.081396386 -0.08230336
0.105206095 -0.044539712 0.1449335 0.11289748 0.10705467 -0.012431331 0.13594285 0.023165068
0.07794307 0.016490465 0.17530519 0.13429804 0.03622032 -0.042433444 0.12678404 0.1454386
0.13699614 0.09086187 0.008742789 0.04445502 0.08449764 0.06781098 0.0950659 -0.031053677
0.036527768 0.015732625 0.012673754 0.10042651 0.25879455 0.22566783 0.108404465 0.047730535
0.01471969 -0.030221201 0.039783042 0.057233028 -0.16109112 -0.123638876 0.01614763 0.039986942
0.033629905 -0.0050214147 -0.11994666 -0.08996633 -0.17977527 -0.12576845 -0.12648267 -0.12291473
-0.097208485 -0.109953396 -0.15554999 -0.14721037 -0.13204618 -0.10469927 0.054591417 0.026800273
-0.08558492 0.05341604 0.04997152 0.030010292 -0.012338137 -0.038466558 0.16575684 0.067147575
00000000: 0ea6 693b dc77 063e 97b2 983d 7681 743c
00000010: 9899 863d 3e5a a43d 3c5f 553e 5178 813e
00000020: 9ebc e53d 4527 bf3d 2f3d fc3c 5c3c f23d
00000030: f82d 943d 7931 4c3e 7ba7 6c3d f5e4 023e
00000040: 6128 a9ba 04d0 523c a921 143e 37e2 3b3e
00000050: e0e8 083d 63bd af3b b296 b43d de27 d53d
00000060: 6d03 fdbd 982f 9c3d 29ee 8abd 597d 66bd
00000070: 11bc a7bd f6d1 c1bb 8fae abbd 428b 503c
00000080: 217f 9cbd 77e8 80bc 63ce 29bd e3f6 b0bd
00000090: c324 d43d 7657 253e c6fa b33d 9918 2f3d
000000a0: c75c 7b3d e44b 1bbc 4885 fe3d 1424 863e
000000b0: e233 0d3e 69d9 a23c 06b2 4f3d 3907 19bd
000000c0: a94a 5a3e 774a 823e ea64 373e a5a6 3c3e
000000d0: 379b 463c 00ba 783d 55a8 f83c ce32 073e
000000e0: 76a0 443d 3281 2ebc 0a9f 023e 88d4 203d
000000f0: 20ed b3bc 8a3b c2bd 7fcd 9f3c 32e0 9f3d
00000100: bab0 f9bb b58f 7f3d 4150 19be 76df f4bd
00000110: e331 f8bd e649 0f3d 26f8 dcba 12d2 93bd
00000120: f262 13be 28d0 4e3d 41e8 09be 21ee 9e3c
00000130: 1f18 15bd d45d 0cbe 7e42 54bd 02a7 81bd
00000140: 277d 1f3d a675 ebbd 20e6 0dbe 4e52 17bd
00000150: 3cfd 6eba e028 9d3d d8ce 7dbc 209a 92bd
00000160: 26cc 6abb 680c d2bc 19c6 9dbd 7b46 73bd
00000170: 805d 1abe 8779 d1bd 73dd a7bd 6088 eebd
00000180: 525c 0dbe 58a0 cabd a899 47be 7d59 54be
00000190: 0202 c7bc c894 72bd 7ddd 2abe 5c39 4bbe
000001a0: 2230 37be a3e7 77be cbd0 f6bc 4772 43be
000001b0: 541f 0bbe 9e59 24be 1ef7 64bd 2ab9 23bd
000001c0: 237b e4bc 2cb1 06be 5cc0 0dbd ca4b 393d
000001d0: fafd d9bd 543e b0bc 57ba bcbd 15cc babd
000001e0: 26ad adbc cce7 c4bc f5f3 1dbd 2ecc d13d
000001f0: 6024 0dbd aaef 363c eea1 dcbd ebec b6bc
00000200: 6255 fd3d 936a 793d 1120 063d ad31 e43d
00000210: 4e4b da3c ec10 96bd 6e36 df3d d579 db3c
00000220: 56fe 123e 186c 543d bd16 65bd 0d13 e3bd
00000230: 6aec adbd 8db3 0b3d 2937 fc3c 9c3b 913d
00000240: f643 12be 46b4 8ebc 6192 e6bd eacf 5bbd
00000250: df0d 67bd 337a e0bc bed1 ccbd 6b14 e7bd
00000260: 16de 89bd 77f3 243d 1779 babd 641e 35bd
00000270: c48a 6f3d dacd f7bb 54be 633d 515d 263d
00000280: d3d2 50bb f089 8e3d 0eda 403d 13bb d5bb
00000290: 339f 733c 4e05 d53d 4024 d43d bba3 fa3d
000002a0: a227 7f3d a96b e5bc 030b a83c 658e 153e
000002b0: 16f5 a93d 55a2 503c 0f35 16be 36b7 743c
000002c0: 580e 12bb 7c50 ba3d 52b1 803c c657 5a3d
000002d0: 33c5 1b3d a778 2d3d fa57 22bd 6b86 40bc
000002e0: aaef 91bd 59c7 9ebd ade5 2d3c 25d1 a93a
000002f0: bb62 cf3d 9ee8 8ebc 26b3 a63d aa8e a8bd
00000300: 4b76 d73d 466f 36bd 7369 143e cb36 e73d
00000310: 7b3f db3d c8ac 4bbc 9a34 0b3e abc4 bd3c
00000320: 9ea0 9f3d 0317 873c 3483 333e 6d85 093e
00000330: c25b 143d b1ce 2dbd add3 013e dbed 143e
00000340: b748 0c3e ca15 ba3d ea3d 0f3c 7816 363d
00000350: 190d ad3d 7ce0 8a3d e9b1 c23d 4864 febc
00000360: 249e 153d b5e1 803c 94a5 4f3c 6aac cd3d
00000370: b880 843e 7815 673e 2903 de3d 1881 433d
00000380: db2a 713c 7492 f7bc 8bf3 223d 2e6d 6a3d
00000390: 12f5 24be 6136 fdbd 0948 843c 59c9 233d
000003a0: 83bf 093d ae8a a4bb 98a6 f5bd 4440 b8bd
000003b0: 0217 38be 72c9 00be ac84 01be b8ba fbbd
000003c0: 3e15 c7bd 3f2f e1bd 7f48 1fbe 51be 16be
000003d0: 1d37 07be 926c d6bd 409b 5f3d 3f8c db3c
000003e0: 2647 afbd c7ca 5a3d f0ae 4c3d 25d8 f53c
000003f0: e625 4abc 1c8f 1dbd 29bc 293e ab84 893d

conv1.bias f4 [8]
0.15387316 0.13217366 -0.082561806 0.058875892 -0.10047786 0.10605694 0.040096033 0.07463604
00000000: ed90 1d3e 8858 073e 2a16 a9bd d927 713d
00000010: 56c7 cdbd 6234 d93d bd3b 243d c8da 983d

fc1.weight f4 [8, 11424]
0.0052625 0.022215901 -0.003229119 -0.00448217 -0.005999977 -0.0034935153 0.011446866 -0.00011417387
-0.0057837283 0.008356828 0.0119623 0.0100655155 0.0016515811 0.004527825 0.007737632 0.006004634
-0.006384914 0.016824257 -0.011923863 0.008074361 0.009621409 -0.014281529 0.00032350954 0.00023952381
0.027724257 0.0021936568 -0.011983279 -0.011415726 -0.0017420986 -0.010892239 0.011857187 0.003520894
0.010671482 0.024504032 -0.024206972 -0.009396013 -0.023125429 0.0044569443 0.004868509 -0.00398395
0.020563785 -0.007583625 0.003477341 -0.020245142 0.007856377 0.009387476 -0.002275014 -0.02183068
-0.016384624 0.0031986774 -0.013552174 0.0069333157 0.0060329223 0.00017223383 -0.015352783 -0.008711883
-0.015210509 -0.00037434368 -0.015534007 -0.007867566 -0.007419497 -0.004283255 0.0034513087 -0.012980685
0.026204627 0.0013425386 -0.022402423 0.020245567 0.0058059143 -0.0016606636 0.007756769 -0.0055730483
-0.011145385 -0.01634434 0.015144387 -0.018913312 -0.01794229 0.010200288 0.0043589985 0.00045469045
-0.0023610087 -0.0021704773 0.005317532 0.013629797 -0.005479661 0.0056096907 0.0066203047 -0.016985139
-0.0047215945 0.020761415 0.0009884988 0.0024519356 -0.019476663 0.0027311447 0.01685496 0.03873155
0.01646235 0.011969824 -0.010545342 -0.005002787 0.0041889925 -0.038889725 0.038471356 0.0147601105
-0.0036438971 0.003911222 -0.025074104 -0.017188404 0.0011414475 -0.00013986691 -0.0125936335 -0.005121089
-0.0057869875 -0.0008183884 -0.020040212 -0.0044820104 0.013400466 0.014964744 0.009460672 0.010059067
-0.006144421 0.011751454 0.012011593 -0.028857248 -0.033072863 -0.028557204 -0.027652994 -0.019447131
-0.02448131 0.0035364856 -0.0064569726 -0.009369925 0.014817049 0.021013133 0.0231808 0.008395684
0.0034385994 -0.0012571957 0.017962426 0.028789818 -0.0041727684 -3.195247e-05 -0.01275672 0.0008319828
0.033349015 0.011476684 0.015835937 0.011472489 -0.023634773 0.010145897 -0.0009392786 -0.0044584177
-0.0052518197 -0.0054889256 0.011969744 -0.013782602 -0.014645106 0.0023711454 -0.015265307 -0.004475909
0.0060318755 -0.021262836 -0.021259068 -0.012691043 -0.018017974 -0.013714101 0.00754903 -0.004197589
0.0067742127 -0.0032270942 -0.014196448 0.024789527 -0.009937002 -0.027511397 -0.019057244 -0.003683301
-0.00799287 -0.01342071 -0.025900997 -0.0040132073 -0.0064371615 -0.009624177 -0.024011083 -0.0073613077
-0.0034796025 0.016192699 -0.0077576158 0.0002938422 -0.021192309 -0.0057461434 -0.009664922 -0.009482094
-0.0036375748 -0.009179304 -0.0075845066 -0.016922068 0.0020701962 -0.002330616 0.0015908259 -0.008510192
-0.020030567 0.00782364 -0.02137122 0.015607482 0.0076427283 0.0136383 0.006225464 -0.009696809
-4.9503884e-05 -0.0016020832 0.011441701 0.0031416423 -0.00013365642 0.0037157056 0.015960496 0.0153328655
0.005726356 0.008620314 -0.0060949996 0.010773685 0.0144749135 -0.0038146975 -0.0044237836 -0.025017658
0.0037522528 0.005421548 0.0174151 0.0019897476 -0.01154005 0.0034641612 0.00797 0.013681231
0.004273607 -3.7656515e-05 0.004545378 0.0016563616 0.006621741 -0.00788702 -0.0027554708 0.008659289
-0.018021468 -0.00595502 -0.0024995324 -0.023680506 -0.008818713 -0.008045332 0.01741573 0.005375293
0.00575005 0.006020153 0.024163637 -0.002245592 -0.0027581688 0.004227119 -0.019174246 0.004573545
00000000: 0d71 ac3b 1ffe b53c a09f 53bb 2bdf 92bb
00000010: 749b c4bb 76f3 64bb a38b 3b3c a170 efb8
00000020: 6e85 bdbb 14eb 083c 86fd 433c d5e9 243c
00000030: de79 d83a 265e 943b f68b fd3b 85c2 c43b
00000040: 8a38 d1bb 06d3 893c 4e5c 43bc 534a 043c
00000050: 1da3 1d3c 13fd 69bc b79c a939 af28 7b39
00000060: fb1d e33c 74c3 0f3b 8455 44bc 0609 3bbc
00000070: 2157 e4ba 5d75 32bc a644 423c cdbe 663b
00000080: 71d7 2e3c aebc c83c b34d c6bc bcf1 19bc
00000090: 8a71 bdbc 8f0b 923b 0388 9f3b cb8b 82bb
000000a0: 6275 a83c 0f80 f8bb 1ae4 633b 24d9 a5bc
000000b0: 09b8 003c eecd 193c 6718 15bb 41d6 b2bc
000000c0: 0c39 86bc e7a0 513b f009 5ebc de30 e33b
000000d0: d2af c53b ab99 3439 3d8a 7bbc 49bc 0ebc
000000e0: 8035 79bc 8f43 c4b9 5982 7ebc f7e6 00bc
000000f0: 401f f3bb 8c5a 8cbb 5a2f 623b f0ac 54bc
00000100: 16ab d63c 1ff8 af3a 4985 b7bc 08da a53c
00000110: 8a3f be3b a0aa d9ba 7f2c fe3b 1e9e b6bb
00000120: 229b 36bc 91e4 85bc 2a20 783c 17f0 9abc
00000130: b6fb 92bc 1c1f 273c eed5 8e3b 8563 ee39
00000140: 27bb 1abb 913e 0ebb b13e ae3b 834f 5f3c
00000150: ba8e b3bb 7fd1 b73b 24ef d83b 6b24 8bbc
00000160: 9bb7 9abb d813 aa3c 8490 813a a7b0 203b
00000170: 868d 9fbc 01fd 323b 6a13 8a3c f9a4 1e3d
00000180: 0ddc 863c 151d 443c 5fc6 2cbc 6bee a3bb
00000190: d143 893b d54a 1fbd 2494 1d3d 64d4 713c
000001a0: 73ce 6ebb b529 803b 3568 cdbc b2ce 8cbc
000001b0: 9f9c 953a 3da9 12b9 8755 4ebc cfce a7bb
000001c0: c5a0 bdbb 1e89 56ba 5f2b a4bc d4dd 92bb
000001d0: a18d 5b3c b02e 753c ef00 1b3c c9ce 243c
000001e0: 2457 c9bb 2c89 403c 46cc 443c 0966 ecbc
000001f0: 6977 07bd ccf0 e9bc 8888 e2bc 974f 9fbc
00000200: 078d c8bc 62c4 673b 0395 d3bb 5084 19bc
00000210: 35c3 723c bc23 ac3c a9e5 bd3c 0d8e 093c
00000220: 205a 613b 7dc8 a4ba f025 933c a0d8 eb3c
00000230: b8bb 88bb b404 06b8 9001 51bc 6c19 5a3a
00000240: fa98 083d b408 3c3c 5eba 813c 1bf7 3b3c
00000250: b69d c1bc fa3a 263c eb39 76ba eb17 92bb
00000260: 7517 acbb 72dc b3bb bf1c 443c 6cd0 61bc
00000270: 07f2 6fbc 3865 1b3b 571b 7abc a5aa 92bb
00000280: 0aa7 c53b 662f aebc 7f27 aebc 18ee 4fbc
00000290: 6e9a 93bc 1cb1 60bc da5d f73b ee8b 89bb
000002a0: 37fa dd3b a87d 53bb 3898 68bc 6813 cb3c
000002b0: cfce 22bc 955f e1bc f01d 9cbc 8963 71bb
000002c0: 87f4 02bc 8ae2 5bbc 542e d4bc 3981 83bb
000002d0: d3ee d2bb b9ae 1dbc e4b2 c4bc 2037 f1bb
000002e0: 0b0a 64bb 8da6 843c 9933 febb d50e 9a39
000002f0: 7e9b adbc 254a bcbb 9f59 1ebc c95a 1bbc
00000300: 6164 6ebb cb64 16bc 7487 f8bb 26a0 8abc
00000310: 21ac 073b 3fbd 18bb 4283 d03a 556e 0bbc
00000320: 2517 a4bc b92e 003c b212 afbc 86b6 7f3c
00000330: da6f fa3b 2d73 5f3c fafe cb3b 5ddf 1ebc
00000340: 64a2 4fb8 fefc d1ba f975 3b3c 03e4 4d3b
00000350: 1f26 0cb9 3283 733b 96bf 823c b336 7b3c
00000360: 28a4 bb3b 383c 0d3c 90b8 c7bb 1c84 303c
00000370: 3028 6d3c 0100 7abb 63f5 90bb d5f1 ccbc
00000380: 5be8 753b 3ea7 b13b 1daa 8e3c 6d66 023b
00000390: 7a12 3dbc fb06 633b 9a94 023c 3e27 603c
000003a0: 9d09 8c3b 60f1 1db8 65f1 943b 461a d93a
000003b0: 31fb d83b 8f38 01bc 2195 34bb b1df 0d3c
000003c0: c2a1 93bc 5422 c3bb 32cf 23bb 9ffd c1bc
000003d0: 5d7c 10bc 91d0 03bc 6fab 8e3c 3a23 b03b
000003e0: ea6a bc3b b444 c53b d2f2 c53c c82a 13bb
000003f0: 65c2 34bb a583 8a3b 4f13 9dbc addd 953b

fc1.bias f4 [8]
-0.016308777 -0.0044890866 -0.008370091 -0.021423742 -0.016454095 -0.014579276 -0.0073230723 -0.0061098523
00000000: fc99 85bc 3019 93bb b522 09bc d880 afbc
00000010: bdca 86bc eadd 6ebc 62f6 efbb 2835 c8bb
