PythonClient/saved_models/1-2024-04-29.pth (torch, 38520 bytes, 3 tensors)

conv1.weight f4 [6, 3, 8, 8]
000000 e7 89 00 bd c9 20 06 3d b9 2b b1 3c ab 5d 2b 3c
       -0.031381514 0.03274611 0.021627294 0.010459344
000010 66 5a 52 3d 6d 99 90 bd 15 5b 68 bd 8d 6c 31 bd
       0.051355742 -0.07060514 -0.056727488 -0.043316413
000020 b7 6c fc bc 1c ee 7d bd 54 ee 0d 3d e5 f4 00 3d
       -0.030813558 -0.061994657 0.034651116 0.03148355
000030 ce 72 da 3c 90 83 e3 bc 03 b0 30 3c 0a c2 56 bc
       0.026666071 -0.027772695 0.010784152 -0.013107786
000040 3e 74 81 bd db c3 0e 3d 37 b0 26 bc bd be 6a 3d
       -0.063209996 0.03485475 -0.010173849 0.05731081
000050 6b 23 93 3d e4 98 45 bc d0 6c df 3c 82 ba 0a 3c
       0.0718449 -0.012060378 0.027273566 0.0084673185
000060 ee 82 72 3d 2c fb 20 bd 68 1a e5 3c 20 93 69 bd
       0.059206896 -0.039302036 0.027966693 -0.057025075
000070 49 da e1 bb 86 f6 c9 3b 5c 38 12 bd da 13 95 3d
       -0.0068924767 0.006163421 -0.03569828 0.07279177
000080 62 d7 99 3d ea 31 8f 3d 81 51 85 3d 86 9e 14 bd
       0.07511784 0.06991942 0.06509686 -0.036283992
000090 67 94 7e bc d0 4b 13 3b 7e 99 77 3d ba 64 ec bb
       -0.015538312 0.0022475608 0.060449116 -0.007214156
0000a0 2b 7d 95 3d a6 2f fc 3c 2f 48 11 3d 6d c0 4f 3b
       0.072992645 0.03078444 0.03546923 0.0031700388
0000b0 c2 e5 d8 3a c7 ba 90 bd 34 9d 90 bd 87 df 97 bd
       0.0016547965 -0.07066875 -0.07061234 -0.07415681
0000c0 1d 4e 87 3d fd 0a 7c bd 1d 67 ed bc 3f d6 a4 ba
       0.06606696 -0.061533917 -0.028979832 -0.0012576057
0000d0 89 78 3f bd 41 ad 88 bd 4e 1b 85 bd 8d d1 19 bd
       -0.04674581 -0.066736706 -0.064993486 -0.03755336
0000e0 3b 76 9c bd 76 40 21 bc 64 2e 1a bd 8a 16 92 bd
       -0.07639738 -0.009842029 -0.037641898 -0.07133205
0000f0 5d 2f 39 bd 60 5d 66 3d 77 e9 2e bd b8 46 d1 3c
       -0.045211185 0.056241393 -0.04270312 0.025546417
000100 5d 5b 43 3d 53 a5 8e b9 dd fd 56 3c de 38 80 bd
       0.047694553 -0.00027207527 0.013122049 -0.062608466
000110 b6 90 27 bd 15 ce 6b bd 92 ba 99 bb 31 8c 00 bd
       -0.04090949 -0.057569582 -0.0046914304 -0.031383697
000120 70 ab 3f bd 5d 35 ca 3c 6c b8 6a bd 1b a3 9c bc
       -0.046794355 0.024683649 -0.057304785 -0.019120743
000130 1b 13 7c bc 8f de 0b 3d cd df b3 3c 8b eb 88 3d
       -0.0153854145 0.034147795 0.021957302 0.06685551
000140 01 0e 1e bd 1e 4c ea 3c 2c 0a 12 bd 24 fd 88 3c
       -0.038587574 0.028600749 -0.035654232 0.01672227
000150 fa 3b 5f 3d 8e 77 ea 3c b4 c9 24 3d e5 e2 0f bd
       0.054500557 0.028621461 0.04023142 -0.035128493
000160 38 a0 6b 3d f0 52 af 3c 09 07 f4 3b b7 60 97 3d
       0.057525843 0.021401852 0.0074471277 0.07391494
000170 1e b5 78 bd dd fe 8e 3d 9b 40 24 3d 45 df 9b 3d
       -0.0607196 0.06982205 0.040100675 0.07610945
000180 1e 6b 48 bc 0f 59 3e bd 33 ef 1c 3d fa be 59 bd
       -0.01223257 -0.04647165 0.038314056 -0.053160645
000190 8e 30 94 bb bd 99 b1 b9 b9 d8 82 bd 6e cd 36 3d
       -0.0045223897 -0.00033874615 -0.06388993 0.044629507
0001a0 95 33 39 bd 61 58 37 3d 2a 18 92 bd 2e 8e 3c bd
       -0.045215208 0.04476202 -0.07133515 -0.04603403
0001b0 20 d3 7d bd b1 b7 15 3c b1 7b 15 3d a0 77 2a 3d
       -0.061968923 0.009138034 0.036494914 0.04161799
0001c0 d1 1a 57 3d 16 07 59 3d 94 a2 23 bd f6 8e a4 bd
       0.05251581 0.052985273 -0.03994997 -0.0803508
0001d0 1e c6 83 bd ab 33 82 bd 5c 6c 03 bd 5b b0 fd bc
       -0.06434272 -0.06357511 -0.03208576 -0.030967882
0001e0 d8 37 8f bd 22 2d ad bd 85 86 51 bd 04 b3 fe 3c
       -0.06993073 -0.08455874 -0.05115368 0.03109122
0001f0 cf a4 e0 3c 30 e5 06 3c c1 31 16 39 93 03 80 bd
       0.027422337 0.0082333535 0.0001432365 -0.06250682
000200 a5 dc 30 bd 76 89 75 bd 68 15 47 3c 69 52 af bc
       -0.043179173 -0.059945546 0.0121511 -0.0214016
000210 71 31 92 3d 8b 96 9b 3d 32 00 9c 3d f1 9c 6c 3d
       0.071383364 0.07597073 0.07617225 0.05776686
000220 86 5c 1a bd 1a f4 cd 3c 4e 07 c4 3b ec 0f c8 3c
       -0.037685893 0.02514081 0.005982316 0.024421655
000230 47 3b 5b bc 13 bf 94 3d 1a 4f 4f bd 9b 47 3e 3d
       -0.013380832 0.07263007 -0.050612547 0.046455007
000240 a6 9f a1 3c 66 d0 56 3d 04 5d 4b bd a5 62 03 3d
       0.019729447 0.052444838 -0.049649253 0.032076497
000250 07 5b 47 3c 18 d5 06 3d e3 6b db bc f1 3c b4 bb
       0.012167699 0.032918066 -0.026784843 -0.005500429
000260 f5 8f 6d bd 97 83 25 3d e2 11 03 3d ec 8b 70 bd
       -0.057998616 0.040408697 0.031999476 -0.05872719
000270 e2 9f 83 bd 4b bd 99 3b 8f 88 5b 3d a3 27 5a 3d
       -0.064269796 0.004691755 0.05359703 0.053260457
000280 6d 4a 8e 3c 2f bb 51 3d f8 e5 67 3d 02 f0 da bc
       0.017369473 0.051203903 0.0566158 -0.026725773
000290 53 62 91 bd 32 ab b5 3c 2f fc df 38 88 26 7a bd
       -0.07098832 0.022176359 0.000106804415 -0.061071903
0002a0 a7 6c 8b bd a0 1f 03 3d cd d1 76 3c 3b 7e 21 3d
       -0.06807833 0.03201258 0.015064669 0.039427023
0002b0 92 9f 20 3d b8 da 55 3d 62 df 29 bd 91 03 c2 bc
       0.039214678 0.05221054 -0.0414728 -0.023683341
0002c0 51 c8 6c 3d c1 6d 5d bd 63 f1 39 3d f0 ce a0 bd
       0.057808224 -0.054059748 0.04539622 -0.0785197
0002d0 f6 b1 76 bc 85 cd 04 bd 59 a9 4e bd 14 23 08 bd
       -0.015057078 -0.03242256 -0.05045447 -0.033236578
0002e0 af 49 78 bc 36 53 95 bc c5 8f 3d 3b c7 22 71 3d
       -0.015154286 -0.018228155 0.0028924805 0.058871057
0002f0 64 5f 66 3d 91 30 77 bc c3 23 84 bd a9 a8 7a 3d
       0.056243315 -0.015087263 -0.064521335 0.061196003
000300 54 85 08 bd 4f b5 4a 3d 37 6d 1c bd 65 4a 69 bc
       -0.033330277 0.049489316 -0.038190093 -0.014238928
000310 c0 95 1f 3c 65 fe 97 3c c2 04 59 3d c2 b8 20 3c
       0.009740293 0.018553922 0.052983053 0.009809675
000320 af a3 6e 3d e7 56 91 3d c3 0b b1 3d c4 65 81 bd
       0.05826157 0.070966534 0.086448215 -0.063182384
000330 07 76 06 3c 69 d7 bd bc ec 84 97 3c 4b 49 5b bc
       0.008206851 -0.023174005 0.018496 -0.013384174
000340 12 6e 77 39 e6 ed 9e 3d af b0 03 3c 15 94 71 bc
       0.0002359676 0.07760219 0.00803773 -0.014744778
000350 17 00 4d 3d f8 3b 95 bd 19 2d 9a 3c 59 20 4d bd
       0.050048914 -0.07286829 0.018820332 -0.050079677
000360 14 04 09 bd ef 08 cd bc 3a 34 66 3c 1a 3c 32 3d
       -0.033451155 -0.025028674 0.014050538 0.04351435
000370 13 6b d7 3c 70 20 58 3d af ca 1c bd 4e cf 7b bc
       0.026296174 0.05276531 -0.03827923 -0.0153692495
000380 43 1b 67 3d 75 ff 30 3c b8 e1 d7 bc bc f4 76 3c
       0.056422483 0.010803093 -0.026352748 0.015072998
000390 c2 11 f9 bb db 44 9f 3c e4 5e 90 3a 1a 26 03 bd
       -0.007600994 0.019442013 0.0011014608 -0.03201876
0003a0 a3 ad b9 bc 34 b1 07 bd e7 84 1e 3d 97 fe 10 3d
       -0.022665804 -0.03312798 0.038700964 0.035399046
0003b0 8b 7a fa 3c 44 b3 9d bd f3 b4 f9 bc 66 12 29 bd
       0.030576011 -0.07700208 -0.030481791 -0.04127731
0003c0 13 73 25 3d 8a 9f c4 3c c5 b2 1e bd b7 e2 5a bd
       0.040392946 0.024001855 -0.038744707 -0.05343887
0003d0 f5 d7 bf 3c 55 bf bd bc 20 07 76 bd 90 dc 96 3c
       0.023418406 -0.023162523 -0.06006539 0.01841572
0003e0 62 49 79 bd d3 82 a4 3c f8 59 76 bd cd 79 93 bd
       -0.060861 0.020081913 -0.060144395 -0.07200966
0003f0 49 ff 2e 3d 00 64 45 bb 2e 8d 12 3d fc 0a 97 bd
       0.042723928 -0.003011942 0.03577917 -0.07375142

conv1.bias f4 [6]
000000 3f 9b b6 3c d4 51 ab bc 9f 25 0d 3b a3 68 ce 3c
       0.022290824 -0.020913042 0.0021537316 0.025196379
000010 47 dd b0 3d eb 8e 93 3d
       0.08635955 0.07204994

fc1.weight f4 [1, 7938]
000000 a1 3c 8c bc 0d 60 f2 bb 67 1d 96 3b 04 51 da 3b
       -0.017118754 -0.007396704 0.0045811418 0.00666249
000010 4f a2 81 3c c7 66 5f 3c bb 5f 9c bb fb 05 40 bc
       0.015824465 0.013635344 -0.004772154 -0.011720176
000020 8e bf b0 3a 45 cf 75 bb ff 52 69 3c d5 11 96 bb
       0.0013484822 -0.0037507575 0.014240979 -0.0045797625
000030 dc 02 37 3c 5f 7c 91 3b 47 d2 8b 3c 97 a3 93 bc
       0.011170115 0.004439875 0.017068041 -0.018022342
000040 dd 88 21 3c c4 df f6 3b 1e 9e c9 bb c7 e5 22 3c
       0.009859291 0.007533999 -0.0061528822 0.0099424785
000050 53 31 41 3c 06 7f d3 3c 45 ec 43 3c af 25 d9 3b
       0.011791545 0.025817405 0.0119581865 0.0066268067
000060 f0 e8 29 3c c9 87 d5 3b 3c a7 88 3b 13 a8 10 bb
       0.010370478 0.006516431 0.0041703265 -0.0022072836
000070 fe 9f 99 3c 1c 00 88 3a be 3a c4 39 c3 ec 7c 3b
       0.018753048 0.0010376009 0.000374278 0.003859327
000080 f7 ee 19 3c d0 f7 2d bb 12 d2 4f bb 91 b1 4c bc
       0.009395353 -0.0026545413 -0.0031710905 -0.012493507
000090 83 6a 9e 3b e0 9a 8e bc f8 2e 34 bb 07 5c 34 3c
       0.0048344745 -0.017407835 -0.0027493816 0.011008269
0000a0 81 08 a7 3b 42 61 00 3c 73 ec cb 3a 7d 99 39 3c
       0.0050974493 0.007835688 0.0015558138 0.011328098
0000b0 69 07 1c 3c ed 92 2c bc 26 8e 92 bc 21 16 df 3b
       0.009523251 -0.010533077 -0.017890047 0.006808058
0000c0 1f 0c 4a 3c ee a1 97 bb 79 52 c0 3c 9d 09 9a bb
       0.012331991 -0.004627458 0.023476826 -0.004700853
0000d0 e7 bc 2b bc be 4c 16 3c be 69 35 3c 9c 74 8d bb
       -0.01048205 0.00917357 0.011072574 -0.0043168794
0000e0 aa fb a5 bb 66 4f 52 bb 0c 07 2d ba 81 94 91 3c
       -0.005065401 -0.0032090782 -0.00066004763 0.017771007
0000f0 83 b3 2f 3c b7 dd 93 3c cf e8 51 3b 00 92 1d bb
       0.010723951 0.018050058 0.0032029634 -0.0024043322
000100 1e 1d 94 3b 35 a3 de b9 5c e7 1c ba c3 05 af ba
       0.0045200726 -0.00042464738 -0.0005985403 -0.0013353158
000110 bf 6b 54 bc 65 d7 4e bb b3 0e e9 b9 d2 cc 0a bb
       -0.012965142 -0.003156149 -0.00044452175 -0.0021179211
000120 6d 06 17 bc 0b d4 d6 ba d0 85 83 3a 10 b6 fc 3a
       -0.009217841 -0.0016390098 0.0010034386 0.0019280333
000130 6f 3a 87 3b e8 da 43 3c ce a5 09 3c b2 25 86 bb
       0.004126839 0.011954047 0.008401347 -0.004093849
000140 49 2d ce 3a d3 e7 b0 bb e7 be 82 bc 1c 1c b9 ba
       0.0015730049 -0.0053987294 -0.01596017 -0.0014122757
000150 4e 90 91 3b 30 55 41 3b 81 2a 11 bc d4 7c d5 ba
       0.0044422513 0.0029500239 -0.008860231 -0.0016287812
000160 56 0f 2d bb 73 b5 82 3a dc 65 f6 b9 78 27 ff bb
       -0.0026406846 0.0009972289 -0.00046996668 -0.0077866875
000170 0b c0 8e bb 2c d5 58 bc 90 6f 92 bc e3 3e a4 3b
       -0.0043563894 -0.013234418 -0.017875463 0.0050123795
000180 9a 67 90 3c 4e e5 54 3a 78 49 ab bb 02 02 20 bb
       0.017627526 0.0008121327 -0.005227264 -0.002441526
000190 96 60 8f 3c d9 c1 29 bc d5 99 b7 39 f3 1d d3 3b
       0.01750211 -0.010361158 0.00035019094 0.006442779
0001a0 dd 88 0d 3c 81 f7 b7 bb 4a 50 29 3c af 0d 93 ba
       0.008638588 -0.0056142216 0.010334084 -0.0011219288
0001b0 6b 28 a8 3b af a5 3d 3c 7c 29 57 3c c3 f4 31 3c
       0.0051317713 0.011575147 0.013132449 0.010861578
0001c0 24 c1 4b bc 23 a3 b2 bb 48 70 df bb 8f 2f 66 bb
       -0.012436185 -0.0054515763 -0.006818805 -0.0035123562
0001d0 ef ed 16 bc e7 7b e9 3b 6b ca db 3b 7e d6 9f bb
       -0.009212001 0.007125366 0.0067074797 -0.0048778644
0001e0 5e d6 86 bc a3 e0 b7 bc 50 77 40 3c cf d6 09 bc
       -0.01645964 -0.022445982 0.011747196 -0.008413031
0001f0 b3 81 0d 3c a1 e1 d3 3b e6 7c d8 bb c2 6e 6e bb
       0.00863688 0.006466106 -0.006606686 -0.0036381935
000200 3b d7 72 3b 1b 41 17 bc b6 41 03 bc 07 c9 03 3c
       0.0037054557 -0.009231831 -0.008011272 0.008043534
000210 65 d7 04 3c 6f cb 12 3b 10 c2 42 3c 01 13 3e bc
       0.008107995 0.0022399088 0.011887088 -0.011601211
000220 cf 81 05 b8 c5 3e 1a ba 8b f9 76 3c ce d6 8f 3b
       -3.1830565e-05 -0.0005883987 0.015074144 0.0043896204
000230 c4 5d e1 ba f1 68 a2 bc 40 71 01 3c 9e 9f e6 3b
       -0.0017194082 -0.01982543 0.007900536 0.007038071
000240 c9 a4 30 3c 01 93 96 3a 61 4e ab bb b8 df 40 bc
       0.010781475 0.0011487902 -0.0052278494 -0.011772089
000250 dd ba f8 bb 75 eb 01 3c df f2 57 3b 69 6f 91 3c
       -0.007590635 0.0079296725 0.003295116 0.01775332
000260 34 9b a7 3c 7b b2 76 3b 93 00 22 bb cd 9c 11 bb
       0.020459749 0.0037643004 -0.002471958 -0.0022218705
000270 c9 a1 01 bc f9 ea a5 bb 06 77 23 3c e4 0d 92 3b
       -0.007912108 -0.0050634113 0.009977108 0.0044572223
000280 43 55 2d ba ac 51 31 bc 13 17 b5 ba 22 b7 c1 bb
       -0.0006612131 -0.010822695 -0.0013816081 -0.0059117237
000290 a9 8d 7e bc 96 13 1a 3c d8 be aa bb 38 c9 f8 3a
       -0.015536704 0.009404084 -0.0052107386 0.0018980866
0002a0 e0 9a 19 3c 94 b1 50 bb ce 7a 26 bc 0f 4c 0b 3b
       0.009375304 -0.0031844126 -0.010161115 0.0021255051
0002b0 fd f3 b3 3a 90 df 3e 3b e6 8f 94 3b a6 ff b2 bc
       0.001372933 0.0029124953 0.0045337556 -0.021850418
0002c0 71 d8 2e 3b 8a 16 95 3b 65 f4 fc 3b d3 a4 ad b9
       0.0026679302 0.004549806 0.007719564 -0.00033119935
0002d0 b8 5f 1a bc 67 9c 22 3c c2 b5 0f 3c d9 88 91 bc
       -0.009422235 0.009924985 0.008771362 -0.01776545
0002e0 49 0d 92 3a ce 51 aa 3c fa a7 0c 3c ab a8 1c bc
       0.0011142875 0.02079096 0.008584971 -0.009561698
0002f0 24 25 9a ba 80 9b 85 3a cb 15 0a 38 c9 ee 6e 3b
       -0.0011760336 0.0010193437 3.292206e-05 0.0036458245
000300 17 a0 9f bc e4 8f b6 3a 4e 89 20 3c 2b 64 70 3b
       -0.019485516 0.0013928381 0.009798361 0.0036680799
000310 c9 fc 29 bc 98 cf ef bb 10 0a d4 b9 3d 17 fb b7
       -0.01037521 -0.0073184483 -0.00040443288 -2.9932353e-05
000320 a7 22 7d bb c8 61 1b 3c b0 a0 39 bb 87 61 74 bb
       -0.003862539 0.009483762 -0.0028324537 -0.0037289576
000330 64 e0 0e 3c f3 37 b5 bb 80 30 34 bb b6 49 af ba
       0.008720491 -0.0055303513 -0.0027494729 -0.0013373408
000340 3a e4 b7 bb 03 f2 4b ba 2c 06 05 bc 03 78 e5 3b
       -0.0056119235 -0.0007779898 -0.008119147 0.007002832
000350 29 ce a6 bc a8 87 ce 3a 1e ce 02 3b b9 3b 06 3c
       -0.020361977 0.0015756981 0.0019959281 0.00819295
000360 85 52 17 bc c0 18 6c bb 96 5a 20 3c d6 50 b8 3a
       -0.009235983 -0.0036025494 0.009787222 0.0014062177
000370 29 0e 37 bb b4 16 0d 3c ad 13 1d 3c a9 ae a8 ba
       -0.0027932024 0.00861137 0.009587211 -0.0012869436
000380 06 a7 2d 3c a0 a9 6c bb 77 09 90 3b 42 55 54 3c
       0.0105989035 -0.0036111847 0.0043956595 0.01295978
000390 62 5e 87 bc a0 50 2f 3c eb 55 34 b9 73 f8 a6 bb
       -0.016524497 0.010700375 -0.00017198145 -0.0050955354
0003a0 46 82 12 bc 83 a6 b1 3c e2 5d 8d ba 02 67 ad 3b
       -0.008942192 0.021685844 -0.0010785426 0.0052918205
0003b0 12 da 18 3c d9 fb da 3b 0d 89 88 3b 30 b3 91 3c
       0.009329336 0.0066828546 0.0041667284 0.017785639
0003c0 31 e1 08 bc 24 c4 18 3c 74 d5 44 bc 9a 2f de 3b
       -0.008354471 0.009324107 -0.012013782 0.006780577
0003d0 72 ff ba ba 49 96 49 bc dd 77 c4 3b 38 4b 04 3c
       -0.0014266802 -0.012303897 0.005995734 0.008074574
0003e0 7e 5b 0e 3c 2c 4e d5 3b 43 ec 09 3c 4e 05 f4 3b
       0.008688806 0.006509563 0.008418146 0.0074469214
0003f0 d7 8b a7 3b 32 67 39 3a 9b 70 4b 3c 7b 18 83 3c
       0.0051131058 0.0007072567 0.012416984 0.016002884
