PythonClient/saved_models/1-2024-05-14.pth (torch, 38520 bytes, 3 tensors)

conv1.weight f4 [6, 3, 8, 8]
0.0036787922 0.06102682 0.0033134439 -0.07720335 0.015343466 -0.021667806 0.059354912 -0.005089348
0.04536164 -0.050653912 -0.02362724 -0.050412208 -0.072665624 -0.07316771 0.023847776 0.03167905
0.0007759659 0.06149554 0.023916647 -0.07802402 0.017038604 -0.068379216 -0.023433851 -0.02200277
-0.01498837 -0.06310956 -0.070263036 -0.059862845 -0.04419719 0.02373601 -0.014317072 -0.05286245
-0.009272678 -0.044762988 0.012619492 -0.082925074 -0.07256776 0.0115476 -0.015928848 0.039027363
-0.037069287 -0.010762556 -0.021470428 0.02443552 -0.011733555 -0.03529438 0.023771612 0.07332001
0.05629806 0.002596169 -0.042454544 0.028775211 0.07175204 0.076477244 -0.022033459 -0.03670931
0.038523972 -0.068608865 -0.06643053 0.035412747 0.017558591 -0.043690115 0.06870248 0.0071437135
0.07995467 0.033976432 -0.00063221063 -0.042654082 0.054030634 -0.06644774 0.028837727 -0.031558417
0.06861617 0.0123612 -0.033209637 -0.0061195935 -0.06408794 -0.045291513 -0.057440806 -0.010459808
0.0765584 0.054861136 0.04944113 0.0037759368 0.03270256 -0.001568148 -0.0126127945 0.022974635
0.013698361 0.024600388 0.0140557755 -0.07952532 -0.02600897 -0.04421545 -0.04344543 -0.048433866
0.0012435534 -0.07726238 -0.057800602 -0.024841154 0.012320428 -0.019480921 0.05487579 -0.05529165
-0.0043544667 0.05112172 -0.03213106 -0.05732325 0.04573714 -0.029038325 -0.0064061237 0.06835709
-0.027800458 0.047364254 -0.023531545 0.06469084 -0.028949557 0.04654124 0.051206328 -0.05593868
-0.014739655 -0.035148297 0.030541187 -0.061568547 0.03015826 -0.046450745 0.013012054 -0.062704206
0.039652906 -0.049904622 -0.05052788 -0.007976439 -0.08947016 -0.02770006 -0.073556155 -0.029351948
-0.04237154 0.008795038 -0.060166724 0.03885994 -0.083780855 -0.05282466 0.010949892 -0.0068203094
0.002691582 0.0240311 -0.016059674 0.049584005 -0.003485608 -0.06213995 -0.019546442 0.057959426
-0.0617977 0.0566473 -0.0789239 -0.048002463 0.009309432 -0.085107744 -0.07384501 0.03347142
0.038376074 -0.008296977 -0.008782675 0.030220773 -0.06548117 0.013337961 -0.08814185 0.02414148
-0.0447229 0.018494768 -0.06398567 -0.05488005 -0.00037833213 0.024004282 -0.0045405147 0.040844254
-0.036962446 0.006688506 -0.04987677 -0.026168177 -0.07657983 -0.04725886 0.034647666 -0.04659607
-0.005719573 -0.08835298 -0.040127896 -0.02130246 -0.01098169 -0.0833584 -0.026086029 0.0069817463
0.047527518 -0.026301933 -0.07167967 -0.0034192773 0.045473628 -0.059112377 0.005383678 0.04122298
-0.078683004 0.010606541 -0.06590286 0.034622326 0.049814824 0.048140556 -0.014929348 -0.011137875
0.0018276199 0.016723312 0.020221362 -0.01674714 0.018316034 -0.045780025 0.005349234 -0.0036688126
-0.060660012 -0.023978153 -0.07157611 0.023520224 0.04106581 0.0455393 0.055905975 -0.07583518
-0.044661 0.020607565 -0.020316672 0.046024945 -0.0024261072 0.032914557 -0.009493587 -0.0690747
0.00399465 0.029979916 -0.008941127 -0.010412629 0.01936814 -0.051009435 -0.020039082 0.05598771
-0.062198695 0.045152903 0.05504523 -0.00019807805 0.002946525 0.010498131 -0.050538395 -0.040002234
-0.0507129 -0.009246755 0.018006619 -0.023652274 -0.010267941 0.037460014 0.007328802 0.027175179
00000000: e417 713b 42f7 793d 5d26 593b ca1c 9ebd
00000010: 2963 7b3c af80 b1bc 231e 733d 8cc4 a6bb
00000020: 21cd 393d 7a7a 4fbd ea8d c1bc 087d 4ebd
00000030: b7d1 94bd f4d8 95bd 695c c33c e4c1 013d
00000040: 316a 4b3a bfe2 7b3d d8ec c33c 0fcb 9fbd
00000050: 8b94 8b3c 670a 8cbd 59f8 bfbc 273f b4bc
00000060: c891 75bc 963f 81bd 11e6 8fbd be32 75bd
00000070: 1d08 35bd 0572 c23c 2792 6abc 4c86 58bd
00000080: 6eec 17bc 6559 37bd fcc1 4e3c 9fd4 a9bd
00000090: 689e 94bd 2532 3d3c 377d 82bc 28db 1f3d
000000a0: f7d5 17bd 6f55 30bc c0e2 afbc 002d c83c
000000b0: 193e 40bc d790 10bd afbc c23c cd28 963d
000000c0: cb98 663d 7d24 2a3b d1e4 2dbd feb9 eb3c
000000d0: bcf2 923d 1aa0 9c3d 837f b4bc 805c 16bd
000000e0: 50cb 1d3d ce82 8cbd bb0c 88bd f50c 113d
000000f0: 09d7 8f3c 68f4 32bd e3b3 8c3d d015 ea3b
00000100: 46bf a33d df2a 0b3d f0ba 25ba 0cb6 2ebd
00000110: 3a4f 5d3d c115 88bd 193d ec3c 6643 01bd
00000120: a286 8c3d a186 4a3c d406 08bd df86 c8bb
00000130: 8a40 83bd 9883 39bd 0d47 6bbd 9d5f 2bbc
00000140: a7ca 9c3d 12b6 603d c882 4a3d b575 773b
00000150: 1ff3 053d 518a cdba e5a5 4ebc 4d35 bc3c
00000160: 176f 603c c186 c93c 324a 663c 2cde a2bd
00000170: c310 d5bc 421b 35bd d6f3 31bd 9762 46bd
00000180: bafe a23a bd3b 9ebd 53c0 6cbd ad7f cbbc
00000190: 9fdb 493c 7496 9fbc 70c5 603d 7f79 62bd
000001a0: eaaf 8ebb 0265 513d dc9b 03bd c9cb 6abd
000001b0: de56 3b3d c8e1 edbc 76ea d1bb cdfe 8b3d
000001c0: c9bd e3bc 0501 423d 3ac5 c0bc a27c 843d
000001d0: 9f27 edbc 07a2 3e3d babd 513d f51f 65bd
000001e0: 987e 71bc a9f7 0fbd 8331 fa3c 4d2f 7cbd
000001f0: 750e f73c 2343 3ebd 8330 553c 106b 80bd
00000200: 166b 223d ca68 4cbd 53f6 4ebd 9caf 02bc
00000210: 223c b7bd 3ceb e2bc 9ca4 96bd 7f73 f0bc
00000220: c88d 2dbd 1019 103c 6271 76bd 9a2b 1f3d
00000230: 4c95 abbd ac5e 58bd 2d67 333c e77c dfbb
00000240: 4165 303b dfdc c43c 948f 83bc 9918 4b3d
00000250: cc6e 64bb 7686 7ebd dc1f a0bc dd66 6d3d
00000260: 961f 7dbd 0007 683d dba2 a1bd 3b9e 44bd
00000270: 9686 183c f84c aebd 0d3c 97bd 5419 093d
00000280: 3b30 1d3d 0bf0 07bc 35e5 0fbc 8e91 f73c
00000290: fe1a 86bd 7787 5a3c b783 b4bd 5ac4 c53c
000002a0: 5c2f 37bd 5782 973c eb0a 83bd e7c9 60bd
000002b0: e15a c6b9 a1a4 c43c 99c8 94bb 4e4c 273d
000002c0: ef65 17bd 412b db3b 954b 4cbd a55e d6bc
000002d0: e3d5 9cbd 8292 41bd b6ea 0d3d 85db 3ebd
000002e0: 416b bbbb 68f2 b4bd 265d 24bd 7f82 aebc
000002f0: 8cec 33bc cfb7 aabd 5eb2 d5bc 22c7 e43b
00000300: 37ac 423d 2777 d7bc cacc 92bd f415 60bb
00000310: 8e42 3a3d d21f 72bd 9069 b03b 6dd9 283d
00000320: 8e24 a1bd 0fc7 2d3c 14f8 86bd 24d0 0d3d
00000330: a10a 4c3d 082f 453d 399a 74bc a27b 36bc
00000340: bf8c ef3a 54ff 883c 45a7 a53c 4c31 89bc
00000350: 820b 963c d683 3bbd a148 af3b 7670 70bb
00000360: a276 78bd d56d c4bc 7f96 92bd 7cad c03c
00000370: 9f34 283d 6b87 3a3d aafd 643d 7a4f 9bbd
00000380: 74ee 36bd 32d1 a83c 266f a6bc a784 3c3d
00000390: 53ff 1ebb 6ad1 063d fd8a 1bbc 0977 8dbd
000003a0: 8ee5 823b 7198 f53c ce7d 12bc bb99 2abc
000003b0: efa9 9e3c 45ef 50bd 0029 a4bc 5e53 653d
000003c0: 0fc4 7ebd 40f2 383d 1b77 613d 2cb3 4fb9
000003d0: 7d1a 413b 5a00 2c3c 5901 4fbd 62d9 23bd
000003e0: 54b8 4fbd b47f 17bc 9e82 933c 6ac2 c1bc
000003f0: de3a 28bc ac6f 193d 7226 f03b 7b9e de3c

conv1.bias f4 [6]
0.2881844 -0.025387146 -0.33183315 0.2660073 -0.0013876909 -0.04404
00000000: e88c 933e b4f8 cfbc 09e6 a9be 1c32 883e
00000010: 2ee3 b5ba 4963 34bd

fc1.weight f4 [1, 7938]
-0.016214384 -0.014876297 -0.0039207335 -0.014141558 0.011653192 -0.0037656866 -0.0019232868 -0.011451565
-0.019926518 -0.01774414 -0.004029392 -0.020403048 -0.0027060527 0.015245465 0.016191917 0.026568368
0.01034913 0.030999795 0.020601923 0.0071769496 0.013764591 0.029090991 0.011471899 0.014129796
0.0067131175 -0.01928194 -0.012777032 -0.010314465 0.0272351 -0.0025560085 -0.016616225 -0.010694272
0.003001601 -0.014204692 -0.0032287901 -0.021297865 -0.01073049 -0.027764339 -0.018455716 -0.018298319
-0.00712531 -0.013052374 -0.0055149184 -0.020851238 -0.03492597 -0.01724658 -0.007887112 -0.02191909
-0.014413911 -0.011049691 0.014330477 -0.002244295 0.008839224 0.007972392 -0.0014671668 0.0035937373
-0.0048208614 -0.012114341 -0.008057265 -0.014973005 0.0051821014 -0.00870827 0.020414682 0.0011770284
0.000674718 0.013062015 0.01767398 0.003670633 0.031424887 0.02978336 0.02345131 0.032706738
0.01653294 0.003154854 -0.0029280365 -0.0042023715 -0.001454731 -0.002297018 0.0061453637 0.004635146
-0.005286063 -0.0053850017 -0.016346676 -0.0006371944 -0.0032041317 -0.008592404 -0.02540898 -0.018160181
-0.0063812756 -0.012368684 0.0010998826 -0.020911453 -0.015060237 -0.018955562 -0.012279307 -0.009792909
-0.008138634 -0.026891286 0.025201151 0.032893706 0.017408073 -0.007957043 -0.04450629 0.016112125
-0.0007447109 0.0010417969 0.01373013 -0.0056984005 0.025440086 -0.0018087155 -0.004839344 -0.011789401
0.013738742 0.020603674 0.007167071 0.010897404 0.020756599 0.0046434356 0.025901273 0.022070155
0.031112839 0.015930675 0.02858044 0.025126306 -0.0016067566 0.010713429 -0.0041882307 -0.006045817
0.006163793 0.0036427074 0.0037765484 0.009004377 -0.01919417 -0.014439943 -0.008448438 -0.023069924
-0.021359265 -0.022594806 -0.013831558 -0.021252645 -0.023264857 -0.014575716 -0.031694278 -0.009396721
-0.011120852 -0.022667512 -0.00015308104 -0.0019236627 0.008201909 0.0061529577 -0.003878805 0.02011954
0.013361511 0.0035291612 0.0281878 0.036583234 0.016519388 0.020591626 0.0070192437 0.020467127
-0.0038453762 -0.004029884 0.017149035 0.029751405 0.006526634 0.020135198 0.024214953 0.020851117
0.032387476 0.01662852 0.010755033 0.0035101173 0.0013083583 -0.0001220933 -0.018752601 0.002563408
0.003565938 0.011810357 0.009363062 0.0059240395 -0.0014751733 -0.019897165 -0.015265025 -0.01168198
-0.02202136 -0.01710794 -0.019652147 0.013103219 -0.012425895 -0.0062937923 -0.027606186 -0.018638333
0.00079571904 -0.01105669 -0.00097307656 -0.022601718 -0.02132712 -0.014199048 0.016978223 0.015998363
0.010437297 0.007668038 -0.0027644322 0.013509486 0.032717917 0.0050247167 0.008726425 0.013536987
-0.016083015 -0.0059635052 0.013696764 0.005433805 0.018705098 -0.0005026552 0.009814936 0.010243448
0.0052294307 0.015500884 0.030567337 0.0067373137 0.021840135 0.014417843 0.0049728043 -0.012961401
0.002852623 0.031316984 0.014290139 0.011287322 0.005329464 -0.014142843 0.0016543146 -0.0057994584
-0.014749066 -0.0064543677 -0.0040379683 -0.012012226 -0.014852928 -0.009553558 -0.0026020205 -0.005823854
0.004079571 0.0037660366 -0.01886464 -0.0023681233 0.0011084402 0.003652727 0.009006217 0.018142259
0.011284473 -0.0016469217 0.011715744 0.014980815 -0.001959333 -0.013991691 0.022410177 0.029444072
00000000: 07d4 84bc b6bb 73bc 7f79 80bb feb1 67bc
00000010: 08ed 3e3c bdc9 76bb cc16 fcba 589f 3bbc
00000020: f03c a3bc 295c 91bc fd08 84bb 4b24 a7bc
00000030: 0858 31bb 1dc8 793c e9a4 843c e8a5 d93c
00000040: 668f 293c 48f3 fd3c 5dc5 a83c 9e2c eb3b
00000050: e184 613c 3b50 ee3c a2f4 3b3c a980 673c
00000060: b6f9 db3b 29f5 9dbc c256 51bc 00fe 28bc
00000070: 251c df3c b582 27bb c01e 88bc 0737 2fbc
00000080: 82b6 443b ccba 68bc 1c9a 53bb dc78 aebc
00000090: f0ce 2fbc 0a72 e3bc 7130 97bc 5be6 95bc
000000a0: 6f7b e9bb a0d9 55bc 7db6 b4bb 37d0 aabc
000000b0: 890e 0fbd b348 8dbc f238 01bc aa8f b3bc
000000c0: 5328 6cbc c309 35bc 61ca 6a3c 0615 13bb
000000d0: 65d2 103c a39e 023c f34d c0ba e884 6b3b
000000e0: 51f8 9dbb 3b7b 46bc 9e02 04bc 5651 75bc
000000f0: 9ece a93b 22ad 0ebc b13c a73c 8546 9a3a
00000100: 8fdf 303a 1002 563c 06c9 903c 018f 703b
00000110: 62b7 003d 3cfc f33c f61c c03c 80f7 053d
00000120: 1770 873c abc1 4e3b 4de4 3fbb 0cb4 89bb
00000130: acac beba 9189 16bb 0c5f c93b 6ce2 973b
00000140: b636 adbb ab74 b0bb 77e9 85bc 6409 27ba
00000150: 69fc 51bb 28c7 0cbc 7e26 d0bc a9c4 94bc
00000160: 051a d1bb 05a6 4abc f029 903a 7f4e abbc
00000170: 36bf 76bc b248 9bbc 252f 49bc 7072 20bc
00000180: e857 05bc 1d4b dcbc a572 ce3c 8dbb 063d
00000190: 609b 8e3c 425e 02bc 3a4c 36bd 93fd 833c
000001a0: b438 43ba e78c 883a 57f4 603c a6b9 babb
000001b0: ba67 d03c 6c12 edba 5c93 9ebb 5528 41bc
000001c0: 7618 613c 09c9 a83c c0d9 ea3b 068b 323c
000001d0: be09 aa3c f627 983b e82e d43c 78cc b43c
000001e0: 5ae0 fe3c 0c81 823c 8721 ea3c afd5 cd3c
000001f0: ce99 d2ba 6187 2f3c 6d3d 89bb fd1b c6bb
00000200: a5f9 c93b 7dba 6e3b f87f 773b 1887 133c
00000210: 183d 9dbc 8395 6cbc 516b 0abc 23fd bcbc
00000220: a0f9 aebc be18 b9bc c29d 62bc 071a aebc
00000230: f195 bebc fcce 6ebc dcd1 01bd b4f4 19bc
00000240: 3c34 36bc 38b1 b9bc 6184 20b9 6923 fcba
00000250: 4d61 063c c09e c93b 8d33 7ebb bcd1 a43c
00000260: 3dea 5a3c 8049 673b 1aea e63c 4dd8 153d
00000270: ab53 873c c5af a83c af01 e63b adaa a73c
00000280: b502 7cbb 1e0d 84bb 227c 8c3c 38b9 f33c
00000290: 60dd d53b 92f2 a43c 705e c63c f6cf aa3c
000002a0: bba8 043d 8938 883c e135 303c ff09 663b
000002b0: 387d ab3a 2c06 00b9 0e9f 99bc dafe 273b
000002c0: 83b2 693b 3a80 413c 8767 193c 721e c23b
000002d0: 9a5a c1ba 61ff a2bc 281a 7abc c765 3fbc
000002e0: 2466 b4bc f325 8cbc 8afd a0bc e2ae 563c
000002f0: fb95 4bbc 283c cebb 5e26 e2bc 6baf 98bc
00000300: cd97 503a 1e27 35bc 1016 7fba 3d27 b9bc
00000310: 36b6 aebc 20a3 68bc ea15 8b3c 000f 833c
00000320: 3201 2b3c 2a44 fb3b 7a2b 35bb e456 5d3c
00000330: 3903 063d 61a6 a43b 47f9 0e3c 3dca 5d3c
00000340: 87c0 83bc 8269 c3bb 6468 603c 0f0e b23b
00000350: 6f3b 993c 9fc4 03ba d3ce 203c 23d4 273c
00000360: a55b ab3b 6bf7 7d3c 5a68 fa3c afc4 dc3b
00000370: 15ea b23c d138 6c3c e8f2 a23b 0e5c 54bc
00000380: 12f3 3a3b 3d46 003d 3021 6a3c 76ee 383c
00000390: c9a2 ae3b 62b7 67bc 96d5 d83a 6209 bebb
000003a0: 11a6 71bc 297f d3bb ef50 84bb edce 44bc
000003b0: b259 73bc 8786 1cbc a986 2abb 07d6 bebb
000003c0: ecad 853b 9ccf 763b 048a 9abc 8432 1bbb
000003d0: 1549 913a 9762 6f3b d08e 133c 139f 943c
000003e0: 83e2 383c 86dd d7ba 64f3 3f3c 1872 753c
000003f0: 2768 00bb 683d 65bc 8c95 b73c b234 f13c
