PythonClient/saved_models/1-2024-05-12.pth (torch, 38520 bytes, 3 tensors)

conv1.weight f4 [6, 3, 8, 8]
-0.0018020843 0.015668923 0.014049142 0.044438913 -0.05549979 0.066218376 -0.055495515 -0.050438132
0.08163161 -0.025043456 -0.050449334 0.06643662 0.01481163 0.07574283 -0.048711836 -0.038191136
-0.03039989 0.013135079 0.06190633 0.04714402 0.036202844 0.057022832 -0.058155157 -0.025100853
0.061626047 0.077818796 0.030803088 0.01377282 0.042681668 -0.019975413 -0.03365143 0.026605017
0.0054255924 -0.06339605 -0.026038291 0.020527342 0.010445986 -0.056699194 0.01612184 -0.048929896
-0.024908695 -0.0650201 0.026683746 -0.02829224 0.049325533 -0.044053987 -0.048632108 0.016829213
0.010641143 -0.050263986 -0.044073272 -0.018121522 -0.063913405 -0.01070231 -0.054715954 -0.059700023
-0.013253703 0.0017129995 0.00084287574 -0.045681078 0.021995101 0.047518246 -0.02055572 -0.0013414475
0.006543871 0.08300025 0.02974899 0.007609288 -0.047685783 0.033433218 0.012588176 -0.074478604
-0.039096616 -0.056423146 -0.007011799 0.00555668 0.06807022 0.047697283 -0.04046248 -0.0719707
0.02250034 0.058809157 -0.029730638 -0.015748363 -0.031090267 -0.027078606 0.007645227 0.019447096
0.045983054 -0.045152023 -0.0368082 0.040292244 0.017072363 -0.061176162 0.028610792 -0.04302186
-0.064156644 -0.020697188 -0.013767689 0.06674762 0.014486481 -0.024825037 -0.051062107 0.042338926
-0.0217077 0.01330499 0.006554409 -0.03245781 -0.05287927 -0.022977525 0.032095738 -0.07570806
0.02281194 -0.06842118 0.06371256 0.057554167 -0.01666755 -0.04059888 0.057950005 -0.04505112
-0.015873834 -0.040120933 -0.0022648408 0.012142615 -0.043062497 -0.021092875 0.009591254 -0.04202805
0.070006 0.030258825 -0.0007988543 -0.037820395 0.015468502 0.004649789 0.015286655 -0.021381924
0.06107678 -0.044965666 0.022183156 0.0119992765 0.07488514 -0.020894712 0.06138098 0.03903712
0.04450367 0.021314912 0.026358679 0.08043395 0.072928265 -0.026389338 -0.037339963 0.056936737
0.007340473 0.019806454 -0.01825395 0.06196621 -0.041655395 -0.06524167 0.033676047 0.03249344
0.05044674 0.030123943 0.07398298 0.024378715 -0.020795519 0.01798393 -0.012015935 -0.0074965223
0.0012915971 -0.013070951 0.0005030108 0.009172518 -0.07237876 0.01772096 -0.050218944 -0.084380224
-0.02596294 0.023249451 0.020412425 0.061037164 0.02266575 0.017857188 0.010358124 -0.07848325
0.037853427 -0.06225152 0.007848147 -0.060762446 -0.020754617 -0.058592748 -0.023570437 0.021072026
-0.06279752 -0.0007881001 -0.062812366 -0.054596633 -0.057348236 0.073063135 -0.03960793 0.06760501
-0.071320884 -0.0024247817 0.04246477 0.057587676 -0.0085951965 -0.058540903 -0.007184376 -0.056971606
0.0032123658 0.040172663 0.038241554 0.016807305 0.063826606 0.047028955 -0.05133823 0.034032367
0.005977563 0.04800797 0.08081203 -0.047350906 -0.01122207 -0.060363263 -0.008587748 -0.040269755
-0.0046640425 0.019271476 0.021529123 0.0086885225 -0.021269605 0.008383957 0.018295186 -0.06365939
0.040853605 -0.0238659 -0.029555565 -0.026686767 0.028951604 -0.009135672 -0.034111783 0.032990236
-0.01965887 0.00031647962 -0.03515668 0.06570135 -0.035703517 -0.04886461 -0.03766083 -0.030241275
0.07812381 -0.056198046 0.035157222 0.053495727 0.01739787 0.065802194 -0.032997783 0.035963606
00000000: ea33 ecba 1d5c 803c 5f2e 663c 9405 363d
00000010: bf53 63bd 809d 873d 444f 63bd 3798 4ebd
00000020: 792e a73d ef27 cdbc f6a3 4ebd ec0f 883d
00000030: 7bac 723c 0f1f 9b3d 1086 47bd 4f6e 1cbd
00000040: 3109 f9bc 8434 573c 7e91 7d3d 171a 413d
00000050: 6f49 143d c690 693d 1a34 6ebd 4ea0 cdbc
00000060: 986b 7c3d 765f 9f3d c256 fc3c 65a7 613c
00000070: f9d2 2e3d 7aa3 a3bc 15d6 09bd c4f2 d93c
00000080: 2bc9 b13b cad5 81bd 414e d5bc f528 a83c
00000090: a425 2b3c 6a3d 68bd f311 843c b76a 48bd
000000a0: 520d ccbc 4229 85bd df97 da3c 21c5 e7bc
000000b0: 9209 4a3d f471 34bd 7632 47bd 6bdd 893c
000000c0: 3058 2e3c 9ce1 4dbd 2d86 34bd 9673 94bc
000000d0: 08e5 82bd be58 2fbc d61d 60bd 0388 74bd
000000e0: 0f26 59bc ba86 e03a 6ff4 5c3a 151c 3bbd
000000f0: 122f b43c 7ea2 423d 7864 a8bc 82d3 afba
00000100: f86d d63b 09fc a93d 27b4 f33c 5657 f93b
00000110: 2b52 43bd 45f1 083d a33e 4e3c 3d88 98bd
00000120: c623 20bd f51b 67bd 3cc3 e5bb cf14 b63b
00000130: 6668 8b3d 3a5e 433d fcbb 25bd 6065 93bd
00000140: a252 b83c dfe1 703d ab8d f3bc b602 81bc
00000150: 04b1 febc f4d3 ddbc d084 fa3b 844f 9f3c
00000160: ba58 3c3d 54f1 38bd 32c4 16bd 7b09 253d
00000170: 57db 8b3c db93 7abd 2e61 ea3c b137 30bd
00000180: 8f64 83bd 268d a9bc df91 61bc fab2 883d
00000190: b558 6d3c e05d cbbc 8026 51bd 956b 2d3d
000001a0: 59d4 b1bc 2cfd 593c 5ec6 d63b 7bf2 04bd
000001b0: ef97 58bd 5d3b bcbc d276 033d d40c 9bbd
000001c0: 1be0 ba3c 6720 8cbd bb7b 823d ebbd 6b3d
000001d0: 638a 88bc 034b 26bd fc5c 6d3d 8687 38bd
000001e0: d809 82bc d955 24bd b96d 14bb d2f1 463c
000001f0: 4d62 30bd f7ca acbc a324 1d3c 9b25 2cbd
00000200: 4e5f 8f3d 5be1 f73c 346a 51ba 8fe9 1abd
00000210: 9a6f 7d3c 425d 983b e174 7a3c 2529 afbc
00000220: a52b 7a3d eb2d 38bd 73b9 b53c 9d98 443c
00000230: 615d 993d 632b abbc 9f6a 7b3d 63e5 1f3d
00000240: 7b49 363d 9c9c ae3c 28ee d73c 8eba a43d
00000250: 6a5b 953d 742e d8bc caf1 18bd 7f36 693d
00000260: 5a88 f03b 2541 a23c 4f89 95bc 48d0 7d3d
00000270: d99e 2abd 6d9d 85bd e5ef 093d d717 053d
00000280: 3ea1 4e3d 7dc6 f63c 6384 973d dfb5 c73c
00000290: 5d5b aabc 0953 933c 7cde 44bc 63a5 f5bb
000002a0: cf4a a93a 8b27 56bc 7cdc 033a 5448 163c
000002b0: 513b 94bd 8c2b 913c 61b2 4dbd 8acf acbd
000002c0: 3bb0 d4bc a275 be3c f537 a73c 1b02 7a3d
000002d0: 86ad b93c 3d49 923c 1fb5 293c d4bb a0bd
000002e0: 320c 1b3d 73fb 7ebd 8495 003c 0be2 78bd
000002f0: 9605 aabc f3fe 6fbd ca16 c1bc 3e9f ac3c
00000300: fc9b 80bd 8198 4eba c5a3 80bd b8a0 5fbd
00000310: fce5 6abd 20a2 953d ed3b 22bd 7f74 8a3d
00000320: af10 92bd 16e9 1ebb 8aef 2d3d 0ee1 6b3d
00000330: ded2 0cbc 96c8 6fbd ea6a ebbb 0f5b 69bd
00000340: 8e86 523b 178c 243d 2da3 1c3d 79af 893c
00000350: 86b7 823d 6fa1 403d 0948 52bd 8665 0b3d
00000360: 6fdf c33b 01a4 443d c780 a53d 06f3 41bd
00000370: c6dc 37bc 783f 77bd a0b3 0cbc e6f1 24bd
00000380: d3d4 98bb 37df 9d3c d85d b03c 4e5a 0e3c
00000390: 983d aebc dd5c 093c c9df 953c db5f 82bd
000003a0: 1c56 273d 6b82 c3bc 831e f2bc 359e dabc
000003b0: ea2b ed3c c9ad 15bc ccb8 0bbd c520 073d
000003c0: a30b a1bc 2ded a539 7300 10bd 6e8e 863d
000003d0: da3d 12bd 4226 48bd 3e42 1abd 8dbc f7bc
000003e0: 60ff 9f3d ec2f 66bd 0501 103d 561e 5b3d
000003f0: fa85 8e3c 4dc3 863d af28 07bd 934e 133d

conv1.bias f4 [6]
0.013938492 -0.02449173 -0.007472895 0.2756452 0.027433485 -0.0643832
00000000: 465e 643c e1a2 c8bc 30df f4bb 5e21 8d3e
00000010: 30bc e03c 57db 83bd

fc1.weight f4 [1, 7938]
-0.011308896 0.0012252209 -0.0003965123 0.012094681 0.005175986 -0.008805934 -0.0042353324 0.003029745
-0.0071995878 -0.010112587 0.009909427 0.008797781 0.0032537065 -5.4435823e-05 0.004111206 -0.005515077
0.004182278 0.006054706 0.012539909 0.008039872 -0.004719114 -0.009158314 -0.008004175 0.011879858
-0.025317023 -0.0031892646 -0.0070837988 -4.032871e-05 -0.015846357 -0.015433863 -0.01014893 0.014582704
0.0022853988 0.006963539 0.004835185 -0.019568201 -0.015030185 -0.0054408717 0.016762907 -0.0019214507
0.008970895 0.017032899 0.001060994 0.0022069698 0.009291231 0.0073052323 0.0024113422 0.0053785406
0.0028557952 -0.0015341843 -0.0001646235 0.0059756576 0.011656636 -0.0010911135 -0.005056141 -0.0021501265
0.0053252256 -0.00019419807 0.0030318291 0.00033366084 -0.0053624185 0.0017903488 -0.0025549694 0.0025112035
-0.0005680826 0.009198795 -0.007393239 0.0052752183 0.004267598 0.013116136 0.001030534 -0.013141993
0.0009377875 -0.020364532 0.006948746 0.016781421 0.010748952 -0.0036630596 0.02044143 0.015295258
0.01490265 -0.009247953 -0.0040031304 0.0072284164 -0.01885405 0.0014102464 -0.00224413 0.015354827
-0.005112885 -0.002132661 -0.003679571 0.011021416 0.0068850974 0.013135645 -0.0071942783 0.0080090985
0.014414001 0.008526044 0.008734102 -0.0060212826 0.008118779 0.00070972304 -0.009594846 -0.006152029
0.007646857 -0.0076292125 0.0008546964 -0.0005101538 -0.003274301 0.0081499545 0.00703358 -0.010920451
0.01029545 -0.005878362 -0.0148147885 0.005988166 0.006542041 0.0035457206 -0.0009315265 -0.0040299715
0.0014569829 0.011403469 0.005648762 -0.0010444042 -0.0022838735 0.008079765 0.006791081 -0.01836941
0.0033194683 0.0043437565 0.0022324973 0.0105054015 0.007731841 0.0046792137 0.014346367 0.0026607707
-0.009647728 -0.007424348 0.01934498 0.01727261 0.0023225136 -0.0045932955 -0.013886056 -0.0017917982
-0.006574884 -0.015979214 -0.00032544584 0.0078918915 -0.0027863653 -0.0049776696 0.0027546019 -0.0034354497
-0.0015427382 0.006451313 -0.00013662063 0.0052297516 -0.0070694415 -0.007704653 -0.00432605 0.0002209817
0.007615103 -0.0073806145 0.0011530776 -0.008977139 -0.0007758689 0.0058671227 0.00028760347 -0.0002808241
-0.0068144123 0.0060659107 0.0004202387 -0.0045159506 0.0017045869 -0.014889472 -0.009234717 0.015045407
-0.013722068 0.002891844 -0.016372278 -0.014870983 -0.0038151734 -0.014404322 0.014444305 0.004958828
0.0023068362 -0.003795314 -0.0066538486 -0.007563348 -0.00054912467 -0.0027337975 -0.018046767 -0.00028726863
0.027499558 0.0057590343 0.0016370593 0.0013836093 -0.0051010316 -0.0039720465 -0.0070258225 0.0026137154
-0.010629052 -0.0020694507 -0.00010531488 -0.0014109956 -0.011611192 -0.009004454 -0.0076536057 0.0023123804
-0.0063327635 -0.007950272 0.005559811 0.0045820777 -0.0038198277 0.0024532294 0.0020183043 0.010136173
0.009245042 0.010290356 0.011878829 -0.014016496 -0.0070522414 0.002612581 -0.005079436 0.0054308027
-0.0073419935 -0.0029341627 0.004526329 -0.010847995 -0.0164057 0.0010715013 -0.00028568818 -0.0057445783
0.007979536 0.0075945836 -0.009762625 0.0046855425 -0.017040608 -0.0019338774 0.012782718 -0.012150717
-0.0033837347 -0.0074542128 0.00842229 0.012199957 0.004135944 0.008150266 -0.0025075388 -0.008097457
0.0008925739 0.0058478536 0.00042909948 -0.0014588605 -0.004932035 -0.0040035145 -0.009914313 -0.014389906
00000000: f348 39bc 9797 a03a fbe2 cfb9 c528 463c
00000010: 519b a93b c446 10bc 8bc8 8abb b08e 463b
00000020: 85ea ebbb 44af 25bc 265b 223c 9124 103c
00000030: 233c 553b 0552 64b8 4cb7 863b d2b7 b4bb
00000040: 7e0b 893b 8e66 c63b 3174 4d3c abb9 033c
00000050: cca2 9abb c10c 16bc f123 03bc bca3 423c
00000060: a565 cfbc fb02 51bb 361f e8bb 9f26 29b8
00000070: 38d0 81bc 50de 7cbc b347 26bc 4bec 6e3c
00000080: a1c6 153b 662e e43b 7970 9e3b 7e4d a0bc
00000090: 2a41 76bc 5749 b2bb 5d52 893c 30d9 fbba
000000a0: a9fa 123c 9488 8b3c 0d11 8b3a cfa2 103b
000000b0: 3f3a 183c bb60 ef3b 9c07 1e3b 783e b03b
000000c0: 4b28 3b3b af16 c9ba c99e 2cb9 73cf c33b
000000d0: 7afb 3e3c b203 8fba fcad a5bb 23e9 0cbb
000000e0: 3b7f ae3b a6a1 4bb9 a7b1 463b 33ef ae39
000000f0: 3ab7 afbb 23aa ea3a 4671 27bb 0193 243b
00000100: 61eb 14ba 8bb6 163c fc42 f2bb bddb ac3b
00000110: 35d7 8b3b 10e5 563c fc12 873a 8451 57bc
00000120: dbd5 753a 85d3 a6bc 4eb2 e33b 3179 893c
00000130: 5f1c 303c f10f 70bb c974 a73c f698 7a3c
00000140: 3f2a 743c ba84 17bc b12c 83bb 5adc ec3b
00000150: cf73 9abc 04d8 b83a 4112 13bb d092 7b3c
00000160: fd89 a7bb 1dc4 0bbb f524 71bb 2b93 343c
00000170: 629c e13b e336 573c fbbd ebbb 9838 033c
00000180: b428 6c3c d2b0 0b3c 7b19 0f3c 2e4e c5bb
00000190: a104 053c b50c 3a3a b333 1dbc f696 c9bb
000001a0: 7c92 fa3b 79fe f9bb b40d 603a d8bb 05ba
000001b0: a895 56bb 6387 053c f279 e63b b1eb 32bc
000001c0: 3fae 283c 469f c0bb bab9 72bc 6138 c43b
000001d0: 9e5e d63b 525f 683b af31 74ba da0d 84bb
000001e0: 3cf8 be3a 9ed5 3a3c 4019 b93b 64e4 88ba
000001f0: 0aad 15bb fe60 043c b787 de3b 727b 96bc
00000200: 708b 593b 1256 8e3b 174f 123b d91e 2c3c
00000210: 625b fd3b 1754 993b 060d 6b3c 5360 2e3b
00000220: 8111 1ebc f247 f3bb 5d79 9e3c 4a7f 8d3c
00000230: 5035 183b 5b83 96bb 5782 63bc c5da eaba
00000240: 2072 d7bb d7e6 82bc 9aa0 aab9 fe4c 013c
00000250: 749b 36bb b81b a3bb 8d86 343b 4825 61bb
00000260: b435 caba 8965 d33b d241 0fb9 565e ab3b
00000270: c6a6 e7bb 5077 fcbb 8ac1 8dbb 53b7 6739
00000280: 1d88 f93b 15d9 f1bb dd22 973a da14 13bc
00000290: ae63 4bba fe40 c03b 7cc9 9639 933b 93b9
000002a0: 6f4b dfbb 8cc4 c63b 7c53 dc39 8afa 93bb
000002b0: 726c df3a f9f2 73bc 364d 17bc 0381 763c
000002c0: 86d2 60bc 1785 3d3b 281f 86bc 6ca5 73bc
000002d0: fd07 7abb 1b00 6cbc cea7 6c3c aa7d a23b
000002e0: 4a2e 173b ceba 78bb 8708 dabb f6d5 f7bb
000002f0: 22f3 0fba 8329 33bb d0d6 93bc 8b9c 96b9
00000300: c146 e13c 48b6 bc3b 9892 d63a 395a b53a
00000310: 8e26 a7bb f127 82bb df38 e6bb de4a 2b3b
00000320: 7a25 2ebc 9f9f 07bb 7fdc dcb8 28f1 b8ba
00000330: de3c 3ebc 6b87 13bc 19cb fabb 4e8b 173b
00000340: 1283 cfbb dc41 02bc 132f b63b 4125 963b
00000350: 1356 7abb 5cc6 203b 8745 043b 3112 263c
00000360: 8478 173c e298 283c 6c9f 423c 72a5 65bc
00000370: 7d16 e7bb d637 2b3b 6671 a6bb e0f4 b13b
00000380: 1b95 f0bb 154b 40bb 9a51 943b cabb 31bc
00000390: 3f65 86bc 9e71 8c3a 6bc8 95b9 043d bcbb
000003a0: 9abc 023c fcdb f83b 6bf3 1fbc 2e89 993b
000003b0: bf98 8bbc 287a fdba 9b6e 513c cd13 47bc
000003c0: a6c1 5dbb 7842 f4bb a5fd 093c 54e2 473c
000003d0: d086 873b b188 053c 8555 24bb 32ab 04bc
000003e0: 9ffb 693a 5a9f bf3b c2f8 e039 3c37 bfba
000003f0: e99c a1bb ea2f 83bb a56f 22bc a4c3 6bbc
