PythonClient/saved_models/1-2024-04-28.pth (torch, 48824 bytes, 3 tensors)

conv1.weight f4 [8, 3, 6, 6]
00000000: 45d4 fc3d 631e 33bd 869c 77bc f502 a2bc
00000010: 8afe 893d 2ca6 efbb 1d8b 2dbd e780 6ebd
00000020: 1a25 b03d 982b 5cbd b0d7 b03c 7b66 6f3d
00000030: e207 323d 80b2 cbba c6db c93d 6e90 a73c
00000040: b194 73bd 54f2 2fbd 5098 313d ff5d 3fbd
00000050: 0eb8 923d 83d0 71bd 622f afbc f8d6 593d
00000060: 6710 643c 3b60 b8bd 15db bbbc 3867 62bc
00000070: d587 4dbd 91ae 0fbd 7317 94bc e1c6 9fbd
00000080: 28f3 b63d eac4 4fbd 89b1 163d 7728 013c
00000090: 3203 1c3d b620 84bc e8a6 8f3d 1537 6a3d
000000a0: 66db db3d 60a3 f93c c8bc 6cbd 2282 a6bd
000000b0: c86e 2bbd 25f7 b3bc 1784 aebd 8613 343d
000000c0: 2e94 95bd 6114 b0bd 7d09 a4bd 481c 0f3d
000000d0: eb9d 92bd 0812 c33d ec14 d3bd 8cc6 6abd
000000e0: c963 69bc 11bb 8abd 14ae 793d 6790 12bd
000000f0: 9179 b839 1e23 c1bc ee4e bfbd d080 403d
00000100: 1e03 753c 15ae 5abd cc23 ba3d 281e ab3c
00000110: 8963 a33d 0fac 25bd 60a1 8ebd 64cc 943c
00000120: cff9 07bd 5d5c b83c 8a1c 8f3d a3e8 da3d
00000130: 67cf 4d3d 2ce7 3c3d cc62 533d b7ed 433d
00000140: b630 b0bd f243 4ebc 747d 9ebd 92ec 50bd
00000150: 9fa5 7d3a 9377 a2bd 962e 71bb 27ed 103d
00000160: 0703 8a3d 23cc d03d 0794 043d 8a33 8abb
00000170: 0658 70bd 9f7f 79bd 27cf b8bc d759 acbd
00000180: cef5 1ebc 21f4 b73b 5771 aebd 2db8 1dbd
00000190: 7379 c9bc 2f25 47bd 4b70 ee3b 7b1e 73bd
000001a0: e68b 633d 268d 2ebc 469f 98bc 2f09 253c
000001b0: 1c3c 83bc 172f 933c d342 c83d e91b c33d
000001c0: 7aa0 d63d 6f90 863d e916 813d eae2 703b
000001d0: 6aef b23d c45b 02bd 6d0c 2fbc 257b 03bc
000001e0: ed00 163d 1cdf 42bc 350c 363d 8d12 8bbd
000001f0: 72fc 3cbc 630a b4bd d9c1 1cbc 2984 93bd
00000200: f782 e83c 2dfa 8fbd 1806 2f3c b190 e7bc
00000210: 383f aabd 1d90 c4bc 4a73 a33d 50bc 42bd
00000220: a640 26bd bbd9 9cbc 0f10 3cbb 7a4b 003d
00000230: 1685 9abd ad20 64bd 46a2 873d 7344 a0bd
00000240: 0fd2 e23d 0ead 19bd e866 1fbd dffe dc3d
00000250: c5b2 f7bc 0502 cf3d e044 ae3d d8de 99bd
00000260: 6335 7d3d ad40 dfbc 09af de3d d76e cb3d
00000270: 112a dc3d 1059 8ebc 509e 793d 3488 16bd
00000280: b176 78bd 3b91 f53c f595 b13d d56e a4bc
00000290: 27f1 ac3d 124f a0bd c70a 96bd c434 93bb
000002a0: eb1b ad3d 5491 a2bd 3cf5 263d f002 a9bd
000002b0: 05de d7bc 2c63 92bd 5aa2 90bd f0db b2bd
000002c0: 4c19 1cbd c2a0 16bd 0948 3abd 84d3 e6bd
000002d0: 6649 39bd 00f0 a2bc b069 533d cf3b 6fbd
000002e0: 8c22 63bd ec21 cbbb e192 943d a30b e43b
000002f0: a2cb bd3d 642e 66bd 04ac a23d e2fa 88bd
00000300: fff2 7e3d 7e47 25bb f092 43bd 25ad da3c
00000310: 30d4 b33d 07b2 95bd dcba bc3d d466 34bd
00000320: 0083 7fbd a67f a63d 67e9 54bd 7d74 65bd
00000330: d11e c3bd 3c9c b23c 8b49 78bc ed43 79bd
00000340: eaaa 2fbd d772 95bc 696d f8bb dba5 ff3c
00000350: c56b 113d b41f 21b8 82f4 debd 6d75 b6bd
00000360: 06c3 61bd 40e4 3abd 0db6 313c c8ca 6bbd
00000370: d4bf 9bbd d173 b33c 743b c1bd 0f78 a63d
00000380: 19dd 2fbc 1082 693d 5029 31bc b0d3 84bd
00000390: 869d 433c 993b 4e3d 94b4 d33d 93f4 973c
000003a0: dad0 00bd 2787 bb3d 95b4 b8bc 7a73 973d
000003b0: 7448 373d 471b 48bd 04f2 babd c975 bc3d
000003c0: f3f6 943d a099 8b3d c804 25bc 39f4 0a3d
000003d0: c344 89ba b84b 833c a2ec 933d 145c b53d
000003e0: 5137 dabc 08fb f53c 75dc 8a3d 3bab 143d
000003f0: b05e 00bd 123e 87bd 3fe9 3dbd e7d9 883d
0.12345175 -0.04373015 -0.015113002 -0.0197768 0.067380026 -0.0073135104 -0.042368997 -0.0582284
0.086008266 -0.05375251 0.021587223 0.058447342 0.04346455 -0.0015540868 0.098563716 0.020454612
-0.059467975 -0.04295571 0.043358147 -0.0467205 0.07164012 -0.059036743 -0.021384899 0.053183526
0.013919926 -0.090027295 -0.022931615 -0.013818555 -0.050178368 -0.03507859 -0.018077588 -0.07801605
0.08933097 -0.0507249 0.036790404 0.007883183 0.038088985 -0.016128879 0.07014257 0.057181437
0.10735206 0.030473411 -0.057797223 -0.081302896 -0.041853696 -0.021968434 -0.08521288 0.04396393
-0.07303654 -0.08597637 -0.08009622 0.03493908 -0.07159027 0.095249236 -0.10306725 -0.057318255
-0.014244982 -0.06773961 0.06095703 -0.035782244 0.0003518579 -0.023576315 -0.093412265 0.046997845
0.0149543565 -0.053388674 0.09088859 0.020888403 0.07977969 -0.04044729 -0.069643736 0.018163867
-0.03319722 0.02250498 0.06987865 0.10688903 0.050246622 0.0461189 0.051607892 0.047834124
-0.08603041 -0.012589442 -0.07738772 -0.05100686 0.00096758635 -0.07932963 -0.003680145 0.035382416
0.06738859 0.10195186 0.032367732 -0.0042175697 -0.058677696 -0.060912725 -0.022559715 -0.08415573
-0.009702159 0.005613819 -0.085177116 -0.03850572 -0.024594044 -0.048619445 0.00727657 -0.05935524
0.05555334 -0.01065377 -0.018630635 0.01007299 -0.016019873 0.01796679 0.09778371 0.09526808
0.10479827 0.06570517 0.06303198 0.0036756345 0.08737071 -0.031825796 -0.010684115 -0.008024965
0.036621977 -0.011894014 0.044445235 -0.06790648 -0.011534797 -0.087910436 -0.009567701 -0.07202942
0.028382761 -0.07030139 0.010682605 -0.028267236 -0.08312839 -0.0239945 0.07980974 -0.04754287
-0.040588997 -0.01914679 -0.0028696095 0.03132198 -0.075449154 -0.055695225 0.06622748 -0.07825556
0.11075222 -0.037518553 -0.0389165 0.107908 -0.030236611 0.10107807 0.085092306 -0.07513207
0.06181849 -0.02725252 0.10873229 0.099332504 0.10750211 -0.017376453 0.060941994 -0.036750987
-0.060660068 0.029976478 0.0867118 -0.02007238 0.08444434 -0.078275815 -0.07326274 -0.004492374
0.084525906 -0.079378754 0.040761217 -0.082525134 -0.026350984 -0.07147822 -0.07062216 -0.08733356
-0.038110062 -0.036774404 -0.045478854 -0.11270812 -0.045236014 -0.019889832 0.051614463 -0.058406647
-0.05545287 -0.006199112 0.072545774 0.006959395 0.092673555 -0.056196585 0.079429656 -0.06688477
0.062243458 -0.0025219615 -0.047747552 0.02669389 0.08780706 -0.07309347 0.09215328 -0.044043377
-0.06238079 0.08129816 -0.051980402 -0.056019295 -0.09527362 0.021803014 -0.015154253 -0.060855795
-0.042887606 -0.018243236 -0.007581402 0.031207016 0.035503168 -3.8414917e-05 -0.1088648 -0.08909116
-0.05511763 -0.045627832 0.010846627 -0.057566434 -0.07604948 0.021905812 -0.09435168 0.08128368
-0.010733866 0.057008803 -0.010813072 -0.06485689 0.011939412 0.050349806 0.10337177 0.01854924
-0.031449176 0.09156638 -0.022547046 0.07395072 0.04474683 -0.04885414 -0.09128192 0.09202153
0.07273664 0.06816411 -0.010071941 0.033924315 -0.0010472763 0.016027316 0.072228685 0.08855453
-0.026637705 0.030026928 0.0678033 0.03629611 -0.0313403 -0.06603636 -0.04636502 0.066821866

conv1.bias f4 [8]
00000000: 8e69 3b3c b1ca aabb 53a6 d83d 0b05 3bbc
00000010: 724f 9d3d 9766 d63d 2532 073d d2d9 3b3d
0.01143874 -0.005212151 0.10578599 -0.011414777 0.076811686 0.10468786 0.033006806 0.045862027

fc1.weight f4 [1, 10800]
00000000: b23d e9bc ec80 cf3b 245c 38bc 895b 373b
00000010: 3c07 d03c 96b9 533c 1205 2e3c e8f1 d7bb
00000020: 0631 543c 21da 6c3c 94aa b1bb 7f2d 16bc
00000030: 2579 87bc 18f7 babc 41d9 8e3c ab80 cf3b
00000040: c033 4e3c be99 913b 1fe2 983c d80e 32b9
00000050: 02d0 b23b 6df5 4d3c a6ce 0a3c 8566 eebb
00000060: e24f 20bc a2e4 07bc bb7c c4bb f2af 953c
00000070: d657 1d3c 69f5 4d3c cd2a 963b 1965 7f3b
00000080: 0677 e73b 367a 293c 3425 893c 269d 8ebb
00000090: 76b2 843a 6a29 b23b fea7 5c3c 6542 3939
000000a0: 99ae 3ebc 3035 9b3b 8b18 7d3c fa54 433c
000000b0: 80f6 31bb 72d6 803c 11ea 8eba 7426 adbc
000000c0: 9d91 863c adc0 913c ae0e 02bc a54e 58bc
000000d0: 8d61 48bc 943f 683c 7f7c c53b e304 9b3b
000000e0: 8f01 e3bb 8d85 babb af8e 9a3c 0631 a738
000000f0: 4adb 993c 788c 883c e3d4 163b 47bd b4bb
00000100: 72a2 a93b c7a1 813c 68e3 31ba a051 9f3c
00000110: 1ff3 7a3c b465 883c f5bc af3c da40 e53c
00000120: 246c c83c ff49 14bb 0e65 8e3c 3e43 cb3b
00000130: 381a d03c fe41 dcbb ad5c ddbb e2b4 b03c
00000140: f3dc e83b e268 ecbb d10a 8c3c e520 b23c
00000150: 214c 033c 172f 8e3b 50c4 7ebb e658 b0ba
00000160: f38f 013c 8f00 ca3a 7f61 143c a7f3 9c3b
00000170: 03b1 0e3c f7f0 4a3b 3f6a 873c c55b 2e3c
00000180: d726 85ba 2d4c 1039 5a02 063b b34e 99ba
00000190: e489 0bbc d7d5 1e3c 9b5a 32bc 869a 85bc
000001a0: 6959 eabb 5cb7 a33b ecf5 c2ba c0c8 11bc
000001b0: 5b36 f4bb a6c5 1ebb f9bb c13b 0236 2e3c
000001c0: d925 553b a621 663c 05b7 71bb 695d 4f3b
000001d0: f717 9a3a c6b2 c03a 1d2c 95bc 93cf 29ba
000001e0: 7327 2e3c 059b e43b 5d1e 0dbc 7325 963b
000001f0: cca5 0e3c cd33 8bbc 408d 15bc b612 873b
00000200: a136 77bc 70a7 cd3b e8bb 0fb9 2feb 4c3b
00000210: 6b2d 16bc fb99 4dbc 9a7f 24bc 20a9 b43c
00000220: 9da7 573a 8fe6 b63b af9a 3d3a 10c3 ddba
00000230: 64d0 2e3c 5df3 3c3c 7749 55bb f129 9c3b
00000240: bccf 7d3c 6290 8cbc 3fa5 92bb 5b7a 5f3b
00000250: 4ef3 553c 9fc5 4b3c fca5 043b f0b2 62bc
00000260: 0555 173c f167 013c 6795 1c3c afef 1c3c
00000270: 4e50 443c d4ce 683a f7a7 0c3c fe5b ad3c
00000280: 131a d03a ae06 7c3c 4265 793c 30a3 c5bb
00000290: 402d 7939 4e17 2dbb 27f4 94bc cb3c ac3a
000002a0: b3f9 0ebc aae0 12ba 165d 943c 8a00 af3b
000002b0: 6eff 54bb 3a8e 8fbc 28c2 b1bb 24c8 13bc
000002c0: 84ff 0ebb 051b bc3b 3d04 85bc 22df 8f3b
000002d0: 5849 aa3b 8f4b 3e3b ee82 973b 360b 01bc
000002e0: 8115 12bc cc7a 83ba f294 ebbb ed9b be3a
000002f0: 80d0 8c3c 3b1d 2f3c 6622 033c d096 0e3c
00000300: 91cb c33b 58cd 2a3c 67e6 2c3b a532 273c
00000310: a67e 683c c286 723b 31fd af3b b724 dc3b
00000320: 8fb2 92bc 582b 92bc f3e3 83bc 9308 09bc
00000330: 99b5 c53a 1fbf 6b3c 9077 1c3c 7b70 5eba
00000340: 10e9 cb38 b9c2 023c 3ee1 aabb bcb0 413c
00000350: 1ebf 41bb 78f4 9c39 7bbe 233c f0b2 783b
00000360: 9e8d 313a c4e8 efba a216 b039 c498 e83b
00000370: c5c7 483b 1ea0 bc3c 3b6c fdbb f15b 313b
00000380: bc0d dabb 59d6 ea3b 6f1d 5e3b 490b 70bc
00000390: 8bae 9a3c b0c7 803b 8f08 2f3c f4e2 c3bb
000003a0: 083e 393c fc67 bfba 4ca3 c8bb 97bf 643c
000003b0: e224 a7ba 5206 983b 2fd8 383c aa83 803c
000003c0: 3d9e ec3a 16d5 7d3c 2ab6 54bb 6d40 aa3b
000003d0: 58fc 36bc 4d1f f3b8 bd01 e3bb f73f 823c
000003e0: c767 e73b 587b c23c 8e4f e73b ce9a 983b
000003f0: a766 613b b1f4 523c 89f7 2c3b 0103 b1bb
-0.028471801 0.0063325074 -0.011252437 0.0027978143 0.025394075 0.012922665 0.010621326 -0.006590117
0.012951141 0.014456303 -0.005421946 -0.009166121 -0.016537258 -0.022822902 0.01743758 0.006332477
0.01258558 0.0044433763 0.01866251 -0.00016980933 0.0054569254 0.012570721 0.00847212 -0.007275405
-0.009784671 -0.008294256 -0.0059963143 0.018272374 0.009603461 0.012570717 0.004582739 0.003897017
0.0070637492 0.010344079 0.016741373 -0.0043522296 0.0010123986 0.005437066 0.013467787 0.00017667709
-0.011638307 0.004736565 0.015447746 0.011922115 -0.0027154982 0.015727255 -0.0010903497 -0.0211365
0.016426856 0.01779207 -0.00793807 -0.013202344 -0.012230289 0.014175314 0.006026804 0.004730807
-0.006927676 -0.00569219 0.018866865 7.972312e-05 0.018781323 0.016668543 0.0023015074 -0.0055157277
0.0051768357 0.015824212 -0.00067859003 0.019448102 0.015316754 0.016650058 0.021452406 0.027985025
0.024465628 -0.0022627113 0.017382171 0.0062030843 0.025403127 -0.006721734 -0.0067554326 0.021570627
0.0071064173 -0.0072146514 0.017095001 0.021744201 0.008013756 0.0043391096 -0.0038874336 -0.0013454228
0.007907855 0.0015411543 0.009056448 0.004789788 0.008709195 0.003096638 0.016530154 0.010641997
-0.001015867 0.00013761288 0.002044818 -0.0011696428 -0.008516762 0.009694538 -0.01088586 -0.016309034
-0.007151772 0.0049962234 -0.0014874316 -0.00889796 -0.0074527687 -0.0024226694 0.0059123007 0.010632994
0.003252378 0.014046108 -0.003688277 0.003164137 0.001175641 0.0014701716 -0.018209511 -0.00064777693
0.010629523 0.0069764876 -0.008613196 0.004582101 0.008706521 -0.016992474 -0.009127915 0.0041221036
-0.015088708 0.0062760636 -0.00013707543 0.003126811 -0.009166102 -0.012548919 -0.010040188 0.022053301
0.00082265754 0.005581684 0.00072328275 -0.0016919095 0.010669801 0.011532632 -0.003254501 0.004765742
0.015491422 -0.01715869 -0.0044752653 0.003410003 0.013058497 0.012437253 0.0020240536 -0.013836607
0.009236579 0.007898317 0.009557105 0.009578629 0.011982037 0.00088809174 0.008584968 0.02116203
0.0015876911 0.015382452 0.015221896 -0.0060314164 0.00023763347 -0.0026411596 -0.018182827 0.0013140676
-0.008726525 -0.00056029356 0.018110793 0.0053406404 -0.003250088 -0.017523874 -0.0054247566 -0.009019885
-0.002181978 0.0057405257 -0.016237373 0.004390613 0.0051967315 0.0029036736 0.0046237623 -0.007876208
-0.00891626 -0.0010031103 -0.0071893865 0.0014542319 0.017189264 0.010688121 0.008003807 0.008702949
0.0059751947 0.010424934 0.0026382448 0.010204946 0.014190352 0.0037006591 0.005370759 0.006718244
-0.017907409 -0.017842934 -0.016099906 -0.008363861 0.0015084028 0.014388829 0.00954999 -0.0008485389
9.7232056e-05 0.007980996 -0.0052148392 0.011821922 -0.0029563378 0.00029936782 0.009994145 0.0037948452
0.0006773117 -0.0018303622 0.000335862 0.007098289 0.003063665 0.023025569 -0.0077338493 0.0027062858
-0.0066544693 0.0071666655 0.0033892056 -0.014651128 0.018882057 0.0039300546 0.010683193 -0.0059779827
0.011306293 -0.0014603133 -0.006122982 0.013961694 -0.0012752081 0.0046394253 0.011282011 0.015687782
0.001805253 0.015492698 -0.003245721 0.0051956684 -0.011168562 -0.00011592973 -0.0069276975 0.015899641
0.007061932 0.023740456 0.007059044 0.004657126 0.003439346 0.012875722 0.002639266 -0.0054019694
