PythonClient/saved_models/1.0-2024-05-23.pth (torch, 38536 bytes, 3 tensors)

conv1.weight f4 [6, 3, 8, 8]
000000 38 2a 42 3d 78 b6 26 3d 6e 90 c8 3c 70 fd fe 3c
       0.047403544 0.04070136 0.024482932 0.031126708
000010 26 04 af 3d c0 c8 bd 3d 51 ca ec 3d c2 6e dd 3d
       0.08545713 0.09266806 0.11562026 0.10812141
000020 75 8a c4 3b 3e 0e f3 3d bd 8d f4 3c b9 6e 75 3d
       0.0059979507 0.11867951 0.029852742 0.059920046
000030 10 26 da 3d 3a a6 f0 3d b9 4d ab 3c 0a 9c de 3d
       0.10651791 0.11750455 0.020911084 0.10869606
000040 a0 16 8a 3d 4f f7 27 3c c9 8a d7 3d cc 51 7a 3d
       0.067425966 0.010251834 0.10524518 0.061113164
000050 e7 d3 97 3d 65 39 f7 3d 01 89 da 3d 84 09 b3 3d
       0.07413464 0.12071494 0.10670663 0.08742049
000060 fd dc a2 3d 86 ad 75 3d cf 41 0b 3d e7 58 5b 3d
       0.079523064 0.059979938 0.033998307 0.05355158
000070 ce 4b 81 3d d9 62 71 3d 61 41 46 3d c0 6b cb 3d
       0.06313287 0.05893216 0.048402194 0.09932661
000080 e5 45 06 3e c7 fa 7e 3d 98 c1 6c 3d 42 17 97 3c
       0.131126 0.06225088 0.057801813 0.018443707
000090 c9 75 6b 3d 85 6f c1 3d 50 12 ae 3d b9 9f 47 3d
       0.057485376 0.09445099 0.084995866 0.048736308
0000a0 23 61 72 3d f8 fd ce 3c 4f 1d d6 3d fd d7 98 3d
       0.059174668 0.025267586 0.10454809 0.074630715
0000b0 13 60 8b 3d 95 2e 18 3e ac 3d 24 3d 42 be 13 3d
       0.06805434 0.1486152 0.040097877 0.036070116
0000c0 32 30 bc 3d d7 d1 cf 3d d3 27 07 3e 55 5c b4 3d
       0.0918888 0.10147446 0.13198785 0.088066734
0000d0 e0 a8 10 3e 91 cf ec 3d 48 ef bb 3d 6c 52 0c 3d
       0.1412692 0.11563028 0.09176499 0.03425829
0000e0 f0 6f 6f 3d d5 51 19 3e 27 b6 29 3d 19 19 ba 3d
       0.05845636 0.14972623 0.04143348 0.09086818
0000f0 59 b6 13 3e 02 e1 a0 3d 22 f4 81 3d d6 29 02 3d
       0.14425029 0.07855417 0.06345393 0.03177818
000100 04 2a e4 3c 59 3d df 3d 07 72 2c 3d 0b d2 1f 3d
       0.027852066 0.10900373 0.042100932 0.039018672
000110 f0 c4 eb 3c e0 83 dd 3d 7e 59 2e bc 48 db b2 3d
       0.02878043 0.10816169 -0.010641454 0.08733231
000120 c5 82 cf 3d 21 3d 91 3d 74 e8 88 3d 38 c1 d5 bc
       0.10132364 0.070917375 0.06684962 -0.02609311
000130 2b 9b 00 bc 87 a4 b5 ba 21 0a f3 3d 21 d0 2e 3d
       -0.007849495 -0.0013858237 0.11867166 0.042678956
000140 29 ba cc 3c 91 85 5c 3c f4 46 53 3d 3d d9 fb ba
       0.024991112 0.013459579 0.051581338 -0.0019214522
000150 74 1c 9b bc 12 9b 9e 3d 1b 2f d2 bb 51 e4 c5 3d
       -0.018934466 0.07744421 -0.006414307 0.096626885
000160 85 a6 a3 3d 8e 00 04 3c cb c7 d9 3d e1 56 b0 3d
       0.079907455 0.008056773 0.106338106 0.08610321
000170 39 55 83 3d 71 f7 52 3d 2e 12 84 3d 91 ee 11 3c
       0.06412739 0.05150551 0.0644878 0.008906976
000180 36 86 b9 3c 48 f4 aa 3d a8 0f e7 3c 3d 9d 86 3d
       0.022647005 0.08347374 0.028205708 0.065729596
000190 1c 77 66 3d fa b3 2e 3d ca f8 f2 3d 09 6d 33 3d
       0.056265935 0.042652108 0.11863859 0.043805156
0001a0 4f 0b 5d 3c e3 1e e7 3b 36 a7 b3 3d 46 f6 34 3b
       0.013491466 0.0070532425 0.08772127 0.002761261
0001b0 bd 9e cc 3d c3 5f fc 3d d0 8a a7 3d aa 61 01 3e
       0.099912144 0.123229526 0.08180773 0.12634912
0001c0 37 48 de 3d d4 91 f7 3d 4b fd 94 bb 92 db 26 3c
       0.10853618 0.120883614 -0.0045467964 0.010184186
0001d0 58 07 ca 3d a6 8c bb ba b0 18 c9 3c 4d 39 38 3d
       0.09864682 -0.0014308884 0.024547905 0.04497652
0001e0 bf 26 08 3d 70 e3 77 3d 9f 1c d6 3d 2f ca e2 3d
       0.033240076 0.060519636 0.10454678 0.1107372
0001f0 93 e8 d8 bb fc 7c d8 3d 81 72 8a 3d 0a 27 51 3d
       -0.006619522 0.10570714 0.06760121 0.05106262
000200 40 d7 75 3c 83 24 70 3d db 46 ca bc b3 a5 54 3d
       0.015004933 0.05862857 -0.02469199 0.051915836
000210 eb 1f e1 ba 1b 06 29 3d a8 bc 3a 3d a7 fb c2 3d
       -0.001717565 0.04126559 0.045590073 0.09520655
000220 df 12 89 3c 57 b2 3b 39 b3 10 ac 3d 37 ea e0 3c
       0.016732631 0.00017900146 0.084016226 0.027455432
000230 81 88 91 3d ac fd f6 bc 7b eb 40 bc 40 b3 ce 3d
       0.07106114 -0.030150257 -0.011774893 0.10092783
000240 10 84 b9 bc 09 60 b5 bc 0b a2 8b 3d 65 ab a8 bb
       -0.02264598 -0.02214052 0.068180166 -0.005147385
000250 1b 18 4d 3d 63 9e cd 3d a6 7c 89 3d 8d 1b ea 3d
       0.050071817 0.100399755 0.06713228 0.11431036
000260 80 22 2c 3c 4d 84 97 bc 04 80 67 bc 12 d3 39 3d
       0.010506272 -0.018495703 -0.014129642 0.045367308
000270 ff cb 7d bb 10 7d dc 3d 78 f5 2e bc 61 98 a7 3b
       -0.0038726327 0.10766041 -0.0106786415 0.0051146005
000280 57 f7 e3 3c fd 99 1f 3c aa 47 43 bc 12 0b 7d 3d
       0.027827902 0.0097413035 -0.0119189415 0.061778136
000290 51 d7 cc 3d f8 93 dd 3c 24 4f c7 3d 7f d3 f0 39
       0.10002006 0.027048096 0.09731892 0.00045933944
0002a0 86 1f b2 3c a4 fc 4f 3d 44 ba c7 3d 43 34 8b ba
       0.021743547 0.050778046 0.09752324 -0.0010620434
0002b0 08 e8 57 bc c5 b0 ac 3d 50 e7 ca 3d 05 bf 31 3c
       -0.013177879 0.084321536 0.099074006 0.010848765
0002c0 46 0f 99 3d 1b 59 c8 3d 4c a0 78 3c b8 09 c6 3d
       0.07473616 0.097826205 0.0151749365 0.096698225
0002d0 e9 68 bb 3d e1 3a ab 3d 2b 89 ac 3d 42 df a8 3d
       0.091508694 0.0836084 0.084246 0.08245708
0002e0 ad 68 a8 bc 86 be ad 3d 80 c7 fb 3c c9 98 47 3d
       -0.020557726 0.08483605 0.030734777 0.04872969
0002f0 ee b2 96 3c d9 17 4c 3c fe 87 75 3d b3 ab ad 3d
       0.018395867 0.012456858 0.059944145 0.08480015
000300 e4 73 9e 3d 9d 7b 09 bd 3d 96 74 bb 06 c4 2d 3d
       0.07736948 -0.033565152 -0.0037320994 0.04242327
000310 69 84 52 bc 1a 47 90 3c 0f d0 38 3d 03 06 26 bd
       -0.012848952 0.017612029 0.045120295 -0.040533077
000320 91 be b1 3c 00 41 be 3b 34 cd 8c 3d 42 ba ee bc
       0.021697314 0.0058060884 0.06875077 -0.029141549
000330 6f 0d 0a 3d 94 10 96 3c e4 8a f2 3c 23 a1 cb bc
       0.033704218 0.018318452 0.029607244 -0.02485711
000340 bd 2f ee 3d 0e 34 14 3d 9c db 9f 3d 84 90 a6 3d
       0.11630199 0.036182456 0.07805559 0.08133033
000350 ec 7f 55 3d ec c0 ba 3c 51 72 8d 3c e1 38 b1 bb
       0.05212395 0.02279707 0.017266424 -0.005408392
000360 e9 df e1 3d 6b 82 a6 3c da 66 29 3c 85 cf a2 3d
       0.110290356 0.02032586 0.010339463 0.079497375
000370 95 2b 17 bd 41 4a 00 bd e0 41 71 3d f4 7c 4e 3d
       -0.036906797 -0.031320814 0.058900714 0.050412133
000380 ec 07 c1 3c 7b b2 ab 3d b4 f4 e7 bc 86 ea 40 3d
       0.023563348 0.08383652 -0.028314926 0.04709866
000390 7c cf e5 bc 37 4c 5b 3c 90 8a 80 3d 82 1b 26 3d
       -0.028053038 0.01338487 0.06276429 0.040553577
0003a0 4c 27 f8 3d 8d 3c 7c 3c 51 75 d3 3d 70 53 7e bc
       0.1211687 0.015395296 0.10325111 -0.015522823
0003b0 6a c8 0d 3d 97 a0 48 bc 54 54 c7 3d 0c bb a0 3d
       0.034614958 -0.012245319 0.09732881 0.07848176
0003c0 0f df da 3d 10 21 5e 3d c4 e2 93 3b 20 50 36 3d
       0.10687076 0.05423075 0.0045131166 0.044510007
0003d0 c9 47 79 3d 3e d5 89 3d ce 8d 90 bb a7 08 60 3d
       0.060859475 0.06730126 -0.0044114357 0.05469575
0003e0 cc 74 00 3e 56 ec 47 3d 55 55 88 3d 18 af 69 bc
       0.12544554 0.048809372 0.06656901 -0.014262937
0003f0 a4 51 bb 3d 36 a0 aa 3d 3c 74 d8 bc 18 9a 05 3d
       0.09146431 0.08331339 -0.026422612 0.03261766

conv1.bias f4 [6]
000000 1a 9f 8c bd 48 04 c7 3c a3 1d 02 bd d9 05 18 be
       -0.06866284 0.024294034 -0.031766545 -0.1484598
000010 10 3b 2b be 07 3e 7f be
       -0.1672175 -0.24926005

fc1.weight f4 [1, 7938]
000000 56 1d 91 bc ae 77 10 bd 8b 87 79 bc 86 ec 0f bb
       -0.017714184 -0.035270385 -0.01523007 -0.0021961047
000010 bc 04 c8 bb ae 39 ef bb 03 a6 f9 bb 82 4c 18 bc
       -0.00610408 -0.007300577 -0.007618667 -0.009295585
000020 87 e7 62 bc ef aa e9 ba 75 4c 7a 3c 32 19 97 3c
       -0.013849146 -0.0017827431 0.015277018 0.018444631
000030 60 be 97 3b 2c fb 12 3c 3e d3 4c 3c 83 3a 5d bd
       0.0046308488 0.008971017 0.012501536 -0.05401088
000040 80 67 bd bd aa 18 8f bd a7 7d 29 bd 3d 33 4a bc
       -0.09248257 -0.06987126 -0.041379597 -0.012341318
000050 26 35 2a 3b fb 1b 14 bc 1d 8c 52 bd 9e 1d 40 bd
       0.002597162 -0.009039874 -0.051403154 -0.046903245
000060 10 88 d6 3b c9 f0 e7 3c 18 bd b9 3c ea 7d ad bc
       0.0065469816 0.028313057 0.022673175 -0.021178205
000070 48 a8 e4 bb 01 7b 18 3b 3a d3 fc 3c 17 50 46 3d
       -0.0069780685 0.0023266675 0.03086244 0.048416223
000080 3f 10 9f 3d 81 c0 f2 3d 85 09 ee 3d 64 28 ea 3d
       0.077667706 0.118531235 0.116229095 0.11433485
000090 1d 64 14 3e af ab fe 3d 3a ad c5 3d d3 b5 d2 3d
       0.14491315 0.1243509 0.09652181 0.102885865
0000a0 d2 33 da 3d b9 a5 c9 3d 6e fe e1 3d 0a a5 c8 3d
       0.10654415 0.09846062 0.11034857 0.09797104
0000b0 e9 3a 9b 3d fc 8b b4 3d cc 22 6b 3d b3 99 58 3d
       0.075795956 0.088157624 0.05740623 0.052880954
0000c0 2d e2 82 3d 87 77 a3 bc 9c 15 86 bc 2f 7b ad bc
       0.06390796 -0.019954456 -0.016367726 -0.021176903
0000d0 3e 80 61 ba c7 7d 86 bc 37 3d 5b bc e3 75 2b bb
       -0.00086021784 -0.016417397 -0.013381294 -0.0026162795
0000e0 97 6e 00 bc e5 97 19 bc 18 69 e8 bb 62 f1 03 3c
       -0.007838867 -0.009374593 -0.0070926063 0.008053156
0000f0 35 c0 78 3c 33 41 4f 3b 29 d8 34 bc 6b eb b3 bc
       0.0151825445 0.0031624555 -0.011037865 -0.021962842
000100 c3 e3 2e bd ea d6 b2 bd e1 b5 85 bc cc 8a c6 bc
       -0.04269768 -0.08732398 -0.016322078 -0.024236105
000110 32 b2 8b bc ed 7c 98 bc 55 a8 06 bd 2a 02 a5 bd
       -0.017052744 -0.018614257 -0.032875378 -0.080570534
000120 a4 7a 3c bd 22 36 e2 bc 51 6d 06 bc b0 7b 94 bc
       -0.046015397 -0.027613703 -0.008204774 -0.018125385
000130 18 61 2f bd d6 ab 63 bd 34 ac 48 bd 5e 80 cc 3a
       -0.042817205 -0.055583797 -0.04899235 0.0015602221
000140 a2 0f 0b bb 7e 26 ea 3c 4e 5a ad 3d de 16 d7 3d
       -0.0021219035 0.028582808 0.0846449 0.105024084
000150 55 23 16 3e b6 b4 0e 3e eb a1 d4 3d 2f 1f c3 3d
       0.14661916 0.13936123 0.10382446 0.09527432
000160 d3 26 e0 3d 0c 87 bc 3d 1f 34 aa 3d 0d 38 51 3d
       0.10944905 0.09205446 0.083107226 0.051078845
000170 2b 04 39 3d 85 8d b0 3c 76 3a bf 3c 59 f8 b9 3c
       0.04516999 0.021551857 0.023343306 0.02270143
000180 82 bc 0b 3d 4a 1c d6 3c bc c2 e8 bc f6 99 99 bc
       0.034115322 0.026136536 -0.02841317 -0.018750172
000190 c9 7c 76 bc 3d cf 9a bc 63 8d 39 bc 47 06 7c bb
       -0.0150444 -0.018897647 -0.011325213 -0.003845589
0001a0 57 1f 63 bc 7c 79 69 bb 4d 7e 80 bc 42 43 8a ba
       -0.0138624525 -0.003562539 -0.015685225 -0.0010548609
0001b0 1d 34 f3 3b 47 79 83 3c 93 9c 03 3c 9c 8e 69 3a
       0.007421984 0.01604904 0.008032936 0.0008909495
0001c0 83 9e 2d bc 35 c2 8e bc 01 c4 26 bd 58 07 d5 bc
       -0.010596874 -0.01742659 -0.040714268 -0.026004478
0001d0 25 ba 8a bc 25 5c 13 bd c0 e4 df bc 44 2d 1d bd
       -0.016934464 -0.035976548 -0.027330756 -0.038373247
0001e0 04 90 4d bd 3f 5c 0c bd b3 98 40 bd 6c cd 27 bd
       -0.050186172 -0.03426766 -0.047020625 -0.04096739
0001f0 b5 7a 58 bd 6f a6 76 bd ad 22 9f bd b7 e1 ab bd
       -0.052851398 -0.060217317 -0.07770286 -0.08392661
000200 d8 b7 cf bc 3c 30 09 3a 2f 97 26 3c 2b bb 99 3d
       -0.025356218 0.0005233323 0.010167881 0.075064026
000210 72 1f 03 3e ae 81 12 3e c8 b6 06 3e df 2a f3 3d
       0.12804964 0.14307281 0.13155663 0.118734114
000220 18 86 e4 3d cd 75 c4 3d 3d 9a 91 3d 7f 9e 13 3d
       0.11158389 0.09592781 0.07109497 0.036039826
000230 e7 1e 34 3c 65 4c 8d bc 41 58 9b bc 98 80 00 bd
       0.010993696 -0.017248342 -0.018962981 -0.031372637
000240 3c 85 36 bd f4 9e 1e bd 08 28 07 bd 8f c3 9b bc
       -0.044560656 -0.03872581 -0.03299716 -0.019014148
000250 ec 50 99 bc e8 a5 40 bc c8 d0 5f bc e0 6d 58 37
       -0.018715344 -0.011758305 -0.013660617 1.29001855e-05
000260 06 ed 62 bc 52 d6 4e ba de 25 55 bc c4 f4 40 bb
       -0.013850456 -0.00078902126 -0.0130095165 -0.0029442767
000270 f4 5f f1 3b 3c e8 7b 3c 20 3e ef 3c 44 73 99 3c
       0.007366175 0.015375193 0.029204428 0.01873172
000280 df 1d 6a 3b 96 39 29 bb e4 d1 fa bb e5 fd 1c bc
       0.003572337 -0.0025821677 -0.0076544154 -0.009582018
000290 86 a8 72 bc 19 25 c4 3a a9 b3 e0 bc 29 c9 f4 bc
       -0.014810687 0.0014964669 -0.027429419 -0.029881077
0002a0 22 99 d7 bc 25 6a b8 bc dc 45 24 bc cb 59 e0 39
       -0.026318137 -0.022511551 -0.010026421 0.0004279151
0002b0 e9 0a bf ba 94 2c ef bc 50 fa a0 bd 75 b1 c2 bd
       -0.0014575395 -0.029196061 -0.07860243 -0.095065035
0002c0 3a 09 e6 bd ce 7c 8d bd 8b b3 0a bd 01 12 38 3c
       -0.112322286 -0.0690857 -0.03386263 0.011234761
0002d0 42 ec a6 3d c1 dd 0a 3e d8 f3 05 3e 85 5c 0c 3e
       0.08150531 0.13561155 0.130813 0.13707168
0002e0 5c e8 f1 3d 61 72 ea 3d fd 45 dc 3d a0 bc 81 3d
       0.11811897 0.11447597 0.10755537 0.063348055
0002f0 65 eb a9 3c ab 3d 61 3b 19 b9 36 3b b4 ed 81 bc
       0.020742128 0.0034369032 0.0027881323 -0.015860416
000300 34 e2 0c bd 05 59 35 bd 8b f6 8d bd ed 64 65 bd
       -0.03439541 -0.04427435 -0.0693179 -0.056004453
000310 fc 3f b0 bb 00 af 0b 3a 5d 12 b3 3b e7 1f e0 3b
       -0.0053787213 0.0005328506 0.0054648356 0.0068397406
000320 80 7a 95 39 46 0e 29 bc d9 b4 e9 ba f8 1d d6 3b
       0.00028510764 -0.010318344 -0.0017830386 0.0065343343
000330 25 d7 9a bb 64 1e b5 3a 8b f2 10 3d c7 5c 1f 3d
       -0.0047253543 0.0013818261 0.035387557 0.03890684
000340 47 9d 00 3d 40 d6 f0 3c c0 b0 04 3c a6 eb 3a 3b
       0.03139999 0.029399037 0.008098781 0.0028521805
000350 dd 4d b4 bc dc 78 88 bc d1 55 44 bb 59 5f d6 bc
       -0.022009784 -0.016659193 -0.0029958377 -0.026168512
000360 46 64 01 bd 40 65 ef bc e3 71 94 bc 55 bd 7f 3b
       -0.03158977 -0.029223084 -0.018120712 0.0039022763
000370 78 2f a1 3c 8a fb 60 3b 97 75 e7 bc a3 9f 67 bd
       0.019675955 0.0034329616 -0.028254313 -0.056548726
000380 0e cd 64 bd 99 8a 84 bd 69 eb 4d bd 23 bb f4 bc
       -0.055859618 -0.06471748 -0.050273333 -0.02987439
000390 f1 c0 ab bb bf 9a 35 3d b6 58 e1 3d 3f 78 19 3e
       -0.0052415063 0.04433703 0.110032484 0.14987276
0003a0 f6 0c 14 3e 80 42 f5 3d ef b1 e8 3d e6 e2 d2 3d
       0.14458069 0.119755745 0.11362063 0.10297184
0003b0 13 f0 88 3d a3 b1 21 3d ff 00 ba 3c 09 f4 13 3a
       0.066864155 0.03947605 0.022705553 0.0005643969
0003c0 34 88 d3 ba 87 ac 15 3b f7 2b cf bc 1c 2e 6a bd
       -0.0016138614 0.002283843 -0.025289519 -0.05717288
0003d0 cd 61 96 bd fe c9 31 bc 0c 15 2d bc f1 f8 17 3a
       -0.07342873 -0.010851381 -0.0105641 0.0005797288
0003e0 9c 31 da ba 46 ea 1a 3c 80 5a a6 3b 32 53 72 3c
       -0.0016646865 0.009455269 0.0050767064 0.014790343
0003f0 bf 30 a2 3b d8 7c 9c 3b 16 d0 b2 3c 50 2b 7f 3c
       0.0049496586 0.0047756247 0.021827739 0.015574291
