PythonClient/saved_models/1.0-2024-05-16.pth (torch, 38536 bytes, 3 tensors)

conv1.weight f4 [6, 3, 8, 8]
0	0xbc024fa4	-0.007953558
1	0xbc47cb0d	-0.012194407
2	0x3d0d69bd	0.034524668
3	0x3c0ede4a	0.00871999
4	0xbc4dead9	-0.012568199
5	0x3c18e586	0.009332066
6	0x3cd170cb	0.02556648
7	0x3c3528eb	0.011057119
8	0xbcf0cdc1	-0.029394986
9	0xbc05d233	-0.008167791
10	0xbc3525d9	-0.011056387
11	0x3c989087	0.018623604
12	0xbb511b9b	-0.0031907323
13	0xbd50522d	-0.05085962
14	0xbd7e33e9	-0.062061224
15	0xbd1c5926	-0.038170956
16	0x3d39d1f2	0.045366235
17	0xbcf9ae04	-0.030478485
18	0xbdb902d1	-0.0903374
19	0x3bc74057	0.006080668
20	0x3bf94a66	0.007607746
21	0x3c14b24b	0.0090757115
22	0xbd94fde9	-0.07274992
23	0x3cb21417	0.021738095
24	0xbdc1f211	-0.09469999
25	0x3cdf9e4d	0.027297163
26	0xbd97d0af	-0.0741285
27	0xbd7493fb	-0.059711438
28	0xbc6b76aa	-0.014371553
29	0xbdc20e9b	-0.09475442
30	0xbd331de6	-0.043729685
31	0x3d16d77a	0.03682659
32	0xbdb701d8	-0.089358985
33	0x3c27fdaf	0.010253354
34	0xbda0c583	-0.07850172
35	0xbd81c83f	-0.06337022
36	0xbd18191e	-0.03713333
37	0x399749c1	0.00028855915
38	0x3c91dd0c	0.017805599
39	0xbc28821c	-0.010284927
40	0x3c89924b	0.01679339
41	0x3d060077	0.032715287
42	0xbbc8623c	-0.006115226
43	0x3cce7ba7	0.025205446
44	0x3b1986c9	0.0023426285
45	0xbd273610	-0.040823042
46	0x3cb35b89	0.021894233
47	0xbaf8d66e	-0.0018984803
48	0x3c3eea72	0.011652576
49	0x3d11a40f	0.03555685
50	0x3d4bce45	0.04975726
51	0x3c5fd028	0.013660468
52	0x3c7c71be	0.015407978
53	0x3d4594d8	0.04823765
54	0x3c4eb0f1	0.012615428
55	0xbdb094e8	-0.086221516
56	0x3bf02c07	0.007329467
57	0xbd658dc9	-0.05604342
58	0x3c7605c0	0.015016019
59	0xbc3801c0	-0.011230886
60	0x3d084ddd	0.03327738
61	0xbcdaf74b	-0.026729247
62	0x3ca54088	0.020172372
63	0xbccc8f68	-0.024970725
64	0x3d08b5ee	0.033376627
65	0xbd36c9bb	-0.04462598
66	0xbd2fca5c	-0.042917594
67	0xbdbe9c5c	-0.09307167
68	0xbce8752b	-0.028376183
69	0xbb909100	-0.0044118166
70	0x3d35da20	0.044397473
71	0xbdab8033	-0.083740614
72	0x3c0d1007	0.008609778
73	0xbc989b19	-0.018628644
74	0x3c2c27cd	0.010507536
75	0x3d37fe23	0.044920098
76	0xbd4ab3e8	-0.04948798
77	0xbca1b700	-0.019740582
78	0xbbcc779d	-0.006239845
79	0xbdb01b2a	-0.08598931
80	0xbd82faf2	-0.0639552
81	0xbcf489a1	-0.029850783
82	0xbd5768e4	-0.052590266
83	0xbca17c31	-0.01971254
84	0xbd4490ca	-0.047989644
85	0x3cbb8b1a	0.022893477
86	0xbda1512a	-0.07876809
87	0xbd820802	-0.063491836
88	0xbcf9c12f	-0.030487625
89	0xbdc0a365	-0.09406165
90	0x3ba9f7c2	0.0051870057
91	0xbabcbcab	-0.0014399489
92	0xbc239c0b	-0.009985934
93	0xbd27141d	-0.040790666
94	0xbc8b27fc	-0.01698684
95	0xbd9fb218	-0.077976406
96	0xbc0dda5c	-0.008658018
97	0xbd0fac30	-0.03507632
98	0xbda10587	-0.078623824
99	0xbd23d64b	-0.039999288
100	0xbdb73cbf	-0.08947133
101	0xbc409955	-0.011755307
102	0xb9dd13cb	-0.00042167152
103	0x3c0248ce	0.007951928
104	0x3c9465a1	0.018114867
105	0xbd982927	-0.07429724
106	0xbda6bee3	-0.081418775
107	0x3cbd277f	0.023090122
108	0xbceb31ac	-0.028710209
109	0xbdbe3009	-0.09286506
110	0xbc8f81e2	-0.017517988
111	0xbd40d193	-0.047074866
112	0x3d4cca85	0.049997825
113	0x3c5bf6f1	0.013425575
114	0xbd51a678	-0.051184148
115	0x3bc3e407	0.0059781107
116	0x3d07c873	0.033150148
117	0x3cbfb053	0.023399508
118	0xbd6f4592	-0.058415957
119	0xbd8a80cf	-0.067628495
120	0xbd3e3856	-0.046440445
121	0xbd81b7a8	-0.06333858
122	0xbc50f9f8	-0.01275491
123	0xbcf14a8d	-0.029454494
124	0xbcb16b24	-0.021657534
125	0x3cedea97	0.029042525
126	0xbc9bc7d0	-0.019016176
127	0x3cbf285b	0.023334673
128	0xbd4a964b	-0.049459737
129	0xbb58134a	-0.0032970482
130	0xbd474166	-0.048646353
131	0x3d44e3cd	0.04806881
132	0xbd5e122f	-0.05421656
133	0xbd6daf27	-0.058028366
134	0x3b81e2f4	0.0039638225
135	0x3cb84172	0.022492144
136	0xbc9cb11e	-0.019127425
137	0xbd6eb4fe	-0.058278076
138	0x3cdea874	0.027179934
139	0xbbf5bd7b	-0.0074993945
140	0xbac4b474	-0.0015007393
141	0xbd39c951	-0.045358006
142	0xbc3bba31	-0.011457966
143	0xbd869bfb	-0.0657272
144	0x3cd25747	0.025676383
145	0x3c26843e	0.010163365
146	0xbcedd057	-0.029030008
147	0xbcbb509b	-0.022865584
148	0xbd498db5	-0.049207408
149	0x3bd7b2ba	0.006582585
150	0x3d3e62b3	0.046480846
151	0x3b83c500	0.004021287
152	0x3ce7d4bb	0.02829968
153	0x3d0e1324	0.034686223
154	0x3c955940	0.018231034
155	0xbd205f0a	-0.039153136
156	0xbd5a932d	-0.053363014
157	0xbdbc73c0	-0.09201765
158	0x3d4e0c44	0.050304666
159	0xbc4ffb21	-0.012694151
160	0x3d3de49d	0.0463606
161	0xbda51764	-0.08061102
162	0x3c8cf807	0.017208112
163	0xbda357e0	-0.07975745
164	0x3d3f76ac	0.046744034
165	0xbc1282b1	-0.008942292
166	0x3c802349	0.015641825
167	0xbc5d0c6a	-0.013491729
168	0xbd61381a	-0.054985143
169	0xbd383421	-0.04497159
170	0xbd590092	-0.05297906
171	0xbcd2e031	-0.025741668
172	0x3cb83e0f	0.02249053
173	0xbd2e6ac4	-0.04258229
174	0x3cb9ebf9	0.022695528
175	0x3c7e2974	0.015512813
176	0xbc8367e2	-0.016040746
177	0x3ca075d1	0.01958743
178	0x3b2429ef	0.0025049408
179	0xbd6b68da	-0.05747304
180	0xbd4413ed	-0.047870565
181	0x3bc29c0f	0.005939014
182	0xbd22fede	-0.03979384
183	0xbdb3183c	-0.08744857
184	0x3b8bf82b	0.0042715273
185	0xbd4f41d7	-0.0505999
186	0x3b983d84	0.004646005
187	0x3c92d762	0.017924968
188	0x3cbdcfdd	0.023170406
189	0xbd5635c3	-0.052297365
190	0xbd7a3d88	-0.061093837
191	0xbd822b29	-0.063558884
192	0x3d8bf6d7	0.0683419
193	0xbd75ab6d	-0.059977937
194	0xbb89d1a0	-0.0042058975
195	0x3d99e70f	0.07514774
196	0x3ca55978	0.020184264
197	0xbd1ba5c2	-0.037999876
198	0x3bbdf9c4	0.0057975966
199	0x3d99ff6b	0.0751942
200	0xbbb08453	-0.005386868
201	0x3d822cf0	0.063562274
202	0x3cceeb29	0.025258617
203	0xbb8554ff	-0.00406897
204	0x3c50cbc9	0.012743899
205	0xba9786ae	-0.0011560523
206	0xbd369e5a	-0.04458461
207	0x3d8dffd2	0.069335595
208	0x3d4911b6	0.049089156
209	0x3ca7a643	0.020465022
210	0x3c96514a	0.018349309
211	0x3da21bd1	0.07915462
212	0xbd288256	-0.041139923
213	0x3d5f751e	0.05455505
214	0x3d88515d	0.06656144
215	0xbd186af1	-0.037211362
216	0xba87b4b9	-0.0010353542
217	0xbc55d7f3	-0.013051975
218	0x3d07d61c	0.033163175
219	0xbd409d1a	-0.047024824
220	0xbd24bb5d	-0.040217746
221	0xbc893c4e	-0.016752388
222	0x3c85f5fb	0.016352644
223	0x3d8fe360	0.0702579
224	0xbd542e87	-0.051802184
225	0x3da558cb	0.080735765
226	0x3c119eb5	0.008887936
227	0x3d99e254	0.07513872
228	0x3c9126b8	0.017718658
229	0x3bf0425b	0.007332129
230	0x3d96e733	0.073683165
231	0x3d0c2e14	0.03422363
232	0xbb2d856d	-0.0026477233
233	0xbd3a0e32	-0.045423694
234	0x3cb8c136	0.022553068
235	0xbd276f20	-0.04087746
236	0xbd4bd2ff	-0.04976177
237	0x3c8c3cc3	0.017118817
238	0xbc8f59d8	-0.017498896
239	0x3d8469a6	0.06465463
240	0xbd534c4d	-0.051586438
241	0x3c419ed8	0.011817656
242	0x3d937ef2	0.07201947
243	0xbd251d14	-0.040310934
244	0x3da6caff	0.08144187
245	0xbc459335	-0.012059023
246	0x3d6002c6	0.054690145
247	0x3bc2ec60	0.0059485883
248	0x3d908f89	0.07058627
249	0x3d71b157	0.059007015
250	0x3da98194	0.08276668
251	0x3d9e4bdb	0.07729312
252	0x3dab63dc	0.08368656
253	0x3dac8a01	0.0842476
254	0x3bfd6975	0.0077335187
255	0xbaba2874	-0.001420273

conv1.bias f4 [6]
0	0xbd7fe295	-0.062471945
1	0x3d4e5ead	0.05038326
2	0x3c4f8eca	0.012668321
3	0x3cba0122	0.022705618
4	0x3d8d94fb	0.069131814
5	0xbd290083	-0.041260254

fc1.weight f4 [1, 7938]
0	0x3b9fc2bf	0.0048755105
1	0x3c8dbab9	0.01730095
2	0x3cbf4b11	0.023351224
3	0x3cb018f0	0.021496266
4	0x3c8ba328	0.017045572
5	0x3c09167d	0.008367178
6	0x3c39bcee	0.011336548
7	0x3bb62c60	0.005559489
8	0x3c3d31b3	0.011547494
9	0x3c97312c	0.018456064
10	0x3c9aca52	0.018895302
11	0x3c20f932	0.009825038
12	0x3cb5227e	0.022111174
13	0x3cb4eed9	0.022086548
14	0x3c0a7434	0.008450557
15	0x3bb0050b	0.005371695
16	0x3c602ca7	0.013682521
17	0x3c487b4f	0.01223643
18	0x3c7fb47e	0.015606998
19	0x3beb9def	0.007190458
20	0x3c47ccc7	0.012194819
21	0xbc1caf53	-0.009563285
22	0xbbb2733d	-0.0054458664
23	0x38e9b94e	0.000111448215
24	0xbc07b2bf	-0.0082823625
25	0xba1dce31	-0.00060197996
26	0x39bcda35	0.0003602073
27	0x3a14db5c	0.0005678439
28	0xbae9a825	-0.00178266
29	0xbc38e6a8	-0.0112854615
30	0xbc07df2f	-0.008292957
31	0xbc84d768	-0.016215995
32	0xbc1c2e85	-0.0095325755
33	0xbae3a3bc	-0.0017367522
34	0xbcc29306	-0.023751747
35	0xbc85d6fc	-0.016337864
36	0xbc61fc01	-0.013792993
37	0x3abbbddc	0.001432355
38	0x3c6aef3b	0.014339264
39	0x3c8509ce	0.016240027
40	0x3b01c87b	0.0019803334
41	0x39e42e06	0.0004352184
42	0x3c51d964	0.012808178
43	0x3b8cdd02	0.004298807
44	0x3c736bbd	0.01485723
45	0xbae2f85a	-0.0017316446
46	0x3c707ed1	0.014678673
47	0x3b97d831	0.0046339263
48	0x3b5696aa	0.0032743611
49	0x3c8ba63c	0.01704704
50	0x3caf0913	0.021366632
51	0x3c7709e6	0.015078044
52	0x3cbd3489	0.02309634
53	0x3bf20153	0.0073854118
54	0x3c9e13d4	0.019296564
55	0x3c8e6eba	0.017386783
56	0x3c85ee06	0.01634885
57	0x3c8d3fe7	0.017242385
58	0x3c225429	0.009907761
59	0x3c2ec97b	0.010668154
60	0x3c06bbb6	0.008223465
61	0x3beda237	0.0072520035
62	0x3c87494d	0.016514445
63	0x3c19658e	0.009362591
64	0x3cbfbd07	0.023405565
65	0x3c9061c4	0.017624743
66	0x3c9ecf63	0.019385999
67	0x3b8f7ade	0.0043786606
68	0x3cde9b92	0.027173791
69	0x3c85c8f3	0.016331172
70	0x3b231abe	0.0024887766
71	0x3c0678bb	0.008207495
72	0xbc1f09fb	-0.009706969
73	0xbc32c234	-0.010910559
74	0xbc733187	-0.014843351
75	0xbc76a8e6	-0.015054917
76	0xba49e6dc	-0.0007701942
77	0xbc424db7	-0.011859349
78	0x3b87ddaf	0.0041463
79	0xbbb34720	-0.0054711252
80	0xbca22bc4	-0.01979626
81	0xbca7cd8a	-0.02048375
82	0xbb3ac6f9	-0.0028499945
83	0xbc888856	-0.016666573
84	0x3a25b602	0.0006321372
85	0x391bfd8f	0.0001487641
86	0x3bf1ebb0	0.0073828325
87	0xba2742c8	-0.00063804956
88	0x3c2c961e	0.010533838
89	0x3c317020	0.010829955
90	0x3c0c5529	0.008565226
91	0x3c88557d	0.016642326
92	0x3bc2e56c	0.0059477594
93	0x3c033ae7	0.008009649
94	0xbbcb1104	-0.006197097
95	0x3bf8c382	0.0075916657
96	0x3b980171	0.0046388437
97	0xbb52d56e	-0.003217067
98	0x3bd2b623	0.006430404
99	0x3cb41557	0.021982832
100	0x3c86c506	0.01645137
101	0x3c7642cf	0.015030577
102	0x3c4cde34	0.012504149
103	0x3bf697b1	0.0075254072
104	0x3b988f9c	0.0046557914
105	0x3c75ee80	0.015010476
106	0x3c5ed9f1	0.013601766
107	0x3c7a56e9	0.01527951
108	0x3bb76eeb	0.0055979392
109	0x3c888d95	0.016669074
110	0x3c8fe0e7	0.017563296
111	0x3ca133ff	0.019678114
112	0x3c629280	0.013828874
113	0x3c365514	0.011128683
114	0x3c9dd5c5	0.019266972
115	0x3beeb7cf	0.0072850953
116	0x3c9f21fe	0.019425388
117	0x3bb4808c	0.005508488
118	0x3bbc934b	0.0057548634
119	0x3c2c9951	0.0105346
120	0x3bec675c	0.00721447
121	0xbc1bb560	-0.009503692
122	0xbb5f5d3e	-0.0034082676
123	0xbc45c535	-0.012070944
124	0xbcc2218e	-0.02369764
125	0x3a05e8a1	0.0005108212
126	0xbc38d347	-0.011280841
127	0xbc9cbd9d	-0.019133383
128	0x3afecba8	0.0019439356
129	0xbcb42b57	-0.021993322
130	0xbc26f761	-0.010190816
131	0xba1b1b28	-0.00059168274
132	0xbb15f12b	-0.0022879343
133	0x37a4f490	1.9664207e-05
134	0x3944b73a	0.00018760274
135	0x37eb99ed	2.808586e-05
136	0x3bc1e857	0.0059175896
137	0xbaafab54	-0.00134025
138	0xbb091bc2	-0.0020921086
139	0x3bb62281	0.0055583124
140	0xbc064c62	-0.008196922
141	0x3b2cd620	0.0026372746
142	0x3c40fb6b	0.011778693
143	0xbb53e299	-0.0032331108
144	0x3ba92354	0.005161682
145	0x3c467547	0.012112922
146	0x3c7535af	0.014966412
147	0x3c506647	0.012719697
148	0x3c56e708	0.013116606
149	0x3c02e31b	0.0079887165
150	0x3bc31cfc	0.005954383
151	0x3bff95c1	0.0077998345
152	0x3c179129	0.0092509175
153	0x3c35a001	0.011085511
154	0x3c2e3a89	0.010634073
155	0x3ca356e0	0.019938886
156	0x3b363072	0.0027799872
157	0x3ca0d19b	0.019631198
158	0x3bb1d545	0.005427035
159	0x3c7495ae	0.014928265
160	0x3bd5d799	0.0065259454
161	0x3c8e6d9c	0.01738625
162	0x3c9fae10	0.01949218
163	0x3ccd3c21	0.025053086
164	0x3c2a7f45	0.01040632
165	0x3c4cd4dd	0.012501922
166	0x3ccf888b	0.025333663
167	0x3c5344cf	0.012894823
168	0x3ca2b2aa	0.019860584
169	0x3c81ada5	0.01582987
170	0x3c22b74f	0.0099313995
171	0x3b890a59	0.0041821417
172	0xbc99b72e	-0.018764105
173	0xbc96e36d	-0.018418992
174	0xbc80fb15	-0.015744725
175	0xbbda2b7a	-0.006658015
176	0x39a2621a	0.0003097214
177	0xbc1c6a11	-0.009546773
178	0xbc18e182	-0.009331109
179	0x3b548997	0.0032430643
180	0x3b96b898	0.004599642
181	0x3bd4b2bb	0.006491033
182	0xbbc0f781	-0.0058888798
183	0x3b5c8c06	0.0033652796
184	0xbae0ca0d	-0.001715006
185	0xb99b9f48	-0.00029682578
186	0x3bd8ef88	0.006620351
187	0xb96fa48a	-0.00022854112
188	0xba4b76a2	-0.0007761513
189	0x39594b3f	0.00020722764
190	0xbb8c8602	-0.004288436
191	0x3ac08e89	0.0014690916
192	0x3c42c04d	0.011886668
193	0x3c7d1db7	0.015448979
194	0x3be6e3ba	0.00704619
195	0x3c9f91fd	0.019478792
196	0x3c8e4bf0	0.017370194
197	0x3bfd13d6	0.007723312
198	0x3bf853f9	0.0075783697
199	0x3c912881	0.01771951
200	0x3c8a62ed	0.016892875
201	0x3cbeedc9	0.023306744
202	0x3c2bd4c7	0.010487742
203	0x3c62dcd9	0.0138465995
204	0x3bff6837	0.007794406
205	0x3c763190	0.015026465
206	0x3c868555	0.016421
207	0x3c6d7bf4	0.014494885
208	0x3baff774	0.005370075
209	0x3cc28dd7	0.023749275
210	0x3ca3e8c2	0.020008449
211	0x3c666a7b	0.014063473
212	0x3c96a848	0.01839079
213	0x3ce8bea1	0.028411211
214	0x3c9a68b6	0.018848758
215	0x3c0cfa26	0.008604562
216	0x3c5e6b1d	0.0135753425
217	0x3bee3cf8	0.0072704516
218	0x3c8dd795	0.017314712
219	0x3c8a8c9f	0.016912756
220	0x3b1a857e	0.0023578103
221	0xbbb3ed57	-0.0054909396
222	0xbc965856	-0.018352669
223	0xbc06949b	-0.008214141
224	0xbbab94f0	-0.0052362606
225	0xbc5e5bee	-0.013571722
226	0x3bc4fcbb	0.006011573
227	0x3bbd1e00	0.0057713985
228	0x3c4aeb60	0.012385219
229	0x3c31d004	0.010852817
230	0x3bbbeb0a	0.005734806
231	0x3c623683	0.013806942
232	0x3a6495f0	0.0008719852
233	0x3c069288	0.008213647
234	0x3bfb56b4	0.007670248
235	0x3c0627a2	0.00818816
236	0x3c360508	0.011109598
237	0x3b2d0372	0.0026399759
238	0xbb799ca8	-0.003808776
239	0x3ba4f85e	0.0050344905
240	0x3c24e6fa	0.010064835
241	0x3ae2e5be	0.00173109
242	0x3c72051f	0.014771729
243	0x3b0e3da6	0.0021704226
244	0x3bdad486	0.006678167
245	0x3c344a83	0.011004093
246	0x3cdbf219	0.02684884
247	0x3bca09e7	0.006165731
248	0x3cca8848	0.024723187
249	0x3c80741f	0.01568037
250	0x3cbdac6c	0.023153506
251	0x3c36b939	0.011152559
252	0x3bb259e9	0.005442847
253	0x3c515e36	0.012778809
254	0x3cbb6be2	0.022878591
255	0x3ca69311	0.020333799
