PythonClient/saved_models/realOnSim.pth (torch, 57564 bytes, 6 tensors)

conv1.weight f4 [8, 3, 6, 6]
00000000: abd6 e0bd 876c 8abd 0161 263d 9bb6 31bd
00000010: fb83 67bd 601d d93d fcda 8f3d 2ed8 a23d
00000020: dc8e cb3d ea68 033e 2483 ee3d 84a6 b43d
00000030: 7e32 01bc 14d7 f83c 5763 da3d 0296 e7bb
00000040: b577 b13c fcd3 2c3d 7655 a93c 66d0 be3c
00000050: 9ed9 a0bb a08a a03d be99 b83d df40 3dbd
00000060: a3b4 00be eeea 6fbd 76f6 3cbc fdb1 46bd
00000070: 6d19 58bd dc9d b3bd 54b6 0bbe eb4b c1bc
00000080: e225 4ebd c6cf 9abd 415c 4cbc ad2a f6bd
00000090: e229 f9bb d86b 06bc ce9d 9b3d 62f9 f7bc
000000a0: 20e6 14bd facb 013e f623 ac3c 9558 293d
000000b0: 1d06 3f3c 8132 5b3d e7dd 0a3c 1f13 073e
000000c0: fab3 2fbd bbc2 4b3d 01a1 c23d 043a ca3c
000000d0: 1b6b 58bd c742 cf3d d55f 11bd fa3c a1bd
000000e0: a337 c13d f6ed d9bc 0f8c 06bd d89e 4f3c
000000f0: 1f34 17bc c68d 163c 087b a9bd dd5f e03c
00000100: 5b00 b3bd 0600 843d 946e 943c 8448 493c
00000110: 7518 db3b 4555 28bd 3a9e c7bc f50f bebd
00000120: a091 b4bd 29fc d9bc c5cb 6ebd f8ca 593d
00000130: 4e48 8c3d 8425 ec3b c5de e9bc 4340 d83d
00000140: ce82 fb3c 14aa 023e 2438 e2bc 42c2 103e
00000150: add8 023d d7cc 35bd e2c1 9e3d 8057 dd3d
00000160: 1bc3 7ebd 71d0 883d 6ad2 abbd 3d52 b3bc
00000170: 0da2 babd e863 813d 27f9 0c3d 1c00 a43d
00000180: 524b c8bd 66f3 fbbd a877 0f3b ed79 acbd
00000190: 9a1a 88bd b68b 1fbd 25a5 fcbd 2049 0bbe
000001a0: acd5 dfbd 9d45 913c 84bd 583d 85e8 b5bc
000001b0: 08d3 b53a 88c0 90bd 1720 41bc ecb2 e1bd
000001c0: 56f4 8ebd 1ed7 803d 4596 af3c 670f aa3d
000001d0: 6a5f 233d 5a9a 5a3d 7e8e b23c 5eff 2fbd
000001e0: 1f22 69bd 4a63 1a3d e5ad ff3b 8496 fa3c
000001f0: e158 513c f8e9 66bd 3cb3 a73d 38d1 b13d
00000200: 5c3f dbbb 5168 afbd 2de5 4d3d 63bc 9dbd
00000210: 7bb0 d33d 5494 5e3d d95b 903d f32e 4dbd
00000220: 6931 613c ed69 633d 73d5 2abd 72b6 8c3d
00000230: 8957 c63d aff7 15bd 9ede 7abd 5a1b b4bd
00000240: eab1 4cbb e305 f9bd a29b bbbd d88a 7f3d
00000250: d43c 7abd 79f0 a6bd 13d3 4a3d 60a8 d0bd
00000260: cbea 793d 5ff2 eabb dee4 59bd de75 c73c
00000270: 421b 3ebc 8951 8bbd 0e5b c5bc 4333 55bd
00000280: a662 57bd 4617 4e3d 2965 573d 399f b0bd
00000290: 9671 eabc 7716 b2bd d40e 5a3d cbb5 a4bd
000002a0: c98d 5d3c 94e0 c1bd 513b 10bd ad9c cabd
000002b0: 6e40 913d 5266 a13d 8487 b43d cde4 f5bc
000002c0: e45a 83bd 47e1 91bc 7427 d3bd 7bbf 97bc
000002d0: 3f70 613b c866 eabd b6c2 b5bd fe1f 0dbd
000002e0: 5fa1 02bb 11a8 433d f30d 15bd e015 0bbd
000002f0: f98c 3c3b 3b52 b63c 7755 e9bd 7c11 1dbb
00000300: a17b 32bc 0c89 d5bd a62b 2cbd 5c3c b6bd
00000310: e061 633c 447b 5b3c 60d5 9dbd 17ac 9bbd
00000320: bc7c f5bb f4fb e0ba 149c 9dbd 3919 b93c
00000330: bba6 ddbb d7b2 7b3d d1be 603c 580a 47bc
00000340: e3dd 0f3c ebfd 27bd bdd7 923d 4c33 233d
00000350: b3ba 083c 4b8f 4c3c 3c57 98bc 4138 adbd
00000360: 3682 223d 7cb8 7bbd 6c37 94bd 9300 8bbd
00000370: 36f8 dabb f585 ffbc 8c9a b73d bdc2 d93c
00000380: 77da c43c dfe2 89bd 5b5f 303c c8ed ccbd
00000390: 549c 9c3d a122 e1bd d955 ebbd 4dce 6e3b
000003a0: 87ac 1abe 8792 10be 6e32 3fbc 4e38 463d
000003b0: f755 b3bd e497 bbbd c67f cabd bf69 23be
000003c0: f9cc bc3c f7c9 6d3c 3ec8 65bd e3a3 75bd
000003d0: 3bc3 c5bd 7188 4f3d b93e 61bc f7c3 823b
000003e0: 9ac3 013d 3fa0 24bd 1cae 043d 69cc 23bc
000003f0: b8b3 c03b fdb8 4b3c c214 8f3d 5f24 d73c
-0.10978445 -0.06758981 0.040619854 -0.043387037 -0.05652235 0.10601306 0.0702419 0.07951389
0.09939358 0.1283299 0.11646107 0.08820823 -0.007885573 0.030375995 0.10663479 -0.007067443
0.021663526 0.04219435 0.020670634 0.023292731 -0.0049087545 0.078389406 0.09013699 -0.046204444
-0.12568907 -0.058573656 -0.01153337 -0.048509587 -0.052758623 -0.08770344 -0.13643771 -0.02359577
-0.050329097 -0.07559161 -0.012473167 -0.120198585 -0.00760387 -0.008204423 0.07598458 -0.030270282
-0.036352277 0.12675467 0.021013241 0.041344244 0.011659172 0.05351496 0.008475757 0.13190888
-0.04289625 0.049746256 0.09503365 0.024685867 -0.05283652 0.10120159 -0.035491783 -0.078729585
0.0943444 -0.026602726 -0.032848414 0.012672149 -0.009228735 0.009189075 -0.082754195 0.027389461
-0.08740302 0.06445317 0.018119134 0.0122853555 0.006686265 -0.041096944 -0.02436744 -0.09280387
-0.08816838 -0.026609497 -0.0582998 0.05317208 0.068497285 0.0072066206 -0.028548608 0.10559132
0.030702021 0.12760192 -0.02761466 0.14136603 0.03194492 -0.044384804 0.07751824 0.10807705
-0.062197786 0.06680382 -0.08389743 -0.0218898 -0.0911294 0.06317884 0.034417298 0.08007833
-0.09779991 -0.12302284 0.002189139 -0.08421693 -0.06645699 -0.038951598 -0.12336186 -0.13602114
-0.109294266 0.01773339 0.05291511 -0.0222056 0.0013872096 -0.070679724 -0.011787436 -0.11020455
-0.06980197 0.0629103 0.021433959 0.08303719 0.039885916 0.053369857 0.021796461 -0.042968147
-0.056917306 0.037692346 0.0078027123 0.03058935 0.012777538 -0.056375474 0.08188483 0.086824834
-0.0066909026 -0.08564819 0.050267387 -0.077019475 0.10336395 0.054340675 0.070487686 -0.050093602
0.01374469 0.05552094 -0.041707467 0.06870736 0.09684665 -0.036613163 -0.06124746 -0.087942794
-0.0031233975 -0.12159326 -0.09160544 0.06238827 -0.061093166 -0.08151335 0.049517702 -0.10188365
0.06101493 -0.007170006 -0.05319678 0.024348196 -0.011603178 -0.06802661 -0.02409127 -0.05205084
-0.052584313 0.050315164 0.05258671 -0.08624119 -0.028618615 -0.08695691 0.053236797 -0.08042487
0.013522574 -0.09466663 -0.03521282 -0.09893165 0.07092367 0.07880844 0.0881491 -0.030016327
-0.064138204 -0.017807616 -0.103102595 -0.018523922 0.003439918 -0.11445385 -0.08875029 -0.03445434
-0.001993261 0.047767702 -0.036390256 -0.03395641 0.002877055 0.022256007 -0.11393254 -0.002396672
-0.010893733 -0.1042653 -0.042033814 -0.088982314 0.013878316 0.013396088 -0.07706714 -0.07601183
-0.007491676 -0.0017164932 -0.07695785 0.022595035 -0.0067642606 0.06144985 0.013717369 -0.012148462
0.008780929 -0.04101364 0.07170055 0.039843842 0.008345294 0.012485336 -0.018596284 -0.08457995
0.03967496 -0.061455235 -0.072371334 -0.06787219 -0.006682421 -0.031191805 0.08965024 0.026582116
0.024029953 -0.06732725 0.010764922 -0.10006291 0.07647005 -0.10992933 -0.114909835 0.0036438883
-0.15104876 -0.14118396 -0.011669738 0.04839354 -0.08756631 -0.0915983 -0.09887652 -0.15958308
0.023046957 0.014513484 -0.05609917 -0.059970748 -0.09656378 0.05066723 -0.013747864 0.003990646
0.03168068 -0.040191885 0.032392606 -0.009997466 0.005880799 0.012434241 0.06986381 0.02626246

conv1.bias f4 [8]
00000000: b71d 523a c89d 5c3b 9ebd 973c fe92 1abd
00000010: 847c f93c 71d6 ac3d 69c1 073e 08b4 2d3d
0.0008015292 0.003366338 0.018523034 -0.03773784 0.030454881 0.08439339 0.13257374 0.04240802

conv2.weight f4 [6, 8, 16, 16]
00000000: 62d7 90bc ead2 ff3c 5995 2a3c 42d6 2f3c
00000010: 287d b93b 6b83 4dbc c116 303c 4bac ecbc
00000020: 76bd 4dbd 38ed 543c 002f 6abc ea75 a13c
00000030: 8a80 213c 1395 0c3d 9897 21bc 78eb 23bb
00000040: f544 c73c 3576 50bc 3253 1f3b 2015 bb3c
00000050: 44ef 833c eebe 8fbc b8cf 12bd d8e3 c539
00000060: 5025 12bc ff95 34bc 893e 99b9 1207 23bc
00000070: 3652 953c eaa0 623c a6dd 483c 66d4 cb3c
00000080: 044e 043c f62c b53c 6e78 6d3c a7bd bfbc
00000090: efa6 693c 67f6 3e3a 15b1 023d f72d 4c3d
000000a0: d77f 553d 5c51 2f3c fd6e df3b 4653 aebc
000000b0: 97ac 33bc 6474 43bb e1e9 ab3b 6bf6 fb3c
000000c0: 492c 033c cc5f 02bc 7666 ab3c f1af 1abb
000000d0: 7fdd c23c 6ee9 c9bc 23bf 253c 4ac8 0dbc
000000e0: 9a16 52bc 982f b13c a856 f43b 0648 273d
000000f0: 7805 ddbb ad84 a23c 37c4 843c 03bb 393c
00000100: 171b 073d f2f8 7bbc 18d2 c83c 33e4 13bc
00000110: 58e6 8d3b 71b8 38bc ea41 d93c 6bfe 1bbc
00000120: 6406 073b 5cf3 153c 99bc 753c a012 683c
00000130: 2a23 e83c 6c90 9bbc 53ec e0bc 6679 06bc
00000140: 28dc f1ba dfac 7fbb 5133 983c 8d2a 87bc
00000150: 83ec 32bc 45fe 30bc dc1b 09bd 1a0c efbc
00000160: dcd3 a5bc d533 e3ba 95c4 f23c 6d07 dfb9
00000170: ebb4 ed3a 069e 2ebc 8906 983c 3a03 1a3b
00000180: 3c30 12bd daa0 0abc 0c91 123b 4acf 3abc
00000190: bdba 923c d8a4 5a3b a0f9 213c c7d7 bdbb
000001a0: f2bf 253d c89d 4f3b d445 903c bd8d 3b3c
000001b0: 60bc cb3a 1748 70bc 2ae9 653b 2722 e43b
000001c0: 325f 943c ff21 88bc 8711 b53c fb95 3e3c
000001d0: 9271 1abc 9712 02bd 9401 653b 3cc6 9ebc
000001e0: 1f7b 85bc b80e c43a eb5e 073d 2b97 67b8
000001f0: 3c08 813b 8b71 85bc 4d0d 443c 0017 5db9
00000200: 9090 f9bc 000e b3bc 5be8 0bba 6e32 7ebb
00000210: 3398 0fbd a019 9cbc 53e6 00bc 108e 77bc
00000220: a63a 9c3c 096d 8ebc 06e3 e5bc eb04 80bc
00000230: 6cb2 8c3b 65df 9bbc 52a1 17bb cca0 69bb
00000240: 9910 cbbc 4b71 853c 9096 e43b 818d 013c
00000250: fa0a c1bb 98f0 1f3c 93a3 cd3c de20 24bc
00000260: 7f94 ad3b c3a1 e33c f828 2fbc 183d 33bc
00000270: 6d7d 9c3b ee30 293c a26e d0bb bdbb 283c
00000280: cb6a 66bc 9f83 06bd cdaa a03a 9ac4 593c
00000290: a6c1 3ebb c43b 443c f57b 7c3c b672 653c
000002a0: 334b 823b 3fb4 463c 9661 d6bc f51e c2bc
000002b0: d132 c8bc 53ed 85bc 63a9 07bc 533c 863c
000002c0: 855f 223d f70a cbbc e57c a1bc c327 cb3c
000002d0: e172 2cbc 47fc 10bd 74fc 823c b89a 383d
000002e0: 55e3 02bc 5317 cc3b ecea 1a3d 560a 763b
000002f0: 32bf 283c 3d21 a6bc 3cee 0f3b 9aa9 82bc
00000300: a795 23bd 47f7 c93c b26b 4abc f8e9 1e3c
00000310: b73e 133c edb5 d73a 1d1d 463b d32c 96bc
00000320: 5092 99bc b124 f2bc b129 dcbc a87d 0ebc
00000330: fc2e f8bb bcf0 ae3b 093a cabc 875b f93b
00000340: 3d5b 8a3b 7bcc fdbc eac6 f4bc 16d8 443c
00000350: 0e3d d13c 7bbb a2bb 6f87 5a3c 6572 103d
00000360: 460b 9f3b b222 203c 6ff0 723c 1f2b 1ebc
00000370: c405 96bc 9c34 22bc 8040 a2bc 7792 99bc
00000380: 6e18 5fbc 8588 88bc c6be 833b 70e7 acbb
00000390: 714c b03c a79a 8a3b 4022 3f3b 869c ba3c
000003a0: a127 dfbb ce06 b0bc 2adc 79bc af19 64bc
000003b0: d437 96ba f4e6 5abc 2578 9cbc 0eca 593b
000003c0: 5992 bb3c ae8c af3c 47c0 3f3c e442 c0bc
000003d0: 136e bb3b 78a9 6a3a 68c6 c9bc 6a77 7abc
000003e0: 1b5d 783b 29ce 61bc 8ba1 fc3c 5cc2 acbb
000003f0: 7d99 b1bb 32ce 41bc 6a63 16bb 2475 febc
-0.017680828 0.031228501 0.010411584 0.010732235 0.0056606717 -0.0125435395 0.010747612 -0.02889075
-0.050229512 0.0129960105 -0.014293432 0.019709546 0.009857306 0.034321856 -0.009862803 -0.0025012176
0.024324873 -0.012723495 0.0024311063 0.022837222 0.016105302 -0.017547097 -0.035842627 0.00037744525
-0.008920029 -0.01102209 -0.00029229026 -0.009950416 0.018227678 0.01383231 0.012259876 0.024881553
0.008075241 0.022116166 0.014494045 -0.023405863 0.0142609915 0.00072846416 0.03190716 0.049848523
0.05212387 0.01070055 0.0068186508 -0.021279942 -0.010966442 -0.0029824013 0.0052463864 0.03075715
0.008006164 -0.00795741 0.02092288 -0.0023603404 0.023787258 -0.02464744 0.010116371 -0.00865371
-0.012822771 0.02162914 0.0074566193 0.04084017 -0.0067450367 0.019838655 0.016206844 0.011336091
0.03298482 -0.015379177 0.024514243 -0.009026575 0.0043304376 -0.011274443 0.026520688 -0.009521107
0.0020603174 0.00915226 0.0149985785 0.014164597 0.02833708 -0.018989764 -0.027456438 -0.008207655
-0.0018452452 -0.0039012951 0.018579157 -0.016499782 -0.010920647 -0.01080281 -0.033473834 -0.029180575
-0.020242624 -0.0017334173 0.029634753 -0.00042539407 0.0018135583 -0.010657793 0.018557804 0.0023500458
-0.03569053 -0.008461202 0.0022364287 -0.011401961 0.01791131 0.0033362415 0.009886175 -0.005793545
0.040466256 0.0031679738 0.017611422 0.011447367 0.0015543811 -0.014665625 0.0035081604 0.006962079
0.018111799 -0.016617773 0.022103084 0.011632438 -0.009426491 -0.03175601 0.0034943568 -0.019381635
-0.01629406 0.0014958 0.033049505 -5.5215478e-05 0.003937749 -0.016289493 0.011966062 -0.0002108477
-0.03046444 -0.021857262 -0.0005337053 -0.0038787383 -0.035057258 -0.019055188 -0.007867414 -0.015109554
0.019070935 -0.017385976 -0.028062355 -0.015627345 0.0042937305 -0.019027421 -0.0023136926 -0.003564882
-0.024788188 0.016289374 0.0069759563 0.007907272 -0.005891201 0.009761952 0.025102412 -0.010017602
0.005297243 0.027787095 -0.01069092 -0.010939859 0.004775694 0.010326607 -0.0063608447 0.010298667
-0.014063547 -0.032840367 0.0012257934 0.013291502 -0.0029107123 0.01197714 0.015410413 0.0140044
0.0039762496 0.012127935 -0.02616958 -0.023696402 -0.024438294 -0.016348517 -0.008280131 0.016386187
0.039641876 -0.024785502 -0.019712875 0.024799233 -0.010525436 -0.03539684 0.01598952 0.045069426
-0.0079887705 0.0062283664 0.037821695 0.0037542782 0.010299491 -0.020279521 0.0021962067 -0.015950013
-0.03993764 0.024654044 -0.012354778 0.009699337 0.00898712 0.0016457416 0.0030229755 -0.01833192
-0.018746525 -0.029558511 -0.026875349 -0.008696951 -0.0075739603 0.0053387564 -0.024685876 0.007609788
0.004222302 -0.030981293 -0.029880006 0.0120144095 0.025541808 -0.004966197 0.013337954 0.035265345
0.004853639 0.009773897 0.014827832 -0.009653836 -0.018313296 -0.009900238 -0.019806147 -0.018746598
-0.013616664 -0.01666666 0.0040205447 -0.005276613 0.021520825 0.004229862 0.0029164702 0.022779714
-0.006810144 -0.02148762 -0.015250245 -0.013922139 -0.001146073 -0.013360728 -0.019100258 0.0033232006
0.022896932 0.021429386 0.011703557 -0.023469396 0.005719909 0.00089516444 -0.02463074 -0.01528726
0.0037897292 -0.013782063 0.030838748 -0.005272193 -0.0054199086 -0.011828946 -0.002294744 -0.031061716

conv2.bias f4 [6]
00000000: b995 4a3c 641e acbc fa51 cc3b 4d04 96ba
00000010: 5ec7 823b be57 56bc
0.012364798 -0.021010585 0.0062353583 -0.0011445374 0.0039910516 -0.013082443

fc1.weight f4 [4, 144]
00000000: b51c 64bd 101c 663d 0711 843d 36c9 bbbd
00000010: 84c0 2a3c 8fcc b9bd 8f7a 473e 28a4 8bbd
00000020: 60a2 663d 9a20 713d 88ec 0fbe 62d9 2a3b
00000030: 9b78 14be 6672 fb3c b4fa 07bd e94c 843d
00000040: 1d9d 18be 67b7 31bd 0dee e03d 740a 373c
00000050: dff1 04bb 44d9 e53d bea7 9e3d 54ed 5bbc
00000060: 431e 673c c93f 32bc a510 68bd ec0c 97bc
00000070: 757b 2abd fda8 5ebd 6c0f 673d 5aa0 463d
00000080: 0c65 7b3d 6a40 8d3c aa6b 14bb 53af 8c3b
00000090: b826 473c 3d64 843d 5c40 a4bc 4433 993d
000000a0: e85e 81bd 7884 1b3d 9708 163d 0eb8 933c
000000b0: da68 b7bd c2ab 08bd 88f5 cdbb 1d68 983d
000000c0: d463 cb3c b7e6 dd3d ecc9 dbbd ba82 a63d
000000d0: d657 0b3b 0bfa a53d f8fb c5bc 8cb5 723d
000000e0: 7db7 5fbd 91f4 0dbd a3ed e7bc 07e4 febb
000000f0: 7194 98bd a7fc 20bd 7a39 813d 4065 583c
00000100: 9790 b7bd 9789 d7bc af8a 3d3d 8836 b7bd
00000110: e863 22be 9281 0c3d 77d2 73bd 2b70 603d
00000120: 001a b4bd 7351 debc 8a2d 80bd d3ff 29bd
00000130: 0922 0abc c2ad c53c 4050 adbd 2c6c b53b
00000140: 0e42 db3d 6e11 0b3d 986c b1bd cadd 0ebe
00000150: 9807 d63c 5291 fabc 354b 46bd f14c e23d
00000160: de0b e2bc c7df 343b 332f d23d f84b 1d3c
00000170: 0f77 89bb 9f6d 00be 595a 9a3d 1be1 523d
00000180: 8cb4 933d 90be a5bd 6c9d eebb 5d64 a03d
00000190: f6b4 d8bd 5142 123d fb4e c1bd dfe9 393d
000001a0: bca6 573c 2c06 aabd 8a6f 213c 6b4e 293d
000001b0: 8e40 f3bd cb8e 6e3d b81c d53d 8919 15be
000001c0: 7b1a 863c e9e9 073e 1fe7 c43d bff7 9e3c
000001d0: 9eca de3c 5791 b5bd 0342 a3bc 8495 1a3d
000001e0: f3d3 9e3d 8288 abbc 339f 52bd 1e95 df3d
000001f0: 0288 8cbd 721d 7f3a 6068 e2bd 9788 cf3d
00000200: cd78 1e3e 666f 3cbd b888 17be b746 043d
00000210: 4b0b 573d 0050 6f3d ab49 ddbd 3e75 14bd
00000220: 73ca bc3d 92b8 acbc 4b46 c43c 37d9 06bb
00000230: 3548 b0bb 83d4 683c 9921 17bd c274 9f3d
00000240: f7c1 55bd 3adb 863c d156 3a3d 164d 09be
00000250: 2edd a53d 6460 84bd bd15 1e3e d66e 03bd
00000260: 93c9 843c a7c7 ac3d a4d6 d5bd 2e38 48bc
00000270: 3633 02be 2d54 18bc 1543 09bd 1f96 633c
00000280: 8805 8dbd 01d3 b1bd e0b2 a43d db13 733d
00000290: 7fe9 8cbc b621 bd3d 475c 923d b960 c83c
000002a0: c2f2 253d 8b83 2cbd 8295 64bc ace4 7b3c
000002b0: 8afb bfbd c880 2c3d d5d9 adbc 5527 87bc
000002c0: 7ea6 e83c 9583 b63b fc93 633d e99b 2b3c
000002d0: f235 703d b7e0 923d d90f 963c cf1b a13d
000002e0: 45a1 88bd 6818 bc3d 6940 07bc 9b57 ab3c
000002f0: cf3b 5ebd 2846 05be 26a6 2c3d 6c65 993d
00000300: 32e4 603c cdb9 ac3d 18ed 91bd 3fcc c53d
00000310: b440 05bc 9bbf 303d 3faa 9f3c 93be 643c
00000320: 4f89 e4bc 4f10 9c3b d608 45bc be44 353d
00000330: 2611 ddbd 70a7 0b3c 1d5c f33c 6ee1 0dbc
00000340: 4c82 87bd 2fdc b7bd 0df5 6d3d 687e d4bd
00000350: 76ab 25be aba0 63bc d174 08bd c6dd a33d
00000360: 30dc 9abd 967d 94bd 41ae 62bd 0ef7 863b
00000370: 49ed eebd 3ba4 af3d 852c 393c 37c0 a7bd
00000380: 3e59 0e3e 13fe 893b d7dd 7bbd 3130 1bbe
00000390: 6729 383d f179 ecbb 2a5e bdbd f625 233e
000003a0: b560 8dbd cd6d 883d 22ef 903d 0f42 59bc
000003b0: a9d5 fbba 20da d7bd 9882 193d 42c4 083d
000003c0: b41f 9d3d 1ffe 20bd 35f3 5abd 4f93 bf3d
000003d0: ebd4 d2bd 2100 bc3c 9f17 c2bd 825a b73c
000003e0: eb1f 37bc 465c d5bd 2c63 b4bc 2cfe 6c3d
000003f0: 66ca 15be ea42 663d 51b2 a03d 2ddf 24be
-0.05569144 0.056179106 0.0644856 -0.09169237 0.010421876 -0.090722196 0.19480346 -0.0681842
0.056307197 0.058868982 -0.14055073 0.0026069512 -0.14499132 0.030694198 -0.033198074 0.06459982
-0.14903684 -0.043387797 0.109829046 0.011171926 -0.0020285768 0.11223081 0.07746838 -0.013423283
0.014106336 -0.010879465 -0.0566565 -0.018438779 -0.041621644 -0.05436038 0.05641119 0.048492767
0.061375663 0.01724263 -0.002264718 0.004293361 0.012155227 0.064644314 -0.02005022 0.07480481
-0.0631693 0.03796813 0.036629286 0.0180321 -0.08955546 -0.033366926 -0.006285373 0.07441733
0.024827875 0.10835021 -0.10731873 0.08130403 0.002126207 0.081043325 -0.024168 0.059255168
-0.054618347 -0.034657065 -0.028311556 -0.007778648 -0.07450188 -0.039303448 0.06309791 0.013207734
-0.08963125 -0.026310725 0.046274837 -0.08945948 -0.15858424 0.034303255 -0.059526887 0.05479447
-0.087940216 -0.027138447 -0.06258686 -0.04150374 -0.008430966 0.024130706 -0.08462572 0.0055365767
0.10705958 0.03395217 -0.08663291 -0.13951793 0.026126668 -0.030586872 -0.048411567 0.11049832
-0.02759355 0.0027599202 0.10262909 0.009600632 -0.004195101 -0.12541817 0.07536764 0.05148421
0.07212171 -0.080929875 -0.0072819497 0.07831643 -0.105813906 0.035707776 -0.094388925 0.045389052
0.013162311 -0.083019584 0.009853253 0.04133455 -0.11877547 0.058241647 0.10405868 -0.14560522
0.016370049 0.13272823 0.09614395 0.019405244 0.027196225 -0.08865612 -0.019928938 0.037740245
0.0775527 -0.020939115 -0.051421355 0.10917114 -0.06861879 0.0009731866 -0.11055064 0.10133474
0.1547577 -0.046004675 -0.14798248 0.032294 0.052501004 0.058425903 -0.10805067 -0.036244623
0.092183016 -0.021084104 0.0239593 -0.0020576247 -0.0053797015 0.014210823 -0.036897276 0.07785942
-0.052186932 0.016461957 0.04549295 -0.13408312 0.08098827 -0.064636976 0.1543798 -0.032088123
0.0162094 0.08436518 -0.1044133 -0.0122204255 -0.12714848 -0.009297413 -0.03351124 0.013890772
-0.068858206 -0.08682824 0.0804193 0.059345108 -0.017201183 0.092349455 0.07146507 0.024460183
0.040514715 -0.042117637 -0.013951661 0.015374344 -0.09374149 0.042115003 -0.021222034 -0.016498247
0.028399702 0.005569885 0.05556105 0.010474184 0.058645196 0.07171767 0.018318104 0.07866632
-0.06671385 0.091843426 -0.008255103 0.020915797 -0.054256257 -0.13015044 0.04215064 0.07490048
0.013726281 0.08433876 -0.071253 0.096580975 -0.008133102 0.04315148 0.01949036 0.013961452
-0.027897505 0.0047626863 -0.012026032 0.04425501 -0.107942864 0.008523807 0.029707009 -0.008659704
-0.06616649 -0.089775436 0.058095027 -0.103756726 -0.16178688 -0.013893287 -0.03331453 0.08001284
-0.07561529 -0.07250516 -0.055341963 0.0041188067 -0.11666352 0.08576246 0.011302118 -0.08190959
0.1390123 0.004211196 -0.06149086 -0.15155102 0.04496136 -0.007216685 -0.09246476 0.1593245
-0.06903211 0.06661568 0.07076861 -0.0132603785 -0.0019213456 -0.10539651 0.03747806 0.03339029
0.076720625 -0.03930485 -0.053454597 0.09354269 -0.10294517 0.02294928 -0.094771616 0.022382025
-0.011177043 -0.104179904 -0.022019945 0.057859585 -0.1462799 0.056216158 0.07846511 -0.1610076

fc1.bias f4 [4]
00000000: cbd9 50bd 6b45 bbbc a3fb 9d3b c661 a1bd
-0.050988954 -0.02286025 0.004821257 -0.07879977
