PythonClient/saved_models/realOnSim.pth (torch, 55191 bytes, 5 tensors)

conv1.weight f4 [8, 3, 6, 6]
-1.1934124e+08 -6.4610092e+07 -2.3386132e+07 -1.5228e+07 -1.1751588e+07 -1.1442802e+07 -1.10695016e+08 -6.056585e+07
-2.3326362e+07 -1.5800768e+07 -1.1134001e+07 -1.0825198e+07 -9.9837464e+07 -5.1142704e+07 -2.1209634e+07 -1.6403415e+07
-1.1457735e+07 -1.1442802e+07 -1.06028296e+08 -5.257708e+07 -2.1966684e+07 -1.879904e+07 -1.610956e+07 -1.5506915e+07
-1.07338136e+08 -5.3857096e+07 -2.182722e+07 -1.7902542e+07 -1.6542867e+07 -1.6249014e+07 -1.0701441e+08 -5.3533356e+07
-2.0651818e+07 -1.4316566e+07 -1.2648083e+07 -1.2199832e+07 -1.1543151e+08 -5.6606372e+07 -1.930707e+07 -1.8828934e+07
-1.865961e+07 -1.9695544e+07 -1.045142e+08 -5.2298176e+07 -1.7020994e+07 -1.8505206e+07 -1.92473e+07 -2.012886e+07
-9.484693e+07 -4.6306572e+07 -1.8938498e+07 -2.1194694e+07 -2.08859e+07 -2.19368e+07 -1.001263e+08 -4.7586572e+07
-2.150349e+07 -2.1334146e+07 -2.19368e+07 -2.2848236e+07 -1.0355292e+08 -4.9608692e+07 -2.1518418e+07 -2.2863174e+07
-2.3017566e+07 -2.272373e+07 -1.041406e+08 -4.9887584e+07 -2.3311414e+07 -2.4810572e+07 -2.5413212e+07 -2.4531648e+07
-1.1691573e+08 -5.7642304e+07 -2.3341302e+07 -2.3774618e+07 -2.375967e+07 -2.4347376e+07 -1.0480802e+08 -5.438503e+07
-2.2260526e+07 -2.4053518e+07 -2.4656166e+07 -2.4795632e+07 -9.636103e+07 -5.038566e+07 -2.4207916e+07 -2.658862e+07
-2.7036858e+07 -2.7036858e+07 -1.0162545e+08 -5.029101e+07 -2.525882e+07 -2.6897408e+07 -2.8102702e+07 -2.9014132e+07
-1.0355292e+08 -5.095344e+07 -2.6309712e+07 -2.8874686e+07 -2.9477338e+07 -2.9183484e+07 -1.0386173e+08 -5.393677e+07
-2.7838736e+07 -2.859577e+07 -2.9646668e+07 -2.995546e+07 -11949.825 -12357.368 -11359.203 -10368.935
-12140.38 -10195.335 -12443.029 -12643.835 -11613.89 -10861.274 -11369.693 -10401.46
-11676.855 -11729.311 -11160.673 -10605.734 -10417.867 -10462.123 -11126.825 -11350.046
-10115.122 -9158.1 -10300.407 -11143.194 -8609.839 -8650.219 -8060.1436 -8623.995
-9969.543 -10687.442 -5978.9253 -5937.204 -5623.1914 -7381.831 -9404.972 -10044.828
-10952.882 -11102.774 -10374.853 -9238.071 -11048.719 -8754.177 -11416.048 -11785.386
-11271.583 -10153.25 -10340.126 -9443.034 -10705.871 -10820.284 -10545.6875 -9737.577
-9590.551 -9778.171 -10220.746 -10474.714 -9646.156 -8500.699 -9417.837 -10134.604
-7943.524 -8177.1436 -7719.735 -8319.363 -9633.7 -10368.578 -5476.0396 -5806.8735
-5752.4106 -7092.706 -9114.499 -9813.752 -10766.302 -10398.897 -9872.871 -9155.53
-11005.721 -8739.877 -11590.452 -11564.955 -11265.437 -10096.099 -10353.326 -9519.532
-10961.556 -11015.391 -11180.929 -10408.587 -10335.9795 -10301.415 -10726.078 -10874.657
-10544.4 -9722.911 -10397.593 -10630.823 -8144.539 -8495.883 -8770.72 -9249.612
-10503.175 -11242.672 -6007.3 -6391.486 -6642.625 -7929.3438 -10116.905 -10830.237
-1.7181495 -1.7713653 -1.8050634 -1.749641 -1.6945344 -1.4783416 -1.46611 -1.6442071
-1.7277237 -1.6832362 -1.5394638 -1.3589396 -1.4575872 -1.4574963 -1.6007361 -1.6108191
-1.4086057 -1.2067138 -1.4719881 -1.4355618 -1.5190293 -1.3650239 -1.3672336 -1.117124
-1.307945 -1.448579 -1.398331 -1.4524287 -1.3661429 -1.1453965 -1.369865 -1.3432672
-1.446002 -1.4164275 -1.1778957 -1.0514545 -1.7005757 -1.7003747 -1.5790724 -1.6453403
00000000: 17a0 e3cc cb77 76cc 0a6c b2cb 605c 68cb
00000010: a450 33cb 729a 2ecb 4d22 d3cc 560a 67cc
00000020: 4df7 b1cb c019 71cb 31e4 29cb ee2d 25cb
00000030: c36c becc 0c18 43cc 11d1 a1cb d74b 7acb
00000040: c7d4 2ecb 729a 2ecb a13b cacc ce90 48cc
00000050: ae97 a7cb e06c 8fcb f8cf 75cb e39d 6ccb
00000060: 33bb cccc d272 4dcc 4a87 a6cb e795 88cb
00000070: 936c 7ccb b6f0 77cb 211d cccc ab36 4ccc
00000080: 958f 9dcb 1674 5acb 93fe 40cb 9827 3acb
00000090: 0b2b dccc a9ef 57cc 1f4d 93cb 43a7 8fcb
000000a0: 8d5c 8ecb dc43 96cb 5358 c7cc 7080 47cc
000000b0: 21dc 81cb fb2e 8dcb 62d8 92cb 2e92 99cb
000000c0: fae7 b4cc 43a5 30cc 417d 90cb e3b3 a1cb
000000d0: c658 9fcb 505d a7cb ccf9 becc 4387 35cc
000000e0: 010f a4cb 41c4 a2cb 505d a7cb 7651 aecb
000000f0: f382 c5cc fd3d 3dcc 292c a4cb a36e aecb
00000100: 2f9c afcb 495e adcb e7a1 c6cc 584e 3ecc
00000110: 1bda b1cb 264a bdcb 2ee3 c1cb 6029 bbcb
00000120: c2ff decc 50e3 5bcc 7b14 b2cb cd62 b5cb
00000130: 9b45 b5cb 78c1 b9cb cae7 c7cc 6276 4fcc
00000140: 97d5 a9cb 8783 b7cb 931c bccb f82c bdcb
00000150: 49cb b7cc bf34 40cc 16b1 b8cb e6da cacb
00000160: 5d46 cecb 5d46 cecb cdd5 c1cc 50d8 3fcc
00000170: a2b5 c0cb 0036 cdcb 1768 d6cb 3a5c ddcb
00000180: f382 c5cc 385f 42cc 28ba c8cb df4b dccb
00000190: ede4 e0cb fea6 decb bc19 c6cc a0c0 4dcc
000001a0: 8864 d4cb 1d2b dacb a62f e2cb c28a e4cb
000001b0: 4db7 3ac6 7915 41c6 d07c 31c6 bd03 22c6
000001c0: 85b1 3dc6 574d 1fc6 1e6c 42c6 578f 45c6
000001d0: 8f77 35c6 19b5 29c6 c6a6 31c6 d785 22c6
000001e0: 6c73 36c6 3e45 37c6 b162 2ec6 f0b6 25c6
000001f0: 78c7 22c6 7e78 23c6 4ddb 2dc6 2f58 31c6
00000200: 7d0c 1ec6 6618 0fc6 a1f1 20c6 c71c 2ec6
00000210: 5b87 06c6 e028 07c6 26e1 fbc5 fbbf 06c6
00000220: 2cc6 1bc6 c5fd 26c6 67d7 bac5 a289 b9c5
00000230: 88b9 afc5 a6ae e6c5 e3f3 12c6 50f3 1cc6
00000240: 8723 2bc6 197b 2dc6 691b 22c6 4958 10c6
00000250: e0a2 2cc6 b5c8 08c6 3160 32c6 8b25 38c6
00000260: 551e 30c6 00a5 1ec6 8190 21c6 238c 13c6
00000270: 7c47 27c6 2311 29c6 c0c6 24c6 4f26 18c6
00000280: 34da 15c6 afc8 18c6 fcb2 1fc6 dbaa 23c6
00000290: a0b8 16c6 ccd2 04c6 5927 13c6 6a5a 1ec6
000002a0: 313c f8c5 2689 ffc5 e13d f1c5 74fd 01c6
000002b0: cd86 16c6 5002 22c6 5120 abc5 fd76 b5c5
000002c0: 49c3 b3c5 a6a5 ddc5 ff69 0ec6 0257 19c6
000002d0: 3539 28c6 977b 22c6 7c43 1ac6 1f0e 0fc6
000002e0: e2f6 2bc6 828f 08c6 cf19 35c6 d2b3 34c6
000002f0: bf05 30c6 65c0 1dc6 4ec5 21c6 21be 14c6
00000300: 3946 2bc6 901d 2cc6 b7b3 2ec6 59a2 22c6
00000310: eb7f 21c6 a9f5 20c6 5098 27c6 a1ea 29c6
00000320: 9ac1 24c6 a5eb 17c6 5f76 22c6 4b1b 26c6
00000330: 5084 fec5 88bf 04c6 e10a 09c6 7386 10c6
00000340: b31c 24c6 b0aa 2fc6 66ba bbc5 e3bb c7c5
00000350: 0095 cfc5 c0ca f7c5 9f13 1ec6 f338 29c6
00000360: 53ec dbbf 19bc e2bf 510c e7bf 3cf4 dfbf
00000370: 81e6 d8bf 4c3a bdbf 7ea9 bbbf 6175 d2bf
00000380: 0d26 ddbf 4974 d7bf 260d c5bf bcf1 adbf
00000390: 3892 babf 3d8f babf ece4 ccbf 522f cebf
000003a0: 314d b4bf 9975 9abf 1b6a bcbf 7dc0 b7bf
000003b0: 8d6f c2bf 1ab9 aebf 8301 afbf ebfd 8ebf
000003c0: be6a a7bf 096b b9bf 83fc b2bf 2fe9 b9bf
000003d0: c5dd aebf 5a9c 92bf bc57 afbf 2ef0 abbf
000003e0: 9816 b9bf 7f4d b5bf 49c5 96bf 1096 86bf
000003f0: 77ac d9bf e1a5 d9bf 0b1f cabf 839a d2bf

conv1.bias f4 [8]
-301322.75 33.907772 0.079357356 0.057562128 0.03560313 -0.04350859 0.027780168 0.051452234
00000000: 5821 93c8 8fa1 0742 1c86 a23d 44c6 6b3d
00000010: 96d4 113d 1036 32bd 3c93 e33c 94bf 523d

conv2.weight f4 [6, 8, 16, 16]
-0.0027870554 0.014277605 0.0014977455 -0.01880461 3.9875507e-05 -0.0128232315 -0.002395559 -0.017131314
-0.008393431 -0.00852083 -0.00032939948 0.020952629 0.01501173 0.013654383 0.013010962 0.0046246815
-0.004415475 0.007180039 -0.0033501498 -0.007825195 -0.017398406 0.004553413 -0.011838301 0.019313863
-0.018382298 -0.012215405 -0.011604281 0.0033657495 -0.004761055 0.0070482697 0.020964215 0.0016346518
0.0058811214 0.009880697 -0.0035833772 -0.01812982 -0.021583488 0.006040871 -0.0017103162 -0.0042376183
0.01671583 -0.014719987 -0.019838654 0.015585644 0.020721452 -0.0076576006 -0.012101635 -0.019883417
-0.013510491 0.001150867 -0.0038708188 0.019751547 -0.01596063 -0.0061869174 -0.011659902 0.019866848
-0.007347637 0.019736366 -0.0046355817 -0.014807986 0.013371838 0.011946412 0.0041530374 -0.015424437
0.0053085163 -0.0011017453 -0.00916636 -0.004441932 0.005630318 -0.017113417 -0.01924861 0.014692796
0.020781266 -0.021279026 0.008952426 -0.0038838554 -0.008498998 0.021145424 -0.016370997 0.0018120818
-0.018319907 -0.00819006 -0.0041261017 -0.002839515 -0.0067182602 0.009159571 0.0032483954 0.0068093445
-0.0038290508 0.019904466 -0.0072580166 -0.016739592 0.011313098 0.014819218 0.02184713 -0.0021977928
0.013752336 0.013746044 0.009561824 -0.009910934 0.0073520876 -0.0117670335 0.0016638096 -0.02070472
0.0066636167 -0.018338487 0.021509895 -0.0051509347 -0.0059050974 -0.013599036 -0.0029030964 0.008010438
0.0126222875 0.0029875021 -0.005247066 0.010614054 -0.016375639 -0.0020730589 -0.021580564 0.021007193
0.002314927 0.016288763 -0.0049481504 0.0153065715 0.0049966704 0.0012921505 -0.0035430677 0.013970019
-0.019760448 0.013703173 0.012057671 0.0014102571 0.00022559613 0.021964362 -0.019216958 0.0047090407
-0.007265592 0.00813962 -0.0127873905 0.0062095057 -0.016990269 -0.01965224 0.018887995 -0.005029181
-0.0021544173 0.009626647 0.010260085 0.0070280954 0.010244375 -0.0141681 0.009188769 0.014905529
0.0020333584 -0.015408097 -0.0015728101 -0.012662488 -0.021952854 0.0040972214 0.0038539898 -0.0051789023
0.0037986618 0.021537265 0.0064961985 -0.009222797 -0.015623912 -0.0046945997 0.021726875 0.015321532
0.005637938 -0.0155867 0.007070521 0.01631256 -0.0016000029 -0.019495357 -0.0144826975 0.007861882
-0.01189364 0.012652719 0.0005783811 0.01890977 -0.0064475983 -0.011311015 -0.012917527 -0.01574305
-0.0049103107 0.0022782944 -0.008412896 0.016046697 -0.010139897 -0.006651816 0.013919419 0.017592909
0.0072482415 -0.016008232 0.012051141 0.0009130109 -0.018512513 0.0021533687 0.017003594 -0.002053041
-0.01248445 -0.01309084 -0.004895283 -0.017172066 -0.0064258147 0.0009828825 -0.013765982 -0.00041652098
0.004601216 -0.010925678 0.0047455877 0.019880423 -0.012540265 0.017419143 0.01371255 0.014630413
0.00933248 0.006897697 -0.01341261 0.002845876 -0.0130544435 -0.02132654 0.017320095 -0.020551305
0.021489842 0.0061616004 -0.019961575 -0.007267505 0.0043795817 -0.013786065 0.0013646595 -0.008012495
-0.016482065 -0.005059613 0.0030956361 -0.007765836 0.015234167 -0.008226469 -0.0027138274 0.0075194687
-0.0055225547 -0.007827357 0.0048985668 -0.010978706 -0.011725061 0.0019702893 -0.0013388954 0.017082898
0.021082764 -0.014622243 0.0045634396 0.01714263 -0.0217913 -0.012088266 -0.011902045 -0.0059870183
00000000: 08a7 36bb 9eec 693c 0050 c43a 200c 9abc
00000010: 0040 2738 8818 52bc d0fe 1cbb f856 8cbc
00000020: 9a84 09bc f49a 0bbc 40b3 acb9 d9a4 ab3c
00000030: c2f3 753c a2b6 5f3c ee2b 553c a48a 973b
00000040: b0af 90bb 8846 eb3b 308e 5bbb 3f35 00bc
00000050: 1a87 8ebc cc34 953b 6ff5 41bc 1b38 9e3c
00000060: 7996 96bc 1f23 48bc e21f 3ebc e893 5c3b
00000070: a002 9cbb 2cf5 e63b 25bd ab3c d041 d63a
00000080: 6cb6 c03b a6e2 213c 18d7 6abb fd84 94bc
00000090: dbcf b0bc 80f2 c53b b02c e0ba b8db 8abb
000000a0: a3ef 883c 1a2c 71bc ac84 a2bc ee5a 7f3c
000000b0: 09c0 a93c 9cec fabb f045 46bc 8ce2 a2bc
000000c0: 1b5b 5dbc b0d8 963a 90ad 7dbb ffcd a13c
000000d0: debf 82bc a0bb cabb 2c09 3fbc cdbf a23c
000000e0: 72c4 f0bb 29ae a13c 14e6 97bb 329d 72bc
000000f0: 8e15 5b3c e2ba 433c 3416 883b c7b6 7cbc
00000100: 10f3 ad3b 7068 90ba 802e 16bc a08d 91bb
00000110: 887e b83b 7031 8cbc 43af 9dbc 0eba 703c
00000120: 793d aa3c 5a51 aebc 32ad 123c 4888 7ebb
00000130: 623f 0bbc 2b39 ad3c 781c 86bc 6083 ed3a
00000140: a113 96bc 9a2f 06bc 4034 87bb 2817 3abb
00000150: da24 dcbb 0612 163c 08e3 543b ec20 df3b
00000160: d0f0 7abb b10e a33c a8d4 edbb 7821 89bc
00000170: 925a 393c 4ecc 723c c1f8 b23c d808 10bb
00000180: 7a51 613c 1637 613c 32a9 1c3c 7861 22bc
00000190: c8e9 f03b 84ca 40bc 3014 da3a f29c a9bc
000001a0: 785a da3b 983a 96bc 8535 b03c 2cc9 a8bb
000001b0: 8c7f c1bb 7ece 5ebc e041 3ebb 363e 033c
000001c0: b6cd 4e3c f8c9 433b 94ef abbb 92e6 2d3c
000001d0: 3426 86bc 28dc 07bb b9c9 b0bc 4717 ac3c
000001e0: 08b6 173b 0370 853c 1824 a2bb 6ac8 7a3c
000001f0: 1cbb a33b 605d a93a d032 68bb 82e2 643c
00000200: aae0 a1bc 4683 603c 8a8d 453c 60d8 b83a
00000210: 008e 6c39 9bee b33c e26c 9dbc 4c4e 9a3b
00000220: 3414 eebb 0a5c 053c 3482 51bc 1c79 cb3b
00000230: 2d2f 8bbc bcfd a0bc ffba 9a3c d4cb a4bb
00000240: 2031 0dbb 16b9 1d3c ea19 283c f04b e63b
00000250: 06d8 273c 5221 68bc 7e8c 163c 5236 743c
00000260: 1842 053b 3e72 7cbc c026 ceba 5376 4fbc
00000270: 79d6 b3bc fc41 863b 3893 7c3b c8b3 a9bb
00000280: f8f2 783b eb6e b03c 10de d43b 371b 17bc
00000290: 70fb 7fbc 28d5 99bb 8ffc b13c 2a07 7b3c
000002a0: 74be b83b 5c5f 7fbc d4af e73b eba1 853c
000002b0: 30b7 d1ba bab4 9fbc d648 6dbc 20cf 003c
000002c0: 8bdd 42bc 5a4d 4f3c 809e 173a a9e8 9a3c
000002d0: 6046 d3bb d651 39bc 09a4 53bc 92f7 80bc
000002e0: ace6 a0bb 704f 153b 3ed6 09bc 5d74 833c
000002f0: cf21 26bc 7af7 d9bb 460e 643c 011f 903c
00000300: a882 ed3b b223 83bc 2672 453c 2057 6f3a
00000310: 8ea7 97bc 881f 0d3b 1f4b 8b3c 508c 06bb
00000320: 948b 4cbc f67a 56bc 9c68 a0bb 6fac 8cbc
00000330: a48f d2bb 10d4 803a b78a 61bc 8060 dab9
00000340: ccc5 963b 9d01 33bc e080 9b3b 45dc a23c
00000350: af75 4dbc 97b2 8e3c 9aaa 603c 66b4 6f3c
00000360: 42e7 183c 1406 e23b 90c0 5bbc e081 3a3b
00000370: 4ee2 55bc ffb4 aebc dfe2 8d3c 365b a8bc
00000380: 770b b03c 40e7 c93b 7586 a3bc 4024 eebb
00000390: 9882 8f3b f3de 61bc 60de b23a d746 03bc
000003a0: 6505 87bc 1ccb a5bb 28e0 4a3b 8e78 febb
000003b0: ba98 793c 50c8 06bc 78da 31bb e065 f63b
000003c0: 8cf6 b4bb 513e 00bc 2884 a03b 08e0 33bc
000003d0: 781a 40bc f81f 013b e07d afba 6ff1 8b3c
000003e0: c3b5 ac3c 2292 6fbc e888 953b b36e 8c3c
000003f0: ab83 b2bc dd0d 46bc cc00 43bc c02e c4bb

conv2.bias f4 [6]
-1434.2662 -6247.2397 -28.054256 -1.4304339e+09 -59541.355 -3260.126
00000000: 8548 b3c4 eb39 c3c5 1e6f e0c1 6185 aace
00000010: 5b95 68c7 04c2 4bc5

fc1.weight f4 [1, 144]
4207.178 10941.578 28149.68 7739.621 28794.334 21111.438 4209.999 8230.081
11057.591 15773.183 18601.42 13571.738 4222.5957 3484.9624 -13.789882 4310.1343
7274.728 8037.825 3626.863 1377.9215 3030.1492 3617.3604 1036.7897 475.03998
18.677248 18.942148 17.285406 12.348744 -1585.2952 10.864938 10.650861 -1685.994
15.1798525 14.311658 13.68166 11.844681 7.7376504 6.192308 5.5191283 6.740166
11.366312 12.193144 9.972965 8.142693 6.513569 6.152465 5.94368 7.0329323
5661.201 3210.4573 18378.912 15337.212 4796.8755 9177.454 2343.1707 7537.9673
15980.389 12516.96 13762.016 385.75818 0.449182 1525.0203 0.07482914 325.95486
12844.678 24640.336 19963.346 15601.362 10054.442 7854.5864 15608.976 5141.606
63913.88 133052.17 130486.19 130614.84 144167.39 57786.945 34416.152 49908.184
43275.953 72158.69 91034.84 109244.875 70494.695 37678.31 42316.207 30086.775
114583.34 115213.89 130843.945 121723.01 125869.016 124712.69 123365.305 114589.195
299915.4 299912.0 299910.38 299914.62 299916.47 299916.25 299188.16 299384.38
299917.12 299918.28 299915.72 299915.75 299918.34 299915.9 299917.2 299919.78
299920.03 299919.22 299916.9 299916.22 299915.9 299916.8 299918.94 299920.28
8.7712965 6.9002104 5.722046 4.4804397 5.008482 -1856.6831 -155.85596 -1521.2197
8.026913 6.8517694 6.905517 4.3771644 4.2697525 5.009266 3.711494 3.1447206
4.499897 3.9463868 3.1357026 3.3562837 2.9144924 2.3485544 1.7973002 2.5999906
00000000: 6d79 8345 50f6 2a46 5ceb db46 f8dc f145
00000010: abf4 e046 e0ee a446 fe8f 8345 5398 0046
00000020: 5dc6 2c46 bb74 7646 d752 9146 f40e 5446
00000030: c4f4 8345 66cf 5945 5ba3 5cc1 13b1 8645
00000040: d355 e345 9a2e fb45 cfad 6245 7d3d ac44
00000050: 6362 3d45 c415 6245 4599 8144 1e85 ed43
00000060: 016b 9541 8589 9741 8348 8a41 7594 4541
00000070: 7229 c6c4 c9d6 2d41 ed69 2a41 cfbf d2c4
00000080: ade0 7241 8dfc 6441 14e8 5a41 d083 3d41
00000090: d59a f740 6327 c640 b39c b040 71af d740
000000a0: 6adc 3541 1e17 4341 4491 1f41 7848 0241
000000b0: 286f d040 fee0 c440 a032 be40 c80d e140
000000c0: 9ce9 b045 51a7 4845 d395 8f46 d9a4 6f46
000000d0: 01e7 9545 d165 0f46 bb72 1245 bd8f eb45
000000e0: 8eb1 7946 d793 4346 1008 5746 0ce1 c043
000000f0: 2ffb e53e a6a0 be44 0540 993d 39fa a243
00000100: b6b2 4846 ac80 c046 b1f6 9b46 73c5 7346
00000110: c519 1d46 b174 f545 e7e3 7346 d9ac a045
00000120: e1a9 7947 0bef 0148 18db fe47 6c1b ff47
00000130: d9c9 0c48 f2ba 6147 2770 0647 2ff4 4247
00000140: f40b 2947 58ef 8c47 6ccd b147 705e d547
00000150: 59af 8947 4f2e 1347 354c 2547 8d0d eb46
00000160: accb df47 f206 e147 f98d ff47 81bd ed47
00000170: 82d6 f547 5894 f347 a7f2 f047 99ce df47
00000180: 6d71 9248 0071 9248 cc70 9248 5471 9248
00000190: 8f71 9248 8871 9248 8516 9248 0c2f 9248
000001a0: a471 9248 c971 9248 7771 9248 7871 9248
000001b0: cb71 9248 7d71 9248 a671 9248 f971 9248
000001c0: 0172 9248 e771 9248 9d71 9248 8771 9248
000001d0: 7d71 9248 9a71 9248 de71 9248 0972 9248
000001e0: 3b57 0c41 86ce dc40 001b b740 c35f 8f40
000001f0: 7c45 a040 dc15 e8c4 20db 1bc3 0827 bec4
00000200: 3c6e 0041 b241 db40 fff9 dc40 bb11 8c40
00000210: d0a1 8840 e84b a040 1e89 6d40 1a43 4940
00000220: 28ff 8f40 9a91 7c40 5aaf 4840 5acd 5640
00000230: 0b87 3a40 b74e 1640 ef0d e63f 3f66 2640
