PythonClient/saved_models/realOnSim.pth (torch, 56919 bytes, 6 tensors)

conv1.weight f4 [8, 3, 6, 6]
-0.058188133 -0.07524653 0.029763404 -0.020799147 0.016175939 0.045128584 -0.07099449 0.023749722
0.05442431 0.019442176 -0.05425141 -0.08376575 -0.08004609 -0.014704538 -0.003396475 -0.026423153
-0.03957677 -0.026247056 0.05818369 -0.051029257 0.01524925 -0.0022852744 -0.025449662 -0.06469892
-0.05137493 0.05516796 0.097622946 0.025164276 -0.023332769 0.02129473 -0.056899447 -0.049093857
-0.055699434 0.09179077 0.07657744 0.01939913 0.036791604 0.05892424 -0.0039513246 0.022489533
-0.037323304 0.021077381 0.08765948 0.072118714 -0.013714103 -0.07677038 -0.07383874 -0.0658429
-0.023182007 0.08501753 0.009345956 -0.06838917 0.0485796 0.0009426051 -0.05151051 -0.0016093954
0.037011083 -0.034515664 -0.011191294 0.011126176 -0.07964253 -0.06916611 -0.023398086 -0.06063683
0.06637069 -0.024155451 0.03718559 0.032634348 -0.011084748 0.082039654 -0.021217188 0.09414373
-0.09234936 -0.019184614 0.086616404 0.08503857 -0.0587695 -0.06966928 -0.07807456 0.005009125
-0.027366964 -0.028800344 0.013615182 -0.0044697695 -0.016020564 -0.054384567 0.028329875 0.031362094
-0.046622895 -0.038907908 0.025138015 -0.079095535 -0.04019702 -0.031125125 -0.07117494 0.008183081
-0.056765847 -0.08190472 0.021451076 -0.0617895 -0.029306 -0.06255892 0.083471276 -0.07086251
-0.017145636 0.084560074 0.036331236 -0.05930506 -0.18165225 -0.058275245 -0.12814519 -0.19861424
-0.13841933 -0.2145592 -0.16066113 -0.10753205 -0.13304982 -0.081654616 -0.20756789 -0.12942539
-0.12593655 -0.13038224 -0.06515227 -0.217574 -0.04877693 -0.22927852 -0.120079696 -0.106991835
-0.20200713 -0.17236008 -0.04110861 -0.060148627 -0.20673648 -0.05555405 -0.2283474 -0.22271784
-0.19469008 -0.21695213 -0.15812542 -0.14470586 -0.13583726 -0.059599962 -0.21958925 -0.20664205
-0.067536786 -0.11073226 -0.18964244 -0.12234319 -0.1318755 -0.11178311 -0.24261318 -0.09302208
-0.17672774 -0.17664412 -0.11264936 -0.1377419 -0.18880454 -0.06160074 -0.17815897 -0.073533244
-0.1650034 -0.20552878 -0.091541745 -0.1425823 -0.1127574 -0.06382606 -0.23557417 -0.16066118
-0.1945405 -0.22675325 -0.15595779 -0.21842523 -0.17773308 -0.06789208 -0.22808576 -0.10151807
-0.0991439 -0.06183296 -0.08660785 -0.08052004 -0.20427667 -0.15203749 -0.18512735 -0.18359797
-0.10773086 -0.042136323 -0.12490959 -0.21509378 -0.21346608 -0.09272033 -0.082268625 -0.064576104
-0.18444648 -0.19891827 -0.06440853 -0.045768514 -0.12495613 -0.21168163 -0.18986191 -0.12207881
-0.18179317 -0.1998519 -0.14731552 -0.05404183 -0.09206846 -0.11786245 -0.20385456 -0.06672234
-0.12131319 -0.19459443 -0.2348436 -0.15089807 -0.22541001 -0.08271804 -0.21197945 -0.14505231
-0.09575321 0.092279844 0.039005004 -0.06257065 -0.07068303 -0.0077271657 0.0048565813 0.036628358
-0.09519006 0.06678491 -0.0004649393 0.045379475 -0.022949755 0.038152106 0.004504697 0.07078192
-0.009010619 -0.045140903 -0.08484676 -0.014375449 -0.08672506 0.08383185 -0.026021432 0.047681335
0.04558415 -0.06159775 -0.06476011 0.08419745 0.004483106 -0.042765886 0.032739762 -0.0017845499
0.05580041 0.011865451 -0.00651877 -0.051630177 -0.01379675 0.09150651 -0.06639092 -0.055630814
00000000: ae56 6ebd da1a 9abd 62d2 f33c f962 aabc
00000010: 6783 843c c0d8 383d 8f65 91bd c78e c23c
00000020: 06ec 5e3d 3345 9f3c ba36 5ebd 618d abbd
00000030: 34ef a3bd 4deb 70bc 6597 5ebb 5e75 d8bc
00000040: 401b 22bd 1104 d7bc 0552 6e3d 0e04 51bd
00000050: fed7 793c 8bc4 15bb cf7b d0bc de80 84bd
00000060: 856e 52bd ccf7 613d 8aee c73d 5025 ce3c
00000070: 5d24 bfbc 4972 ae3c 650f 69bd a416 49bd
00000080: 1725 64bd cdfc bb3d a2d4 9c3d edea 9e3c
00000090: cbb2 163d 8b5a 713d 1d7a 81bb f83b b83c
000000a0: 52e0 18bd 79aa ac3c d086 b33d fab2 933d
000000b0: 1eb1 60bc ca39 9dbd c438 97bd a4d8 86bd
000000c0: 31e8 bdbc ac1d ae3d c81f 193c 9f0f 8cbd
000000d0: 67fb 463d 2819 773a affc 52bd 59f2 d2ba
000000e0: ef98 173d 4c60 0dbd b05b 37bc 914a 363c
000000f0: 9f1b a3bd f6a6 8dbd 58ad bfbc 535e 78bd
00000100: 5bed 873d a7e1 c5bc eb4f 183d 98ab 053d
00000110: ce9c 35bc 6804 a83d abcf adbc 6ece c03d
00000120: a921 bdbd 0d29 9dbc f163 b13d b428 ae3d
00000130: 4ab8 70bd c4ae 8ebd 8ee5 9fbd 9623 a43b
00000140: af30 e0bc b3ee ebbc 3612 5f3c 2577 92bb
00000150: 8f3d 83bc 5ac2 5ebd 0e14 e83c 8a75 003d
00000160: a6f7 3ebd e65d 1fbd 3dee cd3c d7fc a1bd
00000170: a1a5 24bd 1efa febc 2bc4 91bd 5412 063c
00000180: 4e83 68bd a9bd a7bd 2bba af3c fd16 7dbd
00000190: 2313 f0bc e41e 80bd fdf2 aa3d 5d20 91bd
000001a0: 0175 8cbc d52d ad3d 10d0 143d dde9 72bd
000001b0: 0c03 3abe 06b2 6ebd 7e38 03be 8861 4bbe
000001c0: ccbd 0dbe 68b5 5bbe 5a84 24be c339 dcbd
000001d0: 363e 08be 893a a7bd ad8c 54be 1788 04be
000001e0: 83f5 00be ec82 05be 8e6e 85bd b8cb 5ebe
000001f0: 51ca 47bd fdc7 6abe 58ec f5bd 891e dbbd
00000200: f5da 4ebe 297f 30be 8061 28bd 685e 76bd
00000210: bab2 53be a58c 63bd e7d3 69be 2510 64be
00000220: d65c 47be b328 5ebe a1eb 21be c62d 14be
00000230: ec18 0bbe 171f 74bd 01dc 60be f999 53be
00000240: ba50 8abd 98c7 e2bd a131 42be 118f fabd
00000250: 5f0a 07be 8bee e4bd 976f 78be 5c82 bebd
00000260: 1ef8 34be 32e2 34be b5b4 e6bd 360c 0dbe
00000270: fa55 41be 0f51 7cbd 4e6f 36be 9998 96bd
00000280: a7f6 28be 2376 52be 3d7a bbbd 1801 12be
00000290: 5aed e6bd 3db7 82bd 5b3a 71be 5d84 24be
000002a0: a035 47be 0132 68be 66b3 1fbe ddaa 5fbe
000002b0: a9ff 35be 010b 8bbd 508f 69be b5e8 cfbd
000002c0: f50b cbbd 8f44 7dbd 755f b1bd b1e7 a4bd
000002d0: e72d 51be b7af 1bbe 0692 3dbe 1b01 3cbe
000002e0: ffa1 dcbd 2397 2cbd 99d0 ffbd 8b41 5cbe
000002f0: da96 5abe 28e4 bdbd 747c a8bd 7a40 84bd
00000300: 8adf 3cbe 3bb1 4bbe 9fe8 83bd c477 3bbd
00000310: 00e9 ffbd 12c3 58be 296b 42be 7504 fabd
00000320: fd27 3abe faa5 4cbe e1d9 16be f75a 5dbd
00000330: 648e bcbd de61 f1bd 40bf 50be b9a5 88bd
00000340: 0d73 f8bd c343 47be d77a 70be 0685 1abe
00000350: e2d1 66be 1368 a9bd 2411 59be 9888 14be
00000360: 421a c4bd 37fd bc3d b6c3 1f3d 0a25 80bd
00000370: 44c2 90bd 2a34 fdbb f523 9f3b 9e07 163d
00000380: 02f3 c2bd 87c6 883d 19c3 f3b9 d4df 393d
00000390: 2001 bcbc 6245 1c3d 239c 933b 1cf6 903d
000003a0: 46a1 13bc abe5 38bd 23c4 adbd 0187 6bbc
000003b0: e99c b1bd 08b0 ab3d e62a d5bc 814d 433d
000003c0: 72b6 3a3d ec4d 7cbd f3a0 84bd b66f ac3d
000003d0: 05e7 923b 482b 2fbd 211a 063d 8fe7 e9ba
000003e0: f98e 643d 4f67 423c 689b d5bb 2a7a 53bd
000003f0: c40b 62bc c467 bb3d f6f7 87bd 23dd 63bd

conv1.bias f4 [8]
-0.032448918 -0.01856978 0.009325158 -0.09092918 -0.027475685 0.057354882 0.040704973 -0.013801642
00000000: 28e9 04bd a71f 98bc 8cc8 183c 1439 babd
00000010: b014 e1bc f4ec 6a3d 42ba 263d 4820 62bc

conv2.weight f4 [6, 8, 16, 16]
0.0068109483 0.00575261 -0.0004590843 0.0073308977 0.012929012 0.0131697655 0.004828645 -0.012458031
-0.00031318516 -0.019130696 -0.016562887 -0.014142262 0.011824487 -0.012814612 0.0026035085 -0.012676516
0.009847527 -0.0009195283 0.0031311307 -0.020192457 -0.021895643 0.014166971 0.016197378 0.016779466
0.0042213257 0.0116585065 0.0045373216 0.0010576852 0.011201173 -0.017082505 -0.015581323 0.0059717987
0.018368367 -0.018547243 0.013812112 -0.0046776254 0.009867183 -0.021100454 0.007030273 -0.01834332
0.021028271 0.0065861726 -0.0050421827 -0.01717737 0.014404422 -0.012193694 0.023118462 0.0056242053
-0.0064931093 -0.021995852 0.0083762705 0.017591977 0.020992326 0.0100643905 -0.016258936 0.0138960015
0.010741202 0.010545107 0.02070852 0.021387193 0.0020217765 0.009817274 -0.01886667 0.02510282
-0.0038114712 -0.021835545 0.0067696013 -0.00103876 -0.005604403 0.016932795 -0.012008638 -0.02185142
-0.017793689 0.0025300367 0.011583593 0.003986794 -0.011127684 -0.0042490326 -0.013147288 -0.019652441
-0.0019193962 -0.0073384196 0.008014249 -0.020068832 0.008894079 0.00095932 0.018859757 0.010333383
-0.00943562 -0.019968072 0.0077122822 -0.01681196 -0.016560102 0.017792013 0.014578514 -0.0192139
0.018622855 0.013036674 0.005520371 0.019212391 -0.014295818 0.010594152 0.014304051 -0.016134817
0.0021880826 -0.0220659 -0.002268836 -0.0016135294 0.0103788655 0.017656429 0.018176502 -0.0048510414
-0.0129859075 0.00020783264 0.020464292 0.011430833 0.01599808 0.0062605105 0.0055197803 -0.018614938
0.019714277 -0.0008759712 0.011162664 -0.008388587 0.014090607 0.0015817785 0.0012302139 0.009732853
0.0082823355 -0.0073955557 0.01736114 -0.0042866897 -0.015442476 -0.015705176 -0.020857329 -0.010929163
0.0022842083 0.014287638 -0.010804916 -0.0042355023 -0.015158999 -0.015163841 0.016916573 0.010226342
0.0033387027 -0.012701461 -0.015970752 -0.017968297 -0.0027101114 0.004071153 -0.017464716 -0.013324586
-0.0007284451 -0.013087539 -0.012884723 -0.02123271 -0.0025869682 -0.019204935 -0.004420528 0.012861922
-0.003248049 0.018439254 -0.018598326 0.008801526 -0.0018957573 0.008601556 0.001582155 -0.017085262
-0.014439531 -0.0020656043 -0.008151722 0.018855851 -0.013582225 -0.020374145 -0.0028293054 -0.020384578
-0.002866691 -0.02065329 0.014302637 0.01842959 0.011493048 0.0053285304 -0.0065557864 0.0045652585
0.020033164 0.014812166 -0.0056995414 -0.015453739 -0.01570269 -0.0036228485 0.01793923 0.017904053
-0.013610039 -0.007989658 0.0069134627 0.021147082 0.01588558 0.004648879 0.017475054 -0.018408787
-0.010275199 -0.018708596 0.008587876 -0.0065660994 0.0009495914 0.00797759 0.015396977 -0.011044959
0.0005353913 -0.017196307 0.006357193 0.003846148 -0.011325981 -0.0114970775 0.008689631 -0.006115515
0.011079548 0.006081741 0.0087052 0.013278353 0.016473977 0.014118297 -0.010698332 -0.0071794367
0.01563503 -0.013234255 0.013216247 -0.021162393 0.008789651 0.0021329783 0.01840018 -0.008376162
0.019667868 -0.0048909523 -0.005182013 0.0121586155 0.017104533 -0.016607173 0.015574882 -0.009002827
-0.013566317 0.005154496 0.009628454 -0.011607613 -0.0093115745 0.005627945 -0.0011575501 -0.009353383
-0.009252023 0.02056284 0.016220123 0.015890941 0.0052722036 0.0026613788 0.009451404 -0.012013828
00000000: 602e df3b 6480 bc3b 40b1 f0b9 0738 f03b
00000010: 35d4 533c 00c6 573c 9c39 9e3b c51c 4cbc
00000020: 0033 a4b9 fab7 9cbc e4ae 87bc f2b4 67bc
00000030: 7ebb 413c 61f4 51bc a09f 2a3b 29b1 4fbc
00000040: 8657 213c 800c 71ba a833 4d3b a76a a5bc
00000050: 7e5e b3bc 951c 683c 5db0 843c 1775 893c
00000060: 0c53 8a3b 5203 3f3c d0ad 943b 07a2 8a3a
00000070: 2085 373c 9cf0 8bbc ce48 7fbc 14af c33b
00000080: 4279 963c 63f0 97bc 324c 623c c446 99bb
00000090: f7a9 213c dcda acbc 345e e63b bb44 96bc
000000a0: 7b43 ac3c d2d0 d73b e538 a5bb 8eb7 8cbc
000000b0: 8600 6c3c 0fc8 47bc ee62 bd3c 414b b83b
000000c0: 26c4 d4bb a530 b4bc a03c 093c 0d1d 903c
000000d0: 19f8 ab3c 1de5 243c 7631 85bc 0eac 633c
000000e0: defb 2f3c 62c5 2c3c eaa4 a93c 3234 af3c
000000f0: c87f 043b a2d8 203c 468e 9abc 6ea4 cd3c
00000100: e0c9 79bb 75e0 b2bc 88d3 dd3b 0027 88ba
00000110: 24a5 b7bb a5b6 8a3c e1bf 44bc c001 b3bc
00000120: 12c4 91bc f9ce 253b 1cc9 3d3c a7a3 823b
00000130: e450 36bc 783b 8bbb b967 57bc 28fe a0bc
00000140: 4094 fbba 2077 f0bb 324e 033c 6467 a4bc
00000150: 79b8 113c e07a 7b3a c77f 9a3c 5a4d 293c
00000160: dc97 1abc 1594 a3bc 50b7 fc3b 3cb9 89bc
00000170: 0da9 87bc 8ec0 913c b8da 6e3c 7866 9dbc
00000180: f58e 983c c697 553c 3ae4 b43b 4e63 9d3c
00000190: 0239 6abc 1893 2d3c 8a5b 6a3c 2a2d 84bc
000001a0: ef65 0f3b 8cc3 b4bc c0b0 14bb 107d d3ba
000001b0: 1e0c 2a3c 37a4 903c e3e6 943c 7cf5 9ebb
000001c0: d8c2 54bc a6ed 5939 bba4 a73c 6348 3b3c
000001d0: 680e 833c f824 cd3b 46df b43b 5b7e 98bc
000001e0: d67f a13c 6fa1 65ba 9be3 363c 4970 09bc
000001f0: 4adc 663c ae53 cf3a 213f a13a 8b76 1f3c
00000200: a2b2 073c 6b56 f2bb f338 8e3c 5c77 8cbb
00000210: 7002 7dbc 24a8 80bc fddc aabc 3b10 33bc
00000220: a8b2 153b b216 6a3c 1a07 31bc f8c9 8abb
00000230: 735d 78bc c271 78bc a094 8a3c 638c 273c
00000240: 23ce 5a3b ca19 50bc 18d5 82bc 4032 93bc
00000250: 209c 31bb 4e67 853b 2a12 8fbc 5d4f 5abc
00000260: 20f5 3eba 1e6d 56bc 721a 53bc 38f0 adbc
00000270: 208a 29bb ab53 9dbc 14da 90bb d0ba 523c
00000280: 38dd 54bb eb0d 973c 845b 98bc 4734 103c
00000290: 0f7b f8ba 8aed 0c3c 5060 cf3a 64f6 8bbc
000002a0: c893 6cbc 175f 07bb cd8e 05bc 9677 9a3c
000002b0: fb87 5ebc aee7 a6bc de6b 39bb 8ffd a6bc
000002c0: 18df 3bbb 1731 a9bc 9c55 6a3c a7f9 963c
000002d0: 564d 3c3c f49a ae3b ecd1 d6bb 2a98 953b
000002e0: 971c a43c baae 723c 38c3 babb ae31 7dbc
000002f0: eea2 80bc 506d 6dbb 4bf5 923c 85ab 923c
00000300: a4fc 5ebc 0ee7 02bc 548a e23b a53c ad3c
00000310: 7a22 823c a055 983b d827 8f3c 06ce 96bc
00000320: 4f59 28bc c542 99bc 2ab4 0c3c 6f28 d7bb
00000330: 00ee 783a 70b4 023c 9a43 7c3c eaf5 34bc
00000340: 8059 0c3a 45df 8cbc 0050 d03b a80f 7c3b
00000350: 9b90 39bc 3d5e 3cbc f45e 0e3c a864 c8bb
00000360: fe86 353c 5749 c73b 41a0 0e3c 738d 593c
00000370: 6ff4 863c 6e50 673c 0f48 2fbc 7b41 ebbb
00000380: 0915 803c 7dd4 58bc f588 583c c15c adbc
00000390: 7802 103c 70c9 0b3b f9bb 963c 2b3c 09bc
000003a0: 821e a13c 4844 a0bb e0cd a9bb ee34 473c
000003b0: ce1e 8c3c c40b 88bc ca2d 7f3c 9880 13bc
000003c0: 4245 5ebc 0ce7 a83b aac0 1d3c dc2d 3ebc
000003d0: 938f 18bc a06a b83b f0b8 97ba ef3e 19bc
000003e0: cc95 17bc 6773 a83c 10e0 843c b82d 823c
000003f0: 73c2 ac3b 876a 2e3b 10da 1a3c a6d5 44bc

conv2.bias f4 [6]
-0.00092666084 0.09424851 -0.002399443 -0.013600521 0.11571255 -0.00078590505
00000000: 28eb 72ba 5d05 c13d f93f 1dbb b8d4 5ebc
00000010: b4fa ec3d 3205 4eba

fc1.weight f4 [4, 144]
0.09965423 0.10184979 0.0693237 -0.024559518 -0.015316448 -0.037840128 0.0109908935 -0.009063342
0.06342844 -0.04450389 0.1018715 0.09389981 -0.038860194 0.026640968 0.06495307 0.035714958
-0.011794858 0.06563464 0.053206813 0.024497356 -0.007249836 0.11393461 0.11112338 -0.01927724
0.052000225 -0.056127045 -0.067133665 0.06284648 0.047580816 0.011188025 0.06683157 -0.047136813
0.01806184 -0.08275049 -0.00475873 0.065777756 -0.0028859559 -0.078994416 0.0641872 -0.0008340565
-0.010659998 0.02684443 -0.027700612 -0.08608749 -0.08170282 0.028999796 -0.040449925 0.061126746
0.0744168 0.07059262 0.013105371 0.038328152 0.061963856 -0.023505576 0.08119188 -0.06256356
-0.017093224 -0.049316254 0.008178086 0.01920408 0.042007796 0.054917548 0.07161839 -0.061319277
0.020331722 0.06862606 0.06148215 0.06762744 0.066643305 -0.085096486 0.04750015 0.009493898
0.2566188 0.16252163 0.05352834 0.22830631 0.23102818 0.112475134 0.17070863 0.08852985
0.321707 0.2164501 0.26859197 0.27321312 0.09234556 -0.0056039453 0.17163841 -0.008158629
0.25386524 0.13056272 0.062326472 0.13653643 0.15052128 0.122856416 0.058118816 0.009309659
-0.057526775 -0.035597228 0.077025 0.04791889 -0.06781747 0.029335381 0.0076816073 0.05207834
-0.07616063 -0.05750656 -0.072318554 0.0010695971 0.022671517 0.07834073 0.0363832 -0.07987676
-0.023139253 0.04761444 0.026667679 -0.03923117 -0.07823583 0.054903906 -0.025389515 -0.03232364
0.0065577426 -0.073477864 0.08097338 0.07288545 0.04914816 -0.02756201 -0.0387949 -0.018611243
0.026178127 -0.076251775 -0.009531905 -0.05321575 0.048588045 -0.056472417 -0.027467484 -0.05073284
-0.0030966066 0.003718875 -0.018078452 -0.020631446 0.04700762 -0.0018028235 -0.039443538 0.050172128
0.06641243 -0.023086973 0.11870086 0.042837594 -0.006389131 0.13718507 0.031583726 0.06570932
0.09188911 0.09201587 0.015826877 0.1406787 0.10568121 0.026649982 0.061705157 0.1454875
-0.0026595616 0.057931717 -0.015046149 0.0582962 0.14182751 0.077369876 0.07689177 0.055871885
0.042021036 0.06853868 0.07760486 0.009552119 0.0787263 -0.010317532 0.031660218 -0.040120672
-0.06644036 -0.014781468 0.037530266 0.07228405 -0.04878222 0.06476082 0.06990085 0.038175147
0.050247688 -0.03619639 -0.071460456 -0.028608415 0.062551975 -0.0061461576 -0.02569604 -0.07659304
-0.03144048 -0.019102773 0.011727733 -0.07262175 -0.06246622 -0.018874727 -0.047984302 0.03295285
-0.014734967 0.00710811 0.050001558 -0.038946375 -0.0065207984 0.017679185 -0.04122561 -0.017983207
-0.027764173 -0.0767025 0.05376686 -0.015314518 -0.05007148 0.10746886 0.0049009304 0.07759177
-0.08193655 0.08180069 -0.03973952 0.029791223 -0.04515911 0.008252547 -0.06056095 0.041204933
0.09091911 0.056829214 -0.019963881 -0.07406235 -0.028375834 0.08477547 -0.030960418 -0.018435746
-0.022063201 0.06242591 0.06217653 0.04133199 -0.0011866332 0.0017404126 0.071329184 -0.039791472
0.024128672 -0.022596566 0.023095712 -0.0522728 0.011972842 0.07265703 -0.0567542 0.026109777
0.05597352 0.05425001 -0.053483363 0.017211853 -0.05880848 0.022007521 0.045059912 0.059147142
00000000: 8417 cc3d 9f96 d03d 96f9 8d3d 0b31 c9bc
00000010: d7f1 7abc 40fe 1abd 2613 343c 697e 14bc
00000020: c5e6 813d b649 36bd 01a2 d03d 8b4e c03d
00000030: de2b 1fbd 293e da3c 1d06 853d d949 123d
00000040: 383f 41bc 746b 863d 63ef 593d aeae c83c
00000050: 0890 edbb 8c56 e93d a894 e33d 4deb 9dbc
00000060: 30fe 543d 79e5 65bd 607d 89bd a8b5 803d
00000070: 1ae4 423d fa4d 373c fdde 883d 8812 41bd
00000080: 6df6 933c 1779 a9bd 1fef 9bbb 7db6 863d
00000090: 4e22 3dbb d3c7 a1bd 9474 833d 96a4 5aba
000000a0: 46a7 2ebc dae8 db3c 65ec e2bc a34e b0bd
000000b0: cf53 a7bd fb90 ed3c d2ae 25bd 0a60 7a3d
000000c0: d667 983d dd92 903d e9b7 563c fbfd 1c3d
000000d0: d0cd 7d3d c48e c0bc ee47 a63d 5321 80bd
000000e0: 1707 8cbc d7ff 49bd 61fd 053c e051 9d3c
000000f0: 5e10 2c3d 39f1 603d aaac 923d ec29 7bbd
00000100: b68e a63c d28b 8c3d b5d4 7b3d 4180 8a3d
00000110: 497c 883d 1147 aebd 848f 423d 4b8c 1b3c
00000120: 8a63 833e 126c 263e 8840 5b3d 21c9 693e
00000130: a792 6c3e 5d59 e63d 3ece 2e3e 234f b53d
00000140: c8b6 a43e 18a5 5d3e e384 893e 97e2 8b3e
00000150: ab1f bd3d 4da1 b7bb fbc1 2f3e c5ab 05bc
00000160: a0fa 813e 3cb2 053e 0b4a 7f3d 35d0 0b3e
00000170: 4022 1a3e 259c fb3d ff0d 6e3d 8a87 183c
00000180: 32a1 6bbd 66ce 11bd 48bf 9d3d 9946 443d
00000190: e3e3 8abd c150 f03c feb5 fb3b 1950 553d
000001a0: 1bfa 9bbd 008c 6bbd c01b 94bd b931 8c3a
000001b0: 9eb9 b93c 1b71 a03d 8d06 153d 6d96 a3bd
000001c0: 888e bdbc 5c07 433d 2d76 da3c ddb0 20bd
000001d0: 1b3a a0bd ebe2 603d acfd cfbc cb65 04bd
000001e0: 55e2 d63b 907b 96bd 5fd5 a53d f844 953d
000001f0: 954f 493d b9c9 e1bc 67e7 1ebd 9b76 98bc
00000200: 8373 d63c e429 9cbd b52b 1cbc c2f8 59bd
00000210: 4204 473d 9f4f 67bd 7d03 e1bc 3dcd 4fbd
00000220: 70f0 4abb 5fb8 733b 4319 94bc 4703 a9bc
00000230: 108b 403d b84c ecba 8c8f 21bd 4a81 4d3d
00000240: 3d03 883d e420 bdbc 7019 f33d 7976 2f3d
00000250: ea5b d1bb 3e7a 0c3e f05d 013d 9c92 863d
00000260: 5c30 bc3d d172 bc3d 5ea7 813c 140e 103e
00000270: 646f d83d 1051 da3c 8cbe 7c3d adfa 143e
00000280: 0a4c 2ebb cf49 6d3d 1f84 76bc ffc7 6e3d
00000290: 3b3b 113e 1974 9e3d 6f79 9d3d ebd9 643d
000002a0: 401e 2c3d 025e 8c3d 4cef 9e3d 7e80 1c3c
000002b0: 413b a13d de0a 29bc 25ae 013d 9355 24bd
000002c0: e211 88bd f82d 72bc 56b9 193d a909 943d
000002d0: ddcf 47bd 52a1 843d 2d28 8f3d 8b5d 1c3d
000002e0: 85d0 4d3d aa42 14bd dc59 92bd 325c eabc
000002f0: 401b 803d b565 c9bb 8080 d2bc d0dc 9cbd
00000300: bcc7 00bd 6b7d 9cbc ad25 403c b6ba 94bd
00000310: 94dc 7fbd 2c9f 9abc 308b 44bd 91f9 063d
00000320: ee6a 71bc 26eb e83b 6fce 4c3d 3c86 1fbd
00000330: 6cac d5bb f0d3 903c 2fdc 28bd 8551 93bc
00000340: b171 e3bc 3316 9dbd a43a 5c3d bee9 7abc
00000350: c117 4dbd a218 dc3d fc97 a03b 6fe8 9e3d
00000360: 5ace a7bd 1f87 a73d e8c5 22bd b90c f43c
00000370: c2f8 38bd b135 073c c20e 78bd 81c6 283d
00000380: cc33 ba3d c0c5 683d 4b8b a3bc 00ae 97bd
00000390: 7074 e8bc c39e ad3d b4a0 fdbc 9006 97bc
000003a0: e3bd b4bc 50b2 7f3d d1ac 7e3d bc4b 293d
000003b0: ce88 9bba 8e1e e43a 0915 923d 62fc 22bd
000003c0: 7ea9 c53c 6f1c b9bc 3833 bd3c 011c 56bd
000003d0: bd29 443c 35cd 943d 1877 68bd 2ce4 d53c
000003e0: 7d44 653d 4235 5e3d 5f11 5bbd dfff 8c3c
000003f0: 29e1 70bd 1e49 b43c be90 383d 4644 723d

fc1.bias f4 [4]
-0.10788885 0.055231087 0.16350757 -0.17690124
00000000: d4f4 dcbd fe39 623d 876e 273e 9925 35be
