PythonClient/saved_models/train1.pth (torch, 56343 bytes, 5 tensors)

conv1.weight f4 [8, 4, 6, 6]
000000 13 9f d7 3c df 15 a6 bd 8c 8c 82 3d ba bf 72 bd
       0.02632097 -0.0810964 0.063744634 -0.059264876
000010 6d 6e 2a 3d aa 6e 9f 3d e5 a9 2d 3c 6f 73 40 bd
       0.041609216 0.07784779 0.010599588 -0.046985086
000020 71 1f 86 3a 70 04 0c bd 84 09 99 3d 59 e5 ff 3c
       0.0010232759 -0.03418392 0.07472518 0.031237291
000030 b9 7c 08 bd 5c 37 51 bd 67 78 2d 3d cf 56 9b bd
       -0.03332207 -0.051078185 0.042351153 -0.07584917
000040 1b 88 ee 3c 9f 48 2a bd a0 bc f7 3a 0e cf bd bc
       0.029117635 -0.041573163 0.0018900819 -0.02317002
000050 9b a5 83 bd d6 0e 2e 3d df 0e ab 3b ec 9f 90 3d
       -0.06428071 0.042494617 0.0052202786 0.07061753
000060 52 b5 e9 bc 71 2d 21 bd 05 b3 ac 3c a1 0f 9d bd
       -0.028528843 -0.039349977 0.021081457 -0.076689966
000070 29 69 71 bd a8 1d 4e 3d 07 cc 66 3d 54 04 78 bd
       -0.05893818 0.05032125 0.05634692 -0.060551003
000080 b0 ac 17 bd 0f 48 ce 3c 15 f2 7b 3d ef 06 1b 3c
       -0.037029922 0.025180845 0.061510164 0.009462102
000090 e1 a4 0b 3c 28 3a 2c bd 81 c8 a1 bd 19 d6 97 3d
       0.008523197 -0.04204765 -0.07899571 0.07413883
0000a0 7c ce a5 3d 0c ee 74 bd ae f3 99 bd dd 28 8f bd
       0.080960244 -0.05979733 -0.07517181 -0.06990216
0000b0 7c 21 21 bd c5 4f 0e bd bc f7 61 bd 85 52 f2 3a
       -0.039338574 -0.034744043 -0.0551679 0.0018487728
0000c0 9e 1d 62 3d 76 a9 95 bb f4 9d 02 3d 92 12 05 3d
       0.055204026 -0.0045673205 0.031888917 0.032488413
0000d0 a7 07 9d bd 98 3b 96 bd 2a d1 45 3d 06 8a 85 bd
       -0.07667475 -0.07335585 0.048295178 -0.065204665
0000e0 3e b1 aa 3c 72 08 3e bb da 4a 58 bc 55 71 80 3d
       0.020836469 -0.0028996733 -0.01320144 0.06271616
0000f0 58 0d 5d 3d bf 75 dc ba c6 9e 58 3d fe ee 28 3a
       0.053967804 -0.0016819759 0.052885793 0.0006444304
000100 e0 01 85 bd 3f 33 56 3d 49 38 84 3d cd 57 fc bc
       -0.06494498 0.052294966 0.06456048 -0.030803585
000110 d7 97 60 ba 8e 3d 71 3d ab 39 94 3a c8 27 47 3c
       -0.0008567548 0.058896594 0.001130869 0.012155481
000120 38 95 de 3c 28 52 ea 3c ce 34 27 3d 8b 3a a7 3d
       0.027170762 0.028603628 0.040821843 0.08165463
000130 6a 3f 89 bd e2 85 91 bd ae 2b 95 bd f2 ef 5e bd
       -0.067015484 -0.07105614 -0.07283722 -0.05442805
000140 03 86 a8 bd 6f ba c3 bc b8 86 2e bd c1 43 95 bc
       -0.08228686 -0.02389261 -0.042608947 -0.018220784
000150 6c c2 9a bd 1a f0 0b bd 4e b1 20 3d 2b 05 96 bd
       -0.07556614 -0.034164526 0.03923159 -0.073252045
000160 b8 26 8e bb 08 9e 47 3d 03 28 7e bd ca 07 04 bd
       -0.0043381117 0.048734695 -0.062049877 -0.03223399
000170 2c 8d a5 3c eb 2b 01 bd a2 75 9f 3d a6 5c 9d 3d
       0.020208918 -0.031536024 0.077861086 0.07683687
000180 2c d2 f6 3c 2b 53 da bb 2e 3e d1 3c b0 60 75 bd
       0.030129515 -0.0066627464 0.025542345 -0.05990666
000190 02 0f 9b bc 71 11 80 3d 88 72 7c 3d dc 76 c7 bc
       -0.018928055 0.06253327 0.061632663 -0.024348669
0001a0 16 4e ad 3c b2 8c 46 bd 1c 5b 54 3d dd 10 8b 3c
       0.021155398 -0.04847402 0.0518447 0.016975814
0001b0 ba 91 8f bd 43 1a 5b 3b c8 31 d9 3c 09 47 4d ba
       -0.07010217 0.0033432401 0.026512995 -0.00078307145
0001c0 ea 94 95 3d 75 68 93 bd d3 01 21 bd d2 7c ad 3d
       0.07303794 -0.07197658 -0.03930838 0.08471073
0001d0 42 ee a3 3d e6 f1 9a bd 6e 25 a3 3d e4 c0 8f 3c
       0.080044284 -0.0756567 0.079661235 0.017548032
0001e0 0a 12 17 3d 00 66 06 3d 6f 90 8f bd 56 b0 92 3d
       0.036882438 0.03281212 -0.070099704 0.0716254
0001f0 a1 8a 6a bb f2 9c 87 3d f5 4e 9b bd aa 3e 87 3d
       -0.0035788196 0.06621732 -0.07583419 0.06603749
000200 90 52 8e 3d 46 8a 98 3d 2b 76 20 3c 46 6b 1f 3d
       0.06949341 0.074482486 0.009793798 0.038920663
000210 a3 81 6a bd d2 99 42 3d c6 6d 8c bd f2 d6 a6 bd
       -0.057252537 0.047509976 -0.06856875 -0.08146466
000220 ab dc 80 3d f3 2b 86 bd 4c 1d 81 3d eb c9 21 bd
       0.06292089 -0.065513514 0.06304416 -0.039499205
000230 02 05 15 3d a8 2a bb 3c 96 88 1a 3d 12 74 4b 3d
       0.03638173 0.022847489 0.037727915 0.04967124
000240 d4 f1 ea 3c e1 47 19 bb 9c d4 48 3d 24 30 3a 3d
       0.028679766 -0.002338879 0.049030885 0.045456067
000250 27 7f ae 3c c7 8a db 3c 8e 66 89 3c 14 86 9b bd
       0.021300865 0.026799573 0.016772535 -0.07593933
000260 bf 50 be bc 7c e4 48 3d a1 b0 93 bd cf cb 9c bd
       -0.023231862 0.049046025 -0.07211424 -0.07656061
000270 a9 75 db bc ed 56 49 bd c8 50 6d ba 72 46 83 3b
       -0.026789503 -0.049155165 -0.000905287 0.0040062005
000280 47 de 67 3d 6d d4 a2 bc 84 cb f0 bc c7 4c 64 3d
       0.056608465 -0.019876683 -0.029393919 0.055737283
000290 55 50 38 3d 30 11 07 bc c4 67 66 bd ae c9 2f bd
       0.044998486 -0.008243844 -0.056251302 -0.042916946
0002a0 03 d4 ba 3c 59 6e 86 bb a5 0d 94 3b 7a 1f ef bc
       0.022806173 -0.00410251 0.004518228 -0.029189814
0002b0 fc 7f 42 bd 7c 49 71 ba 5a 19 e8 3c 14 f3 06 3d
       -0.047485337 -0.00092043704 0.028332401 0.03294666
0002c0 cd 02 aa bc fb d8 ee 3b a3 a6 ad bb bc 5b 7f 3d
       -0.020753289 0.0072890497 -0.0052994057 0.062343344
0002d0 8c 9a 90 3d 65 da 89 3d 63 f4 b2 ba 39 7b a6 bd
       0.070607275 0.067311086 -0.0013653155 -0.081289716
0002e0 2c dd b4 bc 85 0b 88 3d 0e aa a9 bd c4 f1 d9 37
       -0.02207812 0.06642822 -0.082843885 2.5980997e-05
0002f0 61 d2 98 bd 6a 1e 9d bd da a8 98 bd 72 82 70 3d
       -0.074620016 -0.07671817 -0.07454081 0.058718152
000300 20 62 11 3d 20 cc 55 bd a1 78 48 bd d3 42 3b bd
       0.03549397 -0.052196622 -0.048943166 -0.045718025
000310 61 75 88 bd 36 9e 8e 3d 7d d7 18 bd 5a 9b 1f 3d
       -0.06663013 0.0696377 -0.03731488 0.038966514
000320 19 4c 8d 3c 70 7a e7 3c 87 d2 8a 3d c1 ea 84 bc
       0.0172482 0.028256625 0.06778436 -0.01622522
000330 cd a6 3c 3c 19 11 fd 3c 88 47 cf bc fb 42 88 bd
       0.011514378 0.030891942 -0.025302663 -0.066534005
000340 a4 ff 75 3d 6a 41 42 3d 2b dd 69 bd f2 81 a6 3d
       0.06005825 0.047425665 -0.057095688 0.08130254
000350 cd 33 e4 3c 42 31 85 3d d2 50 7d bd d6 f2 b4 bc
       0.027856732 0.06503536 -0.061844654 -0.02208845
000360 68 70 75 bc c5 07 6f 3d 6f 4e cb bc ca 93 d8 bc
       -0.014980413 0.05835702 -0.024817673 -0.026437659
000370 d3 be 5d bc f4 e0 9f 3d 39 c2 82 bd f7 33 a0 bd
       -0.013534266 0.07806578 -0.06384701 -0.078224115
000380 13 d4 19 3d ba 1d a5 bd bd f0 93 bd 1a 5c 77 3c
       0.037555765 -0.080623105 -0.072236516 0.015097642
000390 b4 fe 6a bd 0b 27 53 bd f9 34 46 3d dc 35 5a 3b
       -0.05737181 -0.051550906 0.048390362 0.0033296263
0003a0 4e 6f 5e 3d 05 8b 4f 3d 1d 13 8f bd 37 08 96 bd
       0.054305367 0.05066969 -0.069860674 -0.073257856
0003b0 69 49 86 3c 3d 8f d4 3c 5c 34 38 bc e4 35 86 bd
       0.016392427 0.025947208 -0.011242952 -0.065532476
0003c0 12 1d 4b bc 7f e5 d4 3b be 2f a6 3d e9 42 52 3d
       -0.012397068 0.0064970846 0.08114575 0.05133334
0003d0 8c c4 8a bc cb ef 45 3d ad a4 a9 3c b1 48 1e bd
       -0.016939424 0.048324388 0.020708406 -0.038643543
0003e0 15 b0 a2 3d e1 c1 15 3c ce 73 54 3d c8 bd 37 bd
       0.07943741 0.009140463 0.051868252 -0.044858724
0003f0 23 0d 04 bb b8 0a 89 3d 7b e6 6e 3d 12 f5 85 bd
       -0.0020149432 0.066914976 0.058325272 -0.06540884

conv1.bias f4 [8]
000000 6b 24 4c bd d5 5d 78 bd 42 a1 e7 ba bb 84 a8 bd
       -0.04983942 -0.06063636 -0.001767196 -0.08228441
000010 fa 89 3c bd 1f 64 28 3d f6 a8 69 3d 1a 2a 2f 3b
       -0.046030022 0.041111108 0.0570459 0.0026727975

conv2.weight f4 [6, 8, 16, 16]
000000 96 28 6b bc b4 e1 2d bc b6 21 ae 3c f7 ef 1f 3c
       -0.014352938 -0.010612894 0.021256309 0.009761802
000010 f0 3f a2 bc 48 a2 ce ba 72 17 5d 3b b7 de 80 bb
       -0.019805878 -0.0015764916 0.0033735898 -0.0039327997
000020 dd 12 79 bc 78 c8 82 3c 46 c1 34 bc 08 25 69 3b
       -0.015202251 0.015964732 -0.011032408 0.003557505
000030 75 06 78 bc b8 7a 44 3c d7 27 9d 3b 17 44 a8 3a
       -0.015138258 0.011992149 0.004796009 0.0012837675
000040 f2 23 02 bc be 91 55 3c ff 99 60 bc 9b 3b 8e 3a
       -0.00794314 0.013035236 -0.0137085905 0.0010851504
000050 2c d3 54 bc 82 5e ed 3b 3d 5c a1 3c 98 ff 0d 3c
       -0.0129898 0.007243932 0.019697303 0.008666895
000060 17 cf 87 3c 96 b9 61 bb da 2b 82 3b 6d 69 d8 bb
       0.01657824 -0.0034442893 0.0039725127 -0.0066043646
000070 07 ee 6b bc e1 de 98 bb ed f4 09 bc f7 f5 6d 3c
       -0.014400012 -0.004665241 -0.008420211 0.014523975
000080 43 1c 50 3c 56 8b 93 bc 27 54 25 b9 d5 40 ad bc
       0.012702051 -0.018010776 -0.00015766975 -0.021149078
000090 51 81 d8 3b 3d a3 1e 3c cc c3 03 bc 07 7d 59 bc
       0.0066072126 0.009682474 -0.008042287 -0.013274438
0000a0 73 2a 05 3c 54 0b 88 3c ee 2d b4 bb 1e aa 85 3c
       0.008127796 0.016606964 -0.0054986393 0.01631647
0000b0 07 45 78 3b fb ae 3b bc bd ba ec 3b 65 e0 54 3c
       0.003788294 -0.011455293 0.0072244094 0.012992953
0000c0 e9 0a b1 bc 01 d0 54 3c 80 31 46 bc 0d 5d 46 bc
       -0.021611648 0.012989045 -0.012096763 -0.012107146
0000d0 57 05 e8 3a 79 a8 5d 3b 1e d0 76 bc 1b ac ab bb
       0.0017701787 0.0033822341 -0.015064267 -0.0052390224
0000e0 b6 81 f1 bb 4f 04 24 3a 13 9c 6a bb 21 d3 a1 bc
       -0.007370199 0.00062567455 -0.0035798594 -0.019753994
0000f0 aa 2d 84 3c f1 0c c7 bc 6a 3c af bc e9 7b a5 bb
       0.016135056 -0.024298163 -0.021391112 -0.0050501716
000100 21 a1 91 3c 73 ec 41 3c c6 6b 79 bc 8a ba 96 3c
       0.017777028 0.011836159 -0.015223449 0.018399496
000110 93 4f 9b ba 42 1f ac 3c 3d ab d8 bb fc c8 65 3c
       -0.0011849276 0.021010999 -0.00661221 0.014024969
000120 ed c1 9e b9 18 45 c2 ba 80 fd 28 3c ed 2d 95 bb
       -0.00030280594 -0.0014821617 0.010314345 -0.004552594
000130 8c ae 97 bc 38 33 ec bb 6d 2c 65 3c 80 2a 8b 3c
       -0.018515848 -0.007208254 0.013987643 0.016988039
000140 12 94 86 b9 2c a6 a3 3c 56 10 64 3c 9f 99 61 3c
       -0.00025668793 0.019976698 0.01391991 0.013769536
000150 92 7f 93 bc 0b 49 7f 3c 5f c8 93 bc 5e 7f 94 3c
       -0.018005166 0.01558138 -0.01803988 0.01812714
000160 81 84 6c 3b 8e 23 e9 3a f5 37 e0 b9 e1 da 8a 3b
       0.003608972 0.0017787085 -0.000427663 0.004237518
000170 75 89 9c bb 9f 77 98 3c 31 e8 02 3c 73 6d 96 3c
       -0.0047771283 0.018611727 0.007989929 0.018362736
000180 4a 6f 89 bc bb f8 0b bc 66 db 2b 3c 55 16 01 bc
       -0.0167767 -0.008543189 0.01048932 -0.0078788595
000190 0d 70 7d 3c c5 3e 7d 3c 9a 0d ab 3c a7 35 7d bc
       0.0154686095 0.01545686 0.02088051 -0.015454686
0001a0 86 25 ea bb 84 2c ab 3b 23 b9 21 3c 8d e9 a6 bc
       -0.0071455864 0.0052238125 0.0098708 -0.020375038
0001b0 51 ea d8 bb d0 ea 93 3c e7 44 86 3c f4 b6 dd bb
       -0.0066197296 0.018056303 0.016390277 -0.0067661945
0001c0 9f 67 98 3c d9 4b 68 bc 78 89 b3 bb b7 6b 82 3c
       0.018604098 -0.01417824 -0.005479034 0.015920503
0001d0 6c c8 3e 3c ad b1 83 bc 8a d5 3d 3c 65 55 83 3c
       0.011644464 -0.016075933 0.011586556 0.01603193
0001e0 3c 54 65 3c e8 80 63 bb 56 ad 7e bb 4f e4 6c bc
       0.013997134 -0.0034714285 -0.003886064 -0.01445873
0001f0 84 58 ad 3c 93 42 b2 3c ca 50 99 ba 42 80 65 bc
       0.021160372 0.02176026 -0.0011697051 -0.01400763
000200 db 0c 53 3c 32 f0 65 3c 52 82 0b 3a 07 01 89 bc
       0.012881483 0.014034318 0.00053218484 -0.016724123
000210 58 c9 f8 3a 89 35 3f bc 63 5d 9b bc 68 44 42 3a
       0.0018980904 -0.011670479 -0.018965429 0.0007410706
000220 46 99 0e 3c 03 92 fb bb 7f 55 26 bc 39 50 aa 3c
       0.008703535 -0.007677318 -0.01015222 0.020790206
000230 10 75 ad 3c 73 44 90 bc 3a a5 af bc b2 87 8b bb
       0.021173984 -0.017610764 -0.02144109 -0.0042581195
000240 55 8f 94 3c 86 89 96 3c 3f 48 af bc 5e 92 c5 bc
       0.018134752 0.018376123 -0.021396754 -0.024117645
000250 02 b0 36 3c db 3d 5f bb 7c 27 72 bc 7b ec 6b 3c
       0.011150362 -0.0034063968 -0.014779922 0.014399643
000260 2a a3 7c bc cc 8f be ba 30 c0 81 3c 1d eb a7 bc
       -0.015419761 -0.0014538704 0.015838712 -0.020497853
000270 55 e0 37 3c be 77 77 bc ff ab 59 3c ce 8e b4 bb
       0.0112229185 -0.015104232 0.013285636 -0.0055101877
000280 aa 42 67 bc 31 2e e3 b8 cc 26 40 3c 80 4c cc 3b
       -0.014115015 -0.00010832807 0.011728 0.0062347054
000290 c8 85 0a bc 92 c8 f8 3b 77 02 31 bc 37 44 8b b9
       -0.0084547475 0.007592269 -0.01080381 -0.0002656297
0002a0 4c d8 96 bc 2d 18 1a bc 9b c5 26 bc 2b c1 a5 3c
       -0.018413685 -0.009405178 -0.010178949 0.020233711
0002b0 2d e2 87 3b 6c dc ee bb 24 32 03 3c 2e 12 26 3c
       0.0041468353 -0.00728946 0.00800756 0.01013617
0002c0 96 a4 3b 3c c8 40 4f 3c 35 25 55 bc f9 fc 89 3c
       0.011452815 0.012649722 -0.013009359 0.01684426
0002d0 fe da b8 bc f7 ff 40 bc 36 f9 ad bb cf ab 63 3c
       -0.022565361 -0.011779777 -0.0053092493 0.013895943
0002e0 f0 c0 75 bc c7 7d b9 bc 24 3d 39 3c b7 3c 82 3b
       -0.014999613 -0.022642983 0.011306081 0.003974523
0002f0 b0 72 0c bb 4d ad 81 3b 32 91 8b ba 69 4a ab bc
       -0.0021430664 0.0039574266 -0.001064813 -0.020909505
000300 5b 72 0e bc e1 10 9a bc 14 7d 6a bc f4 62 db ba
       -0.008694257 -0.018806877 -0.0143120475 -0.0016737864
000310 d4 91 92 3c 84 21 b8 bc 82 2c a2 3c 60 e9 6b 3c
       0.017891802 -0.022476919 0.019796614 0.014398903
000320 f2 20 3a 39 70 26 54 bc 8f a0 38 3c 07 cf 15 3c
       0.00017750615 -0.012948617 0.011268749 0.009143597
000330 4a 54 89 3c 0f 2c 84 bb 8e 1e 15 3c 2c fd 82 bc
       0.016763825 -0.0040335725 0.009101523 -0.015989862
000340 d6 b5 a5 bb fd cb c2 ba 1a dd a5 ba 65 26 29 bb
       -0.005057077 -0.0014861819 -0.0012654394 -0.0025810238
000350 69 8e 44 bc 0a 9f 20 ba fc 92 2b 3c 2f 39 8b bc
       -0.011996844 -0.00061272143 0.0104720555 -0.01699504
000360 12 e9 4c 3c 53 77 03 3c ba 99 87 bc 6d 5b 8c 3b
       0.01250674 0.008024055 -0.016552795 0.0042833597
000370 b1 c8 79 bc fa 8c 8e bc 6a 0a ae bc a5 7e 31 bc
       -0.0152456025 -0.017401207 -0.0212452 -0.010833417
000380 51 8c b7 bc c8 e1 71 3c c9 c2 53 ba 60 f2 a2 3c
       -0.022405775 0.014763303 -0.00080780365 0.019890964
000390 aa 16 94 bc 99 13 33 bb c6 5c 52 3c 98 ed 87 3c
       -0.018077213 -0.0027324914 0.012839502 0.016592786
0003a0 16 c6 70 3b 24 30 b4 bc cd f4 6f 3b 62 4f 5f bc
       0.0036739162 -0.021995611 0.0036614418 -0.013629766
0003b0 6d 9b 2b 3c d3 f0 72 3c 40 f0 e7 bb 21 0a a5 bb
       0.010474068 0.014827925 -0.0070782006 -0.005036608
0003c0 60 30 8d bc a3 3b be bc 72 27 99 bc e0 0b 8e bb
       -0.017234981 -0.023221796 -0.018695567 -0.0043349117
0003d0 eb 87 f0 3b 78 18 0e bc 22 55 21 3c d7 fc 5c bc
       0.0073404214 -0.008672826 0.009846957 -0.013488016
0003e0 fc 8d 8e 3c c6 a9 8b bc 91 cb 1a bc 1d 32 8e 3b
       0.017401688 -0.017048728 -0.009447948 0.00433947
0003f0 b8 19 24 bb a4 ea 4f bc 87 47 63 3c 69 e0 0e 3c
       -0.0025039744 -0.01269022 0.013872034 0.008720496

conv2.bias f4 [6]
000000 8b 04 5f 3c a0 2f 80 bc 5b 16 37 bc 44 ad 27 bc
       0.013611923 -0.01564771 -0.011174764 -0.010234181
000010 90 f6 93 bc 05 b4 8c bb
       -0.018061906 -0.004293921

fc1.weight f4 [1, 144]
000000 7a 1c 00 bc 6a d7 12 bc 9e 76 3f bd 5d cc af 3b
       -0.007819289 -0.0089624915 -0.04674398 0.005364938
000010 3a 4e 81 3d a9 59 86 bd ff 2c 80 3d a4 08 15 3d
       0.06313749 -0.0656007 0.06258582 0.036385193
000020 5a 73 27 bc f8 0c 0c bd 04 8d 11 bd 44 e8 81 3d
       -0.010220373 -0.034192055 -0.035534874 0.06343129
000030 37 1f 22 bd 34 75 2c bd 79 62 19 3d 36 c1 4e bd
       -0.03958055 -0.04210396 0.037447426 -0.05047723
000040 cf d7 fb 3c f6 40 3e bd 58 5a c1 3c 49 de 55 3d
       0.030742554 -0.04644867 0.02360265 0.05221394
000050 f2 7c 82 ba 06 87 a0 3d 53 26 a0 3c 24 0c 31 3d
       -0.000995545 0.07838254 0.019549524 0.04322447
000060 24 cc 90 3c db 76 a3 3b 22 c0 a5 bd d1 2a f3 bc
       0.017675467 0.004988534 -0.08093287 -0.029683502
000070 e7 e8 b7 ba c5 ff 80 3c 29 9c a7 bc 36 86 52 3d
       -0.0014031202 0.01574696 -0.020460205 0.051397525
000080 21 23 ac ba 35 d6 53 3b 5d 34 83 bd 63 0c 3f 3d
       -0.0013133028 0.0032323722 -0.06406472 0.046642672
000090 29 b0 a0 bd 19 f8 d6 3c 98 bb 86 bd 08 08 84 3d
       -0.078461 0.026241349 -0.065787494 0.06446844
0000a0 9f 8e 8d bd b8 b8 24 ba 88 ef 89 bd 4d 94 ae 3c
       -0.069119684 -0.0006283629 -0.0673514 0.02131095
0000b0 72 48 83 3d 16 15 3e 3a 63 b3 0a 3d ab 6d a0 3c
       0.06410302 0.0007251067 0.033862483 0.019583544
0000c0 01 ff 5b 3d 72 da 6e bc 8d ce 07 3d 16 c2 9e 3d
       0.053709988 -0.014578449 0.033155967 0.07751863
0000d0 22 3b a2 bd 4b ed cd bc 35 1a 09 3d e7 bd ae 3b
       -0.07921435 -0.025137564 0.03347226 0.0053326967
0000e0 46 63 d6 bc 0c ac 19 bb d9 e3 7e 3d df f0 65 3d
       -0.026170384 -0.0023448495 0.06222901 0.056137916
0000f0 22 5a a7 3b 6b 34 a5 bd f3 6f 8c 3d fa 42 85 bb
       0.00510718 -0.080666386 0.0685729 -0.004066822
000100 71 fe 0c bd 56 54 dc bc 0b 17 04 3d cd 0d 5c bd
       -0.03442234 -0.026895683 0.032248538 -0.0537241
000110 25 1c ac bc 15 79 70 bc 5c 46 49 bc bd 7b 9f bc
       -0.021009514 -0.014677306 -0.012284841 -0.019468183
000120 44 c7 12 3d 4b 19 84 3d c9 f0 e4 bc fa 6e 52 3c
       0.035834566 0.06450137 -0.027946847 0.012843842
000130 3a ba 61 bd ad be b9 bc f9 2f 37 bd be da 29 bd
       -0.05510924 -0.02267393 -0.044723485 -0.041468374
000140 4b 20 56 3a 93 38 eb 3c 91 41 a7 3d c8 31 4d 3d
       0.0008168264 0.0287135 0.08166803 0.050096303
000150 af 65 30 bd 8e 69 98 bd 63 25 5c bd 7e 9b 4f bd
       -0.043065723 -0.07442008 -0.053746592 -0.0506854
000160 12 6c 08 bd ee 1f bf 3c 2d 9d 0c bd ff 8c ad bd
       -0.03330619 0.023330655 -0.034329582 -0.084741585
000170 57 80 94 bd 1c 1e de 3c f6 10 ee bc 44 10 5a bd
       -0.072510414 0.027113967 -0.029060822 -0.05323817
000180 9b 7a 06 bd fd c3 21 bc 6e 69 e5 3c fc a2 b0 3d
       -0.03283177 -0.009873387 0.028004374 0.08624837
000190 93 35 22 3d 3c a2 84 3c fd 48 99 3d 42 ae 52 ba
       0.039601874 0.01619064 0.074846245 -0.00080368307
0001a0 b2 0b 6b 3d 97 e9 94 3d c3 7a 2c bb e4 20 21 bd
       0.0573842 0.07271116 -0.002631829 -0.039338008
0001b0 75 47 7c 3d db f8 2c 3c f9 f5 37 bd cb 88 b9 bc
       0.061591584 0.010557379 -0.044912312 -0.022648236
0001c0 37 98 87 bd ee 8a bc bc 5a 3b 69 3d 7d 83 df 3c
       -0.066208296 -0.023015466 0.056941368 0.027284378
0001d0 55 ff a1 bd 9d 01 ae bd 5d 05 2c bc 4f 70 53 3d
       -0.07910029 -0.084964015 -0.010499326 0.051620778
0001e0 b0 92 4f 3d 79 c4 2b 3c 54 8d 6c 3d fb 1a 30 3d
       0.050677 0.010483854 0.05775197 0.04299448
0001f0 22 e7 c9 3c bb 1b 76 bd b6 d1 98 bd 26 de 89 bd
       0.024646346 -0.06008504 -0.07461874 -0.067318246
000200 c3 04 1c 3d 96 0f 98 3d 8d 06 8a bd fc a8 4b bb
       0.03809048 0.07424848 -0.06739531 -0.0031076064
000210 ce 7f 54 3d ad 99 1a 3d 0c 03 02 bc 04 5c 22 bd
       0.051879697 0.037744213 -0.007935297 -0.039638534
000220 c1 5c 26 bc 95 db 03 3d b2 f5 a1 3d 90 5d 9c bd
       -0.01015395 0.03219183 0.07908191 -0.07635033
000230 5b ff 98 3d 56 35 15 3d 31 81 9d 3d 95 f3 e7 3c
       0.0747058 0.03642782 0.07690657 0.028314391
