PythonClient/reinforcement_learning/saved_models/1.0-2024-06-19.pth (torch, 39959 bytes, 7 tensors)

conv1.weight f4 [6, 3, 8, 8]
00000000: a2b4 73bc 2dd7 e6bc a96a 03bb 0fb7 5cbd
00000010: e6d2 e1bc 4625 bcbd f3eb 06bd d9fd 24bd
00000020: 3e7f cc3c 7830 40bd d9bf 85bd f5f6 53bd
00000030: 2d58 12bd 2e49 ebbc f073 98bd a333 363b
00000040: 5891 2bbd d623 cbbd e58f 9e3c 9475 e8bd
00000050: d51b 48bc 5bc9 4bbd 5a54 66bd 5714 20bc
00000060: 6d67 a63b 5bd4 85bd 3f87 d4bd 1751 b3ba
00000070: da26 59bd 5cf1 eabb 01a0 b0b9 2d6a 74bc
00000080: 69a7 1bbd 813e 02bd eec1 5dbd 1a00 59bd
00000090: b0ea dcbd 4cb1 80ba a8a8 d5bd 8d42 06be
000000a0: 3b88 e53c 63ed ecbc bc4a 0abd b555 f7bd
000000b0: 1cee 8ebd 27ca 0abd 1d88 62bd 3086 79bd
000000c0: c6d6 2abd 8bf2 8ebd 4461 4bbd 32fd 8bbb
000000d0: f229 87bd 13e9 70bd d1b6 30bd eaca febd
000000e0: 52d4 d1bd 694d c0ba ed29 46bd d3b5 d5bd
000000f0: 8b1f 15bd e070 f4bc 4963 05be 340d 80bd
00000100: 6651 2c3d cd5f 1d3b fd94 5c3b ffc4 cd3b
00000110: baae 453c 1b4f 94bd eb2c 973c b051 f7bc
00000120: d915 f5bc c0da 5ebd 7b29 b6bd de7f a63c
00000130: e900 55bd cc7a 96bd a531 42bc eb64 33bd
00000140: 19cb 573d 1c21 1a3c 9ed1 afbc 808a b3ba
00000150: eafa 31bd 28d4 adbd 89f6 57bc 25cb 9abd
00000160: 7532 cc3c 45db e83c a3a2 06bc bb57 223d
00000170: 0528 31bd fea7 563b 39c2 1cbd 2ae3 8abd
00000180: 16af 29bc f745 7dbb 8f1e be3c 7b17 4abd
00000190: 7bab a2bc c8c8 233c 2973 3fbd ba81 81bd
000001a0: b5e8 9bbd 0f03 473b 6385 36bd a620 bdbd
000001b0: bbc1 aebd 55ab afbd 1691 bdbd b585 e5bc
000001c0: 0079 b8bb 33d5 4b3d f8e1 3f3d fdf2 06bd
000001d0: a2e0 4cbd f274 f7bc 8a56 2abd c62f b0bd
000001e0: 9293 5cbc bc4e 403d 7d16 b8bd 4337 403d
000001f0: f3b4 593c 5317 fc3a 28ca 24bd 8123 55bd
00000200: 3c07 02bd 7dca 463c 585e ea3c 75f0 00bd
00000210: 492b 11bd 737e b1bd ab59 22bd 2818 f4bc
00000220: 17fa 82bd fef7 3dbd f33f babc 8864 c5bd
00000230: 5c32 71bd 3581 99bd 7c43 e0bc 18fc 96bd
00000240: c2d5 7ebd b68f 503d f475 e0bc 2ea2 0a3d
00000250: 77d7 313c e0b3 aebd 6020 cabd 0948 5ebd
00000260: 8531 233d 26de f3bc faf7 363d 4894 233d
00000270: 49a1 0fbc 36a5 72ba 3682 b1bd eac1 21bd
00000280: ec87 cebc cfc6 1abd e87b 84bd 9122 6e3c
00000290: cf16 24bd 9a42 94bc a90c bcbd 97df cfbd
000002a0: fd6c 82bc 9f9f 60bd b047 0e3d 7835 cb3c
000002b0: d6b8 9ebc 8f9e 86bd cad8 cebd d82f 44bd
000002c0: 5f85 533d a448 f1bc c6b3 f43c cbcb 3d3c
000002d0: 9d17 cbbd b1a8 d4bd 07ae 7f3c 44dd 58bc
000002e0: 987a 003c c26a 143b a43c 64bd adc6 da3c
000002f0: a3bf 9ebd 919d b4b7 30a1 38bd 3a5c cdbd
00000300: 5511 b1bd 0ac8 38bd 0154 76bd cba2 36bd
00000310: 2334 97bd a11b 2bbc a506 8abd 179a 70bd
00000320: e754 c13b b127 6cbd 4650 513a e8f6 9bbd
00000330: 92c7 093c b7c1 80bd 7bbf 08bd 44cd 3ebd
00000340: 52a8 6cbd c11d 3b3c e7f5 b6bc f616 93bd
00000350: d2a0 823c 5404 e83c b926 bfbd 4dbe c1bb
00000360: 7070 02bd 857b 05bc 42c6 2c3c 2db2 adbd
00000370: fa9f 2cbd 3c90 36bd 15cb 05bd 1737 393c
00000380: fd75 5bbd 26a2 a7bd 7a64 bcbd f48d 12bd
00000390: b809 b5bc 64f0 7bbd 96bd 41bd a4b8 ecbc
000003a0: 792f 1ebd 05f1 94bd 5b7c e53c e2e7 97bd
000003b0: 8862 5abc 5ae6 043c 505e f83c a28c 4bbd
000003c0: f8b1 d9bc 53fb 78bc c35e 7fbd a572 3d3b
000003d0: 02a8 19bc fbe8 80bd 9715 ddbc a49a d3bd
000003e0: 9c56 acbd ec0b babc 2ef4 0bbd 0cfc ea3b
000003f0: a6ac f7bc d6a0 c6bc 1264 19bd 2420 453c
-0.014874609 -0.028178776 -0.0020052588 -0.053885516 -0.027566385 -0.09186797 -0.032939862 -0.04028115
0.024963018 -0.046921223 -0.06530733 -0.05174919 -0.035728622 -0.028721418 -0.07443988 0.0027801774
-0.041886657 -0.099189445 0.019355724 -0.11350551 -0.012213667 -0.049752574 -0.056232788 -0.009770474
0.0050782473 -0.06534644 -0.10377359 -0.0013680783 -0.053015567 -0.0071698856 -0.00033688548 -0.014917892
-0.03800145 -0.03179789 -0.054140024 -0.052978612 -0.107869506 -0.0009818464 -0.10432559 -0.13111325
0.028019061 -0.028921789 -0.03376268 -0.12076894 -0.069790095 -0.033884194 -0.05530559 -0.060918987
-0.04170873 -0.06979855 -0.049653307 -0.0042721266 -0.06599797 -0.058816027 -0.043143097 -0.124410465
-0.10245575 -0.0014671508 -0.048379827 -0.10435071 -0.036407035 -0.02983898 -0.13026156 -0.06252518
0.042069815 0.00240134 0.003365814 0.0062795873 0.012065584 -0.07241651 0.018454036 -0.030190319
-0.029917644 -0.054407835 -0.088946305 0.020324644 -0.05200282 -0.073476404 -0.0118526565 -0.043797415
0.052683923 0.009407308 -0.021462258 -0.0013697892 -0.04345218 -0.08487731 -0.013181337 -0.07558278
0.024926404 0.028424868 -0.008217487 0.039634448 -0.043251056 0.003275394 -0.038271163 -0.06781609
-0.010356685 -0.0038646439 0.02320793 -0.0493388 -0.019857159 0.0099966 -0.046740685 -0.063235715
-0.07612745 0.0030366813 -0.0445608 -0.09234743 -0.08533045 -0.08577601 -0.092561886 -0.028017858
-0.0056296587 0.04976387 0.04684636 -0.032946575 -0.050018914 -0.030207131 -0.041586436 -0.08602862
-0.013462918 0.046950087 -0.08988664 0.0469277 0.013287771 0.0019233025 -0.040231854 -0.052035812
-0.03174518 0.012133238 0.02860944 -0.031479318 -0.03544167 -0.086666964 -0.039636295 -0.029796675
-0.06395357 -0.046379082 -0.022735571 -0.096383154 -0.058885917 -0.074953474 -0.027375929 -0.07372302
-0.062215574 0.050918303 -0.027399994 0.033846073 0.0108545935 -0.08530402 -0.09869456 -0.054267917
0.039842147 -0.029769015 0.044670083 0.039936334 -0.008766481 -0.0009256186 -0.08667414 -0.03949157
-0.025211297 -0.037787255 -0.06468946 0.014534608 -0.040060814 -0.018098164 -0.09182102 -0.10150068
-0.01592111 -0.054839727 0.034736335 0.02480577 -0.019375246 -0.065732114 -0.10099943 -0.04789719
0.051640864 -0.029453583 0.029870879 0.011584233 -0.09916613 -0.10383738 0.015605456 -0.013236348
0.007841729 0.002264664 -0.055721894 0.026706064 -0.077513956 -2.1531045e-05 -0.045075595 -0.100273564
-0.08645884 -0.045112647 -0.060138706 -0.044588845 -0.07382991 -0.010443599 -0.067395486 -0.0587407
0.0059000137 -0.05765504 0.0007984679 -0.07615453 0.008409398 -0.06286948 -0.033385735 -0.046582475
-0.05777771 0.011420668 -0.022334052 -0.07182114 0.015945826 0.028322376 -0.09333558 -0.005912578
-0.03184551 -0.008147125 0.010545315 -0.0848125 -0.042144753 -0.044571146 -0.032664377 0.011304638
-0.05357932 -0.08185224 -0.09198852 -0.03577991 -0.02209936 -0.06150855 -0.047299944 -0.028896637
-0.038619492 -0.07272533 0.028013399 -0.07417275 -0.013329156 0.008111561 0.03031841 -0.049694665
-0.02657412 -0.015196639 -0.06234623 0.0028907445 -0.009378435 -0.062944375 -0.026987834 -0.1033223
-0.08414957 -0.022710763 -0.034168415 0.0071711596 -0.030233692 -0.024246614 -0.03744895 0.012031589

conv1.bias f4 [6]
00000000: cb3b efba c1ad 8b3c f11c 83bd 74eb 41bd
00000010: 02b9 273b cadd 103c
-0.0018252073 0.017050626 -0.064020045 -0.047343686 0.002559245 0.008841941

bn.weight f4 [6]
00000000: 377c 4c3f 6a41 7c3f b10c 5c3f 1f07 813f
00000010: e915 653f 58fe 5b3f
0.79877037 0.98537314 0.85956866 1.0080298 0.8948656 0.8593497

bn.bias f4 [6]
00000000: 7c77 92be fc7b f03c 462a 9bbe 12fe 383d
00000010: 263b 5dbe 779b 59be
-0.28606784 0.029355995 -0.3030569 0.045164175 -0.21604595 -0.21250711

bn.running_mean f4 [6]
00000000: 3a97 1440 d9ad 3a40 43b9 a5bf 3476 d53e
00000010: 99ba 3bbf 5f52 37bf
2.3217301 2.9168608 -1.2947162 0.41691744 -0.733316 -0.71610063

bn.running_var f4 [6]
00000000: 962c 1e41 1d30 8541 2c7b 4240 3b9a 023f
00000010: 0313 953f b2a4 ca3f
9.885885 16.648493 3.0387678 0.51016587 1.1646427 1.5831511

fc1.weight f4 [1, 7938]
00000000: e3a9 f83c 7f6b e53c 3b3a c63c f7e2 003d
00000010: a002 f63c e349 8e3c 5a68 8c3c a3bf c83c
00000020: 5a40 4b3c db60 1a3d df51 153c 1ab6 dc3b
00000030: 69bc 333c 6e57 1b3c 84e8 273d c3d4 d23c
00000040: fa2b 253c 375f d8bb ee15 063c ad45 2d3c
00000050: 5dec 973a 4188 c43b 9bd5 dfbc 7805 1cbd
00000060: c3a5 8fbd e32f a8bd dc16 8fbd eb60 2cbd
00000070: f285 49bd 96d8 42bd d130 59bd b092 49bd
00000080: 2e83 1ebd 8adb 0ebd fe1e 8abc 4652 16ba
00000090: fe7c 553c 42e9 e33b 676f 553c e80a 863a
000000a0: a009 103c 354d 903c 390a 1c3c 5fc9 013c
000000b0: 74b6 7ebb 5b78 4a3c 1434 203b 6b91 8dbc
000000c0: f224 0bbc 5b51 b93c b349 bd3c 7283 ea3c
000000d0: a926 933c 46b6 593c 81a3 e73b 004b 8a3c
000000e0: 29f4 5e3c 57e7 ae3c 2d71 883c 54f6 c83c
000000f0: 3ddf a23c 944f 6d3c 333e 803a 0d3c c0ba
00000100: 87d7 053c f104 083c 3e2c 473c 08ad f83b
00000110: 34db 7ebb e9c3 0abc d05a 6cbc 8497 18bd
00000120: a892 68bd 6ad8 adbd 0882 99bd 36e6 95bd
00000130: 178e 74bd e9b6 60bd bdcc 8cbd e60c 81bd
00000140: 9ef4 32bd a3bd 78bd 6317 cdbc 7beb 59bb
00000150: 7aeb 433b 2e51 4b3b a164 453c 8ec7 f3bb
00000160: 4624 d33b 470b c93c 84ea 063c cd80 673c
00000170: ec1a 95b8 dcc1 90bc 0334 ffb8 df3d a53a
00000180: 3451 08bd b1a5 a1bc c01c 333d 1dc4 c73c
00000190: 6014 a63c 4732 ae3c c66e 943c 7ed7 8b3c
000001a0: 54bf 47ba b70e 4d3c 8ac0 e93b 4bca 093d
000001b0: e7ab 973c d05d 6a3c 0232 0d3c 9608 693c
000001c0: caa1 33bc 7e50 b7bb acb3 b73b b432 c83b
000001d0: 3d4e 63bb 4590 a5bc e913 49bc a06d d0bb
000001e0: 3629 07bd 07c8 5bbd ad1c 8cbd cd2a adbd
000001f0: 3e6a b9bd d55d b8bd 4c60 84bd 86d0 78bd
00000200: 1bdc 83bd 1147 81bd 421c 44bd 8ebd 99bc
00000210: 9db6 0a3c a212 633c 6a83 e7bb 0c1d b43c
00000220: f6a4 353c db04 b43c 3a21 c8ba dd6d 2a3c
00000230: 991b a23c dcad d2bb 5d44 c8bc 9bd2 79bc
00000240: 6d6b eebc 3a5d e8bc 8038 cabc 9020 0b3d
00000250: 1c3e cb3c 775d a53c 020c da3c 5fef b23c
00000260: f4f8 5b3c 574e bc3c fc0b 383c e940 b93b
00000270: 9cc7 953c 5581 a53c 7175 523c 3971 f739
00000280: 3a48 2a3c d150 2cbc 6dc9 22bc cf95 a8bb
00000290: b446 22bb b9e7 54bc c896 78bc 48c7 c3bc
000002a0: b535 29bc 0520 c7bc 0128 4fbd 513c 6ebd
000002b0: a1fa a3bd d464 b9bd da68 7ebd 093d a6bd
000002c0: 1fdc a5bd c4a1 7fbd 249f 54bd 7bd2 19bd
000002d0: 1c1a f9bc e5f7 433c 3024 a83c b321 733c
000002e0: 4b42 103d bf1e b33c 124e 0a3d 4054 d73b
000002f0: 3e56 8a3b 49cc a63a fbad e1bc 8062 cbbc
00000300: cf32 80bc 80fb 53bc bad0 dcbb 7958 5fbc
00000310: e63d 1c3d 5e8e 373d 9851 043d fb10 f13c
00000320: b3a8 0b3d 3ce0 2d3d a860 fe3c d89e 883c
00000330: 23d6 bd3c ff17 a13c 843b 993c 3fee 013c
00000340: 8262 4a3c c1a6 313c 266c 2b3a 81fb 1b3c
00000350: 1518 08bc 4ec8 283c f6bf 10bc 74e6 8fbc
00000360: e5db a6bc aff1 c1bc c4d5 fabc 1a5e 34bd
00000370: 7b08 43bd f795 29bd aa21 34bd fc9c 50bd
00000380: 546b 80bd 7222 6fbd 9715 60bd 273a 28bd
00000390: a058 a8bc 8164 d8bc cf6b 383c 4ddd e53c
000003a0: 20f5 ec3c 1c89 133d c1cf 643c 628d 253d
000003b0: 0b8b ee3b 622d e33b 7efc 60bc 21aa b2bc
000003c0: 6415 58bc f31e fe3b 26ca f23b 8fc5 1bbb
000003d0: 0fcb 873b 4cc2 223d 9b31 2d3d 0e64 1c3d
000003e0: dc33 c63c 5e21 343d a98b 0a3d 40bd 223d
000003f0: 099a 163d 3567 8b3c 2a61 7e3c 54ba e13b
0.030354446 0.02800536 0.024197688 0.03146645 0.030030549 0.017369216 0.017139602 0.024505442
0.012405479 0.037690025 0.009113758 0.0067355754 0.010970213 0.009481294 0.04099323 0.025736218
0.010081286 -0.0066031474 0.008183939 0.010575694 0.0011590827 0.005997688 -0.027323535 -0.038091153
-0.070140384 -0.08212259 -0.06986782 -0.042084616 -0.049200006 -0.047569834 -0.05302507 -0.049212158
-0.03869932 -0.034877338 -0.016860481 -0.00057343056 0.013030289 0.0069552967 0.013027049 0.0010226639
0.008791357 0.01761494 0.009523922 0.007921546 -0.0038866075 0.012357797 0.0024445103 -0.017281255
-0.008492695 0.022621801 0.023106432 0.028627131 0.01796277 0.013288086 0.0070690517 0.016881466
0.013608017 0.021350546 0.016655529 0.02453152 0.019881839 0.014484305 0.0009784162 -0.0014666334
0.0081690615 0.008301959 0.012156544 0.0075889863 -0.003888798 -0.00846956 -0.014425948 -0.03725387
-0.056780487 -0.08488543 -0.074955046 -0.073193 -0.05970582 -0.054861937 -0.06874988 -0.06301288
-0.043690316 -0.060727727 -0.025035566 -0.003325193 0.0029894994 0.0031023729 0.012047918 -0.0074395603
0.006443533 0.02454151 0.008234624 0.01412983 -7.109888e-05 -0.017670564 -0.000121690355 0.001260694
-0.033280566 -0.019732328 0.04372859 0.024385506 0.020273387 0.021264208 0.018119227 0.017070528
-0.00076197577 0.012515715 0.007133548 0.033640187 0.018514587 0.014304593 0.00861788 0.014223238
-0.0109638665 -0.005594312 0.0056061354 0.00610956 -0.0034684085 -0.020210395 -0.012272813 -0.0063607246
-0.032998286 -0.053657558 -0.06841407 -0.08455429 -0.09053467 -0.09002272 -0.0646368 -0.06074574
-0.06438466 -0.06312383 -0.04787851 -0.018767145 0.00846639 0.013859423 -0.0070652263 0.021986507
0.011086693 0.021974972 -0.0015268691 0.01040217 0.01978855 -0.006429417 -0.02444666 -0.015247966
-0.029103959 -0.028364766 -0.024685144 0.0339666 0.02480989 0.02018617 0.026617054 0.021842657
0.013426054 0.022986574 0.011233326 0.00565349 0.018283658 0.020203272 0.012845383 0.0004719587
0.010393197 -0.010517315 -0.009935719 -0.0051448117 -0.002476138 -0.0129947 -0.015172668 -0.023898736
-0.010327746 -0.02430726 -0.05057526 -0.05816299 -0.08006788 -0.090524346 -0.062111713 -0.0811711
-0.080986254 -0.06241013 -0.05190958 -0.037554245 -0.030407958 0.011960958 0.020525068 0.0148395775
0.035219472 0.021865247 0.03376586 0.0065713227 0.0042217067 0.0012725677 -0.02754878 -0.024827242
-0.015649227 -0.01293838 -0.0067387493 -0.013631933 0.03814497 0.044813506 0.032304376 0.029427042
0.03409643 0.042450175 0.031051949 0.016677305 0.023173397 0.019664763 0.018705137 0.007930337
0.012352588 0.01084298 0.00065392477 0.009520412 -0.008306523 0.010301663 -0.00883483 -0.017565943
-0.020368526 -0.023674814 -0.03061951 -0.044035055 -0.04761551 -0.041402783 -0.043977417 -0.050930962
-0.06270471 -0.05838246 -0.05470809 -0.041071083 -0.020550072 -0.026415111 0.011256172 0.028059626
0.028925478 0.03601943 0.013965548 0.040418036 0.007279759 0.0069329003 -0.013732074 -0.02180964
-0.013188694 0.0077551543 0.007409352 -0.0023768877 0.0041440795 0.039736077 0.042283636 0.038181357
0.02419465 0.043977134 0.033824597 0.039731264 0.036767993 0.017016986 0.015526095 0.006888667
