PythonClient/reinforcement_learning/saved_models/1.0-2024-06-28.pth (torch, 39959 bytes, 7 tensors)

conv1.weight f4 [6, 3, 8, 8]
0.058717195 0.008957957 0.028278578 0.034755155 -0.03313559 0.08717534 -0.032673817 0.032103345
0.0075441333 -0.052522335 -0.0018352788 0.012188375 0.020965507 -0.006927887 0.06679989 0.016252527
0.0856894 0.0400923 -0.03771971 0.07060214 0.037356663 0.025445124 0.029221939 0.13767323
0.038240753 0.07278203 0.07468252 0.0849605 0.02492534 0.065582894 0.07723461 0.120950125
0.014175223 -0.05050998 -0.022511825 0.058926176 0.11129776 0.123290144 0.076869726 0.14658098
0.09026843 -0.042860843 0.06379076 0.13665953 0.08713266 0.112452626 0.10787274 0.051052034
-0.015085662 -0.014866154 0.029046504 0.0796917 0.07193003 0.15013348 0.051585916 0.12517402
0.12472392 0.06424367 0.042885713 0.015382867 0.05934328 0.07376244 0.005748701 -0.01289085
0.017549623 -0.039279338 -0.061062727 0.02611219 -0.058120746 -0.053170003 -0.07401827 -0.007567836
-0.011361901 -0.11925039 -0.067110576 -0.014453571 -0.0113807125 -0.010443622 0.08877223 0.03127303
-0.05919473 0.00090993615 -0.0017623481 -0.05216321 0.01892808 0.030442607 0.018106962 0.041944966
0.032027755 -0.037636384 -0.012822195 0.014815325 0.059827063 -0.026247656 -0.004556345 0.071891725
-0.058641393 -0.12251132 -0.09422882 0.050790016 0.014433127 0.11485318 0.07914195 0.0906552
-0.050507657 -0.056101024 -0.07700879 -0.07025 0.09560296 -0.012818455 0.050514948 0.034065813
-0.03973363 -0.023978772 -0.12793195 0.0132351555 0.07070172 0.07584466 -0.034633026 -0.028832642
0.0028929866 -0.02966622 -0.08174352 0.0156002445 0.05948315 0.071168706 -0.003867084 -0.010209309
-0.03839391 -0.07301681 -0.103455104 -0.055801384 -0.015007896 -0.030880881 0.05414635 -0.027857076
0.058142208 -0.011134958 -0.064479634 0.001892064 -0.0016193183 0.07095248 0.048146285 0.016133526
-0.019626921 -0.0994234 -0.09062157 -0.14286867 -0.041113693 0.026053717 -0.01557693 0.07150433
-0.012803182 -0.13381173 -0.12467901 -0.11809933 0.0536086 0.015389945 0.017762778 0.008430754
-0.06683891 -0.12625594 -0.15982963 -0.092049085 0.09148826 0.05061892 0.05761992 0.08827046
-0.10403229 -0.08995183 -0.06675686 -0.060475286 -0.05576155 0.05105327 0.030496169 0.08632853
-0.048215862 -0.10608843 -0.0169363 -0.09116363 0.05001852 -0.02676002 -0.035274543 -0.08029728
0.037444305 -0.12503447 -0.13175793 -0.027652131 0.027317042 -0.082926236 0.008575639 -0.062110156
0.035351682 -0.009305321 0.077300854 0.07234023 0.04778019 -0.100750215 -0.054176155 -0.11233993
0.06743236 0.13263038 0.15296389 0.084567025 0.03922724 0.13760008 0.0043427865 -0.0879609
0.09487351 0.14858787 0.128665 0.13178791 0.110134035 0.054212075 -0.032283153 -0.0063111
0.0765013 0.10948284 0.27874312 0.13273692 0.11644086 -0.031164145 -0.0134012075 -0.0438021
0.257883 0.218696 0.20526795 0.0808299 0.2508624 0.2018268 0.042365428 0.03252877
0.15327516 0.1049886 0.042139687 0.025470838 0.06720699 -0.043860815 -0.04082366 -0.13824388
-0.0065529295 0.03568878 0.055249654 -0.047310546 -0.03154758 -0.0031496424 -0.06348803 -0.046139672
0.051009387 0.033549525 0.07337145 -0.040023133 -0.055101596 -0.06005011 0.05557953 -0.11764804
00000000: 7181 703d 65c4 123c 7aa8 e73c 6c5b 0e3d
00000010: 2fb9 07bd fc88 b23d fbd4 05bd cc7e 033d
00000020: c734 f73b a921 57bd bd8d f0ba c0b1 473c
00000030: dbbf ab3c 5403 e3bb 61ce 883d 0524 853c
00000040: ed7d af3d d337 243d fc7f 1abd db97 903d
00000050: 4d03 193d 4b72 d03c d962 ef3c 36fa 0c3e
00000060: 56a2 1c3d bf0e 953d 26f3 983d c5ff ad3d
00000070: 3a30 cc3c 5350 863d 2e2d 9e3d b3b4 f73d
00000080: 323f 683c 8ee3 4ebd b86a b8bc 935c 713d
00000090: 14f0 e33d 8b7f fc3d e06d 9d3d 5319 163e
000000a0: a8de b83d da8e 2fbd bba4 823d 7af0 0b3e
000000b0: 9c72 b23d 904d e63d 62ec dc3d f01b 513d
000000c0: da29 77bc 2b91 73bc eff2 ed3c 6735 a33d
000000d0: 0d50 933d 97bc 193e c14b 533d 9e2d 003e
000000e0: 416f ff3d 2f92 833d eea8 2f3d 6c08 7c3c
000000f0: f011 733d c310 973d 995f bc3b 2534 53bc
00000100: 3ac4 8f3c 5fe3 20bd e91c 7abd 3be9 d53c
00000110: 0510 6ebd cac8 59bd e496 97bd 9cfb f7bb
00000120: 4427 3abc 8c39 f4bd 4571 89bd acce 6cbc
00000130: 2b76 3abc ba1b 2bbc 37ce b53d 2618 003d
00000140: 2c76 72bd c888 6e3a 97fe e6ba 17a9 55bd
00000150: 100f 9b3c c662 f93c 0d55 943c 7cce 2b3d
00000160: 892f 033d 9c28 1abd 2f14 52bc fabb 723c
00000170: 390d 753d 5305 d7bc 644d 95bb f83b 933d
00000180: f531 70bd 37e7 fabd 0afb c0bd 3109 503d
00000190: ec78 6c3c 2538 eb3d 2d15 a23d 6fa9 b93d
000001a0: 1ee1 4ebd 30ca 65bd c9b6 9dbd 3bdf 8fbd
000001b0: 7ccb c33d 7f04 52bc c3e8 4e3d 9888 0b3d
000001c0: bbbf 22bd 216f c4bc 9800 03be 44d8 583c
000001d0: 10cc 903d 7254 9b3d 5cdb 0dbd 6f32 ecbc
000001e0: 4398 3d3b 9306 f3bc 2669 a7bd 2b98 7f3c
000001f0: 9aa4 733d e6c0 913d e76e 7dbb f244 27bc
00000200: ef42 1dbd d689 95bd 45e0 d3bd fe8f 64bd
00000210: aee3 75bc e7f9 fcbc 90c8 5d3d 8634 e4bc
00000220: 8626 6e3d 666f 36bc e60d 84bd 22ff f73a
00000230: 4e3f d4ba 894f 913d 0a35 453d 752a 843c
00000240: a3c8 a0bc 7f9e cbbd cd97 b9bd 2a4c 12be
00000250: d566 28bd 9b6e d53c 6136 7fbc dd70 923d
00000260: 70c4 51bc f105 09be b557 ffbd 10de f1bd
00000270: b194 5b3d 1c26 7c3c 3f83 913c 2521 0a3c
00000280: d7e2 88bd 3d49 01be 61aa 23be 3b84 bcbd
00000290: 325e bb3d c955 4f3d dd02 6c3d 25c7 b43d
000002a0: e20e d5bd aa38 b8bd d2b7 88bd efb4 77bd
000002b0: 3966 64bd 3c1d 513d 1ad3 f93c 03cd b03d
000002c0: ff7d 45bd e444 d9bd ffbd 8abc ffb3 babd
000002d0: 38e0 4c3d d437 dbbc 0a7c 10bd e672 a4bd
000002e0: 335f 193d 0909 00be 8deb 06be b986 e2bc
000002f0: fdc7 df3c 3bd5 a9bd d680 0c3c 3867 7ebd
00000300: edcc 103d 5875 18bc e94f 9e3d 1d27 943d
00000310: 29b5 433d 2156 cebd d1e7 5dbd 7a12 e6bd
00000320: fa19 8a3d 42d0 073e 91a2 1c3e 7a31 ad3d
00000330: beac 203d 09e7 0c3e ef4d 8e3b d824 b4bd
00000340: 0b4d c23d 6b27 183e c2c0 033e 69f3 063e
00000350: f48d e13d 7b0d 5e3d 573b 04bd 58cd cebb
00000360: b7ac 9c3d 8a38 e03d 6bb7 8e3e 30ec 073e
00000370: 8c78 ee3d f34b ffbc bd90 5bbc d569 33bd
00000380: 3e09 843e d8f1 5f3e c331 523e 268a a53d
00000390: 0971 803e afab 4e3e 5f87 2d3d e33c 053d
000003a0: 2af4 1c3e 4304 d73d aa9a 2c3d 38a8 d03c
000003b0: d2a3 893d 66a7 33bd b636 27bd ce8f 0dbe
000003c0: f5b9 d6bb 662e 123d 764d 623d b4c8 41bd
000003d0: 0938 01bd 3b6a 4ebb 0306 82bd f4fc 3cbd
000003e0: 38ef 503d 3a6b 093d c543 963d 4cef 23bd
000003f0: 36b2 61bd 1bf7 75bd 5ca7 633d 75f1 f0bd

conv1.bias f4 [6]
-0.022847457 0.0033782276 0.014507573 -0.016519714 -0.06535382 0.06095583
00000000: 972a bbbc 4165 5d3b 2cb1 6d3c 5a54 87bc
00000010: 39d8 85bd d2ac 793d

bn.weight f4 [6]
0.52161133 0.5791838 0.5140138 0.80047184 0.58410096 0.41983965
00000000: 5288 053f 6445 143f 6996 033f b9eb 4c3f
00000010: a487 153f 39f5 d63e

bn.bias f4 [6]
-0.6112607 -0.2756351 -0.3504277 -0.91106176 -0.37678963 -0.11820626
00000000: 957b 1cbf 0b20 8dbe 426b b3be 583b 69bf
00000010: 92ea c0be 2016 f2bd

bn.running_mean f4 [6]
-0.40203765 0.12996794 -0.55782473 0.1587256 -0.47755858 0.85538334
00000000: e1d7 cdbe 5116 053e 9acd 0ebf f788 223e
00000010: 8f82 f4be 67fa 5a3f

bn.running_var f4 [6]
0.42864868 0.96369356 0.5912874 0.6450057 1.0907717 0.83665276
00000000: d777 db3e 9fb4 763f 9c5e 173f 181f 253f
00000010: 689e 8b3f e02e 563f

fc1.weight f4 [1, 7938]
0.026152203 0.016289901 0.024871038 0.053719785 0.036384843 0.10693137 0.12306384 -0.008919451
-0.018966105 -0.03407598 -0.0397614 0.056524545 0.00078529445 -0.016262248 -0.0204828 0.045868732
-0.017307527 0.016987802 0.022017865 -0.055632405 -0.0069780955 0.061910026 -0.014568337 -0.055242285
-0.0897454 -0.06752918 -0.030185075 0.033859354 0.053088833 0.012633579 -0.013515685 0.04106735
0.05591505 0.002833526 -0.09337182 -0.0042627114 0.040305577 -0.06571797 0.04116277 0.080446966
0.044213064 -0.0005170312 -0.09378336 -0.033499535 -0.06960895 -0.0040554064 0.061211698 -0.01758672
-0.008124793 -0.02011658 0.041402027 0.049093146 0.053596687 0.060774293 0.005181874 0.031146793
0.034120552 -0.001726516 0.057202626 0.022084067 0.02073376 0.027367158 0.010934437 -0.048965238
0.10573236 -0.034905627 0.047618847 0.028235013 0.08127081 0.021832928 -0.02376055 0.04768302
-0.023025453 0.014737625 -0.012282659 -0.0025105292 0.04370991 0.031412542 -0.045229297 0.0339824
0.07189501 -0.07030973 0.037762847 -0.038866732 -0.055542134 -0.0027808347 -0.079643935 -0.041753434
-0.0111932885 0.030979376 0.031964038 -0.049455244 -0.06612326 -0.004305561 0.02716868 -0.025714764
-0.00078438444 -0.01602373 -0.017370904 -0.028675377 -0.02577124 -0.033973526 0.01438929 -0.014119964
-0.0339988 -0.020091478 -0.011169071 0.002045129 0.03180346 -0.016052438 -0.008908508 -0.028616462
-0.01731086 -0.0004581497 -0.0065426487 0.035190653 0.019738205 -0.03766831 -0.005119843 -0.038300518
0.015374536 0.006853567 -0.0010534676 -0.025578825 -0.027635725 -0.04491994 -0.037817214 -0.00088318763
-0.011175744 -0.04942177 0.033055674 -0.05153052 -0.017718578 -0.011157494 -0.019430637 0.01888864
-0.11554519 0.033063333 0.008104402 0.051902782 -0.07675505 -0.005176512 -0.104403675 0.015535457
-0.039061546 -0.011810705 -0.013968912 -0.07095306 -0.050101105 -0.008492227 -0.00953233 -0.030258847
-0.05042906 -0.05475636 -0.0500871 -0.019199466 0.0006454439 -0.020974625 -0.019069895 0.037111774
-0.02151753 0.037803944 -0.047255367 -0.07028478 0.027660875 -0.026792541 0.017388074 0.017966816
0.02006664 0.058131415 0.07357919 -0.017921057 -0.031981327 -0.015262284 -0.033554185 0.072745115
-0.08521242 0.021180501 -0.044054464 -0.0061390055 -0.021543136 0.02530011 -0.0063699638 0.07399516
0.08541045 0.064903386 -0.05575798 -0.035400383 0.060972776 0.014276133 0.010069235 -0.05021071
0.018044062 -0.014335396 0.0057414267 -0.022237513 -0.0411573 -0.020085216 0.0014397331 -0.016097333
0.060678523 0.049009033 0.0016020075 -0.05361183 -0.062233407 -0.024798768 0.028559456 0.007802037
0.056312643 0.031707074 0.034382567 -0.042538777 -0.06747956 0.0045378194 -0.00058766146 0.018833667
0.09088802 0.0074269203 0.10514315 0.020932011 0.014121163 -0.01609761 0.038758803 -0.01159931
0.008702997 -0.023175722 0.060600214 -0.016279822 -0.01192009 -0.031445123 -0.036292475 0.052665126
-0.0062379106 -0.06017759 0.07497659 0.001979897 0.02530775 0.016606864 0.022979252 -0.011312406
-0.025990795 -0.023083959 0.02505772 -0.012992868 0.015267657 -0.051167954 -0.065904304 -0.010680575
0.0510294 0.050593298 0.006950026 -0.015007542 0.008924751 -0.015597151 0.02648515 0.048879262
00000000: 253d d63c 6672 853c 59be cb3c 4709 5c3d
00000010: 4608 153d d6fe da3d e508 fc3d e422 12bc
00000020: ce5e 9bbc 4193 0bbd dadc 22bd 4886 673d
00000030: 38dc 4d3a 6838 85bc 8ccb a7bc dae0 3b3d
00000040: 84c8 8dbc 012a 8b3c cf5e b43c cede 63bd
00000050: 82a8 e4bb 5e95 7d3d 09b0 6ebc bc45 62bd
00000060: 70cc b7bd bd4c 8abd b146 f7bc 1bb0 0a3d
00000070: ad73 593d 12fd 4e3c e470 5dbc 3d36 283d
00000080: 2e07 653d aeb2 393b ba39 bfbd 37ae 8bbb
00000090: 7617 253d 2597 86bd 4b9a 283d 61c1 a43d
000000a0: c218 353d 6089 07ba 7e11 c0bd cf36 09bd
000000b0: 238f 8ebd 37e3 84bb 1eb9 7a3d 0612 90bc
000000c0: da1d 05bc 87cb a4bc 2c95 293d e515 493d
000000d0: 3388 5b3d 77ee 783d b6cc a93b 8f27 ff3c
000000e0: fec1 0b3d 444c e2ba 4d4d 6a3d a5e9 b43c
000000f0: d9d9 a93c 1731 e03c 5a26 333c c68f 48bd
00000100: 358a d83d 34f9 0ebd fb0b 433d 1d4d e73c
00000110: 4f71 a63d f8da b23c 7ca5 c2bc 454f 433d
00000120: e09f bcbc 1476 713c 353d 49bc b187 24bb
00000130: 2a09 333d 70aa 003d 5b42 39bd 2131 0b3d
00000140: b13d 933d 8cfe 8fbd 37ad 1a3d b932 1fbd
00000150: 2680 63bd aa3e 36bb 5c1c a3bd a605 2bbd
00000160: 0e64 37bc 76c8 fd3c b9ec 023d 9591 4abd
00000170: a26b 87bd aa15 8dbb da90 de3c c5a7 d2bc
00000180: 269f 4dba 3344 83bc 6d4d 8ebc a0e8 eabc
00000190: 351e d3bc d327 0bbd 0ec1 6b3c 6c57 67bc
000001a0: 5342 0bbd e296 a4bc 7bfe 36bc 9207 063b
000001b0: 5844 023d 6780 83bc fef4 11bc 126d eabc
000001c0: 81cf 8dbc d033 f0b9 b763 d6bb 1324 103d
000001d0: 04b2 a13c 164a 1abd 5bc4 a7bb 01e1 1cbd
000001e0: 7ae5 7b3c e393 e03b 8214 8aba af8a d1bc
000001f0: 5164 e2bc f9fd 37bd 39e6 1abd b885 67ba
00000200: 781a 37bc 7b6e 4abd 6365 073d ab11 53bd
00000210: 8d26 91bc eccd 36bc 002d 9fbc 59bc 9a3c
00000220: f5a2 ecbd 6b6d 073d 53c8 043c 0398 543d
00000230: c031 9dbd bb9f a9bb 98d1 d5bd 6e88 7e3c
00000240: 00ff 1fbd b081 41bc dddd 64bc d74f 91bd
00000250: d136 4dbd fb22 0bbc 7d2d 1cbc 67e1 f7bc
00000260: b48e 4ebd 3448 60bd 2228 4dbd 3348 9dbc
00000270: 0233 293a fad2 abbc 7838 9cbc 8402 183d
00000280: 8845 b0bc 4fd8 1a3d d88e 41bd 77f1 8fbd
00000290: 0f99 e23c 087c dbbc 6f71 8e3c 252f 933c
000002a0: cb62 a43c 351b 6e3d b0b0 963d 2ecf 92bc
000002b0: dafe 02bd a90e 7abc 1d70 09bd 64fb 943d
000002c0: d983 aebd bb82 ad3c 7472 34bd b629 c9bb
000002d0: 3b7b b0bc 2d42 cf3c 21bb d0bb c68a 973d
000002e0: adeb ae3d 11ec 843d 7b62 64bd feff 10bd
000002f0: 97be 793d 71e6 693c 6ff9 243c bfa9 4dbd
00000300: 24d1 933c 02df 6abc 9422 bc3b 722b b6bc
00000310: 8f94 28bd c089 a4bc 6db5 bc3a 8ede 83bc
00000320: 0b8a 783d b2bd 483d 74fa d13a 1498 5bbd
00000330: 75e8 7ebd c926 cbbc 85f5 e93c 3ba8 ff3b
00000340: 16a8 663d 47df 013d bcd4 0c3d 243d 2ebd
00000350: b932 8abd fdb1 943b 4b0d 1aba 1049 9a3c
00000360: 8023 ba3d 865d f33b 4b55 d73d 9c79 ab3c
00000370: 735c 673c 23df 83bc 8dc1 1e3d 080b 3ebc
00000380: 0497 0e3c 03db bdbc ee37 783d 435d 85bc
00000390: 7b4c 43bc 9acc 00bd 6ba7 14bd 63b7 573d
000003a0: 6367 ccbb c77c 76bd 548d 993d 29c1 013b
000003b0: 3352 cf3c 1e0b 883c fc3e bc3c ab57 39bc
000003c0: a6ea d4bc 921a bdbc d945 cd3c 0ae0 54bc
000003d0: 3225 7a3c 7d95 51bd d6f8 86bd 94fd 2ebc
000003e0: 3404 513d eb3a 4f3d 0bbd e33b 32e2 75bc
000003f0: 1e39 123c 318b 7fbc 63f7 d83c 9f35 483d
