PythonClient/reinforcement_learning/saved_models/1.0-2024-06-25.pth (torch, 39959 bytes, 7 tensors)

conv1.weight f4 [6, 3, 8, 8]
00000000: 668e 223d 6dda 9ebd 108b dc3c 57a4 36bc
00000010: 56c4 cabc 9eca 18bc 0cd1 bf3b 8ab7 4e3d
00000020: 34ec 0e3d 1845 9b3c 9371 03bd bdad aebc
00000030: bf74 b3bc 0c21 09bc e508 913c 6ddc bd3c
00000040: 98c3 35bc d949 883c e1a2 c33c 3d42 4dbd
00000050: c112 85bd cc5b bfbc 9132 0dbd 19ba 04bc
00000060: 76c7 25bd 1d34 133d 0468 3abd 18bb 37bc
00000070: 145e bf3c 0c47 34bd 6d23 bebc 04c4 01bd
00000080: 6d25 fa3c bf49 17bd 6cde 6fbd 2d7d aabd
00000090: afd5 45bd cd42 d93b b620 293b 5c71 973c
000000a0: 8e0d a0bc e773 0e3d e9de ea3c 2ab2 c33c
000000b0: 308a 57bb b902 a43c 2771 4b3d 78bb 30bd
000000c0: 81c9 4b3d 2600 f5bc df1c 413d ead5 32bd
000000d0: 942a ddbc aa01 953a 8c38 6f3c 17a8 d1bc
000000e0: 9596 57bd 089d 453a c93c a73c 32d9 71bd
000000f0: ff4a cf3c 74e1 653d 37e5 b5bc eac2 45bd
00000100: 4fd1 39bd c3f1 b43c d967 30bd fe54 983c
00000110: 3118 033c 95c8 153c 9d8a 3bbd 9f6e 90bc
00000120: d61d 92bd 426a a8bd aa06 acbd 2924 f8bb
00000130: 4b5d dfbc c446 31bd 8a00 5bbb 8a9d 373c
00000140: 11cb 7abd ab59 3bbd 770d 0ebd e191 5ebd
00000150: 8e23 8abd 92e5 413d cd55 a33c 5f31 ccbc
00000160: 1b02 0bbd 6e5f 74bd 47e9 89bd 449e 8a3c
00000170: fc5b 44bd a6d3 573c b002 66bd 3fc2 22bd
00000180: 63b4 763d b9aa 433b 6814 1b3d 76a6 683d
00000190: 4dee 14bd 961e 30bd 934c 7fbd f160 943c
000001a0: 30ca 33bd 763f 45bd 710b a23a 2471 49bd
000001b0: 98a4 72ba 2a8c 34bb c1f8 f83b e0d0 1abc
000001c0: 9b75 f239 7478 e23c 7b12 89bd 9366 713d
000001d0: 7e2f 963c 3d33 81bd 8b4d 343d 2c8d a8bc
000001e0: aa8d 773c a8fc f93c ba86 4b3d 01e1 48bd
000001f0: 6f41 1abd 7fa6 48bd 11f0 f03b 46d9 bc3c
00000200: f14b 1a3d 35d5 ff3c d912 7ebc f0e1 4c3b
00000210: 1af9 5ebd 0ef8 293d 5d60 84bd e533 473d
00000220: 9c70 063d dc9d a5bd 45f5 883c 31c9 f23c
00000230: 7b17 4bbc 6298 95bd 00ab ac3c aae4 4c3d
00000240: a0d5 143c 53be 813b eeec 8dbd 955f e6bc
00000250: c58b 75bc 1c50 a93c 0632 e23b b67b 5d3d
00000260: a160 753d 1ef4 8cbb 5678 2cbd 5e80 92bd
00000270: 1a7c e53c ca8b 63bd 7cd3 12bd 77be f93c
00000280: f8ba 38bd 1594 81bc 2bf9 85bd 0803 4c3d
00000290: 6103 9e3c 9e63 a7bd 8ea6 e0bc 7e89 4dbc
000002a0: fe5a 44bd 71d5 3cbd 5867 83bd 3b62 d33c
000002b0: 6dac 88bd c9e8 133d 028e 913c 3f0a b13c
000002c0: a8a3 a9bc 0a9a d6bc 903f 82bd 4ccc 20bd
000002d0: fab5 91bc 6cdb a1bb 79a2 f1bc 6bf1 3cbd
000002e0: bd76 6e3d 164d 4f3d 0ce8 dcbb 1df2 80bc
000002f0: 8645 54bd f53a a2bc 10ee 9a3b 9268 5dbd
00000300: e1f5 b7bc 2fcd 6e3d 6e90 81bb 4e7a 2cbd
00000310: ca84 54bd f9bd 433d d1b9 28b8 c015 0f3d
00000320: fbe3 3fbd 3c4e 1c3d 408b 083d e884 063c
00000330: 5664 8cbd a1be 813c 5066 813d 2fb0 1cbd
00000340: cd82 9f3c cc59 33bd 1ee3 00bc c4dc 2e3c
00000350: 0827 bd3c f30b 713c 8226 073d 1d4f 833d
00000360: ae50 5f3d 71b6 28bd 030d 2ebd 63b3 82bd
00000370: 33c2 3e3c c7c9 29bd cb09 1cbd 66fa 083d
00000380: c038 4f3d fdc9 95bc 2320 7c3d 02d5 923d
00000390: 6aee 0cbd 6e49 5f3d 1614 edbb 3fea b4bc
000003a0: 999b 103d dabc 44bd c19d cc3c a926 afbc
000003b0: d52c 1e3d 80bc 7c3d f3ee 903d 8308 123d
000003c0: 43e6 e03c 1021 6dbd 5f15 7dbd 8954 7cbd
000003d0: 13a9 603d 7a61 26bd 9fa1 b1bc 6f2c 0ebd
000003e0: 5226 653c 1e7d 6cbd afc9 293d 9e20 413d
000003f0: 205d 25bd 875a 8bbd 7c6d 6a3d 32da 473d
0.039686583 -0.07756505 0.026921779 -0.01114758 -0.024751823 -0.009325651 0.0058537778 0.050468005
0.03489323 0.018953845 -0.032090735 -0.02132308 -0.021906255 -0.008369695 0.017704437 0.023176396
-0.011093996 0.016636776 0.023881378 -0.050111998 -0.06497718 -0.023359202 -0.034472052 -0.00810101
-0.040473424 0.03593837 -0.045509353 -0.01121404 0.02336029 -0.044013068 -0.023210252 -0.031681076
0.030535424 -0.036935564 -0.058561727 -0.08324657 -0.048299488 0.0066302777 0.002580685 0.018486671
-0.019537713 0.0347785 0.028670745 0.023888666 -0.0032888763 0.02002083 0.049668457 -0.043147534
0.049752716 -0.029907297 0.047146674 -0.043661036 -0.026997842 0.0011368294 0.014600884 -0.025592847
-0.05263384 0.0007538353 0.020414727 -0.059045024 0.025304316 0.056123212 -0.022204025 -0.048281588
-0.045365628 0.022087937 -0.043067787 0.018595215 0.008001373 0.009142061 -0.04578649 -0.017630873
-0.07134597 -0.08223392 -0.083997086 -0.00757267 -0.027266165 -0.043280378 -0.003341707 0.011206994
-0.061228815 -0.04573981 -0.03468081 -0.05433834 -0.06745063 0.047338076 0.019938374 -0.024925886
-0.033937555 -0.05966132 -0.06733947 0.01692117 -0.047939286 0.0131730195 -0.056154907 -0.03973603
0.060230624 0.0029856397 0.037861258 0.056799375 -0.036360074 -0.04299792 -0.062328886 0.018112632
-0.043893993 -0.048156224 0.0012363029 -0.049180165 -0.0009256094 -0.0027549365 0.007598013 -0.009449214
0.0004624546 0.027645327 -0.06692978 0.058935713 0.018333193 -0.06308601 0.044019263 -0.020575128
0.015109459 0.030515984 0.049689032 -0.049042705 -0.03766006 -0.048986908 0.007352837 0.023052823
0.03767008 0.031229595 -0.015507423 0.00312626 -0.05443678 0.04149633 -0.06463692 0.048633475
0.032822236 -0.0808675 0.016718516 0.029636951 -0.012395735 -0.07304455 0.021077633 0.05002276
0.009084135 0.003959456 -0.069299564 -0.028121749 -0.014986937 0.020668082 0.006902936 0.054073058
0.059906606 -0.004301562 -0.04210695 -0.0715339 0.028013278 -0.055553235 -0.03584622 0.030486329
-0.045100182 -0.015817681 -0.06541666 0.04980758 0.01928872 -0.08173297 -0.02742317 -0.012544988
-0.04793834 -0.04610199 -0.06416196 0.025803676 -0.066735126 0.036110673 0.01776791 0.021611331
-0.02070792 -0.026196498 -0.0635978 -0.039257333 -0.017786968 -0.004939487 -0.029496418 -0.04612867
0.058218706 0.050610624 -0.0067415293 -0.015740449 -0.051824115 -0.019803504 0.0047280863 -0.054054804
-0.022456111 0.058301147 -0.003953985 -0.042108826 -0.05188445 0.047788594 -4.0227376e-05 0.03493285
-0.04684828 0.038160548 0.033335924 0.008210398 -0.06855075 0.01583797 0.06318343 -0.03825396
0.01947155 -0.04378681 -0.007866649 0.010672752 0.0230899 0.014712322 0.03299571 0.06411574
0.0545203 -0.041189615 -0.042492878 -0.063818716 0.01164298 -0.041452195 -0.038095277 0.033441924
0.05059123 -0.018284792 0.061554085 0.07169534 -0.034407057 0.054513387 -0.0072350604 -0.022084353
0.03530464 -0.048031665 0.024977567 -0.02138074 0.038616974 0.061703205 0.07076826 0.03565265
0.027453547 -0.05789286 -0.06178796 -0.061604057 0.05484874 -0.040620305 -0.021683512 -0.034710344
0.013986187 -0.05773651 0.041452106 0.047150247 -0.040372014 -0.06804376 0.05723332 0.04879207

conv1.bias f4 [6]
00000000: f598 a8bc 1a8c 9c3c adac c2bc 615c 77bd
00000010: 0b87 293b a789 ef3c
-0.020580748 0.019109774 -0.023763979 -0.060390834 0.0025867845 0.029240442

bn.weight f4 [6]
00000000: abf7 7e3f aaea 7f3f 5cba 7e3f c0f5 7e3f
00000010: b239 7f3f c825 7f3f
0.9959666 0.99967444 0.9950311 0.99593735 0.9969741 0.99667025

bn.bias f4 [6]
00000000: 3ebc 84bb 3c4f c3ba 3005 eebb 1ab0 a6bb
00000010: c771 5cbb fd92 92bb
-0.0040507605 -0.0014900933 -0.007263802 -0.005086911 -0.0033637153 -0.004473089

bn.running_mean f4 [6]
00000000: 65bf 5c3f dd55 dfbe 715f fb3d 07bd 543e
00000010: eb52 8d3e 2e49 643e
0.86229545 -0.43620196 0.122740634 0.20775233 0.27602324 0.22293541

bn.running_var f4 [6]
00000000: af3b 8d3f 128d 9b3e 8239 1a3d 0db8 d63d
00000010: b373 d33d 656a 563d
1.1033839 0.30381066 0.0376525 0.10484324 0.10324802 0.05234756

fc1.weight f4 [1, 7938]
00000000: 39da 643c 8f90 813c 8d1c ce3b 1ba0 233c
00000010: 55c0 963c 2e52 123c 3541 723b 4767 de3b
00000020: ad06 3c3b f854 ac3b 2975 923c 6658 fc3b
00000030: f2a0 d03b 9681 4c3b f537 0e3c 915a 3f3c
00000040: f599 333c e0f8 37bb 859d 0e3c 7101 533c
00000050: f609 703c 8774 d5bb 94dd e1ba 211c 033b
00000060: b1b7 ab3c fc24 8d3c db56 803c a660 693c
00000070: 53b3 33bc cb5a 66bb 86e9 2bbc fc04 2f3c
00000080: 6eb6 ad3b d912 29ba 0e94 e1bb 1e5e 3dbc
00000090: a754 eebb 2893 643b e89b a1bb 9f19 9c3b
000000a0: a492 943b 7efd da3b f2de 3ebc 0cd2 843b
000000b0: 6b93 453c 4a32 3c3c 0125 a2ba 23fe 623b
000000c0: 0e05 7cba 1e02 ab3c ff1e 913c 3a3b c43b
000000d0: ccf4 a53c e377 073c 93f2 f13b 971b 823c
000000e0: fc10 8d3c 87ac 2d3c d3d2 173c 5ff8 fe3b
000000f0: 1124 963b 9d8c 053c 4d6a 913c 71af 1239
00000100: b02f 2b3c 6956 7e3c a438 293a 68d9 013c
00000110: 789b 413c 4cf4 a23c 891e a73c 0805 1bbb
00000120: d520 8ebb 0c99 163c 588b f5b7 81fc 973b
00000130: ae60 a73b c1b5 ac3c b4b4 b2bb ea7e 3b3c
00000140: 7bae be3b c48d 603b a497 323c 4bd6 ac3b
00000150: 4268 b9bb 1f3c 33bc 63d5 023c 6694 9bba
00000160: 7e4e f3b9 4010 15bc 0762 c23a 89fc babb
00000170: 64fd f2bb 1420 c43b efe2 363b e64f 9d3c
00000180: 9e04 85bb e39d 3c3b 234a 313c b59f b23b
00000190: c1ee 783c f581 903c 07d1 a63b ed02 593b
000001a0: 100c d73a 50fa 7d3c 9e32 173c 62df 04bb
000001b0: f81e 243c 8344 ab3c 697b 803c f4f0 f33b
000001c0: 7911 623c 1994 383c 0cfb 5d3c 2b13 9f3b
000001d0: f4bd 633c 885d 223c de8a 1c3c 76f7 943b
000001e0: ab8a 893c 0562 c43b fbac 07bc b028 5ebc
000001f0: 7b18 193c bd8f 05bb a5bc 9d3b c781 d53b
00000200: 3f2b 263c b89e 8d3b b083 393c 0fdf 2d3c
00000210: 96d9 66b9 5ae8 fabb 8f1b 7a3a 9f31 bebb
00000220: a950 d8bb 4841 7bbc fede 3bbc 781c 2cbb
00000230: 4606 0d3c f25a 293c 7811 88bb 2985 133c
00000240: 9b79 22bb d1e2 e63b 444a 6dba 68bf 483c
00000250: 8414 c53c a4bd 4d3c 41b6 27ba c91e 663b
00000260: c666 203c 739c 873c edea 90ba f5f5 973a
00000270: 00a2 fd3b 2eab 803c f702 073c ccf9 853b
00000280: 5d3d 563c 9723 423b db9a 5b3c 9a2c 533c
00000290: 6ce8 3d3c f6ef 223c c904 643c 465a 0e3c
000002a0: 0841 ee3b 15c4 563c 3977 803b faef e63b
000002b0: f4b3 c83b 230d 55ba aeab e53b cef2 963c
000002c0: c0e8 8638 4d96 923b 6945 46bb 6534 4f3c
000002d0: f7d5 8d3c 7574 b03b 0ed2 5b3a 5ac5 b53b
000002e0: 916a 4dbc 84ca e93a ff58 143b 9b57 0bbc
000002f0: 9689 9e3a f610 a53a b99c a2bb a960 08ba
00000300: 2656 a2bb 6b63 b73b 4678 05bc 791b 5e3c
00000310: 5f3d 463c 1d5e 753b e347 023c 1bdb d7ba
00000320: edbc eeba b764 4b3c f64d 5a3b 2dc0 29bb
00000330: e913 6b3c 2b7b 983c 3c34 563c 8535 473c
00000340: d33e 26bc 0806 443c 5db7 0f3c 5c5c 393b
00000350: f15a 8a3c e735 b43b a104 42bb ad00 a33b
00000360: 8be3 8e3c a1ea 4b3c d860 923c 09a5 7f3c
00000370: 0436 8c3c 28f7 163b 4e30 a83b bd15 ad3c
00000380: a31f 203c f73c f13a 4a23 943b 619f 013c
00000390: afbf 313c 2624 0f3b cc9c 013c 30e5 243c
000003a0: 5f5b b93a 1b3d b43b b128 16bc 36a1 cb3b
000003b0: 390f 38bb 1eb8 793b 85f9 1ebb 25b6 dc3b
000003c0: ae51 31bb 5faf 303c 2914 41bb e56d 6e3a
000003d0: 7161 33bc dd52 ad3c 1cc3 703c dae3 6a3c
000003e0: 0921 683c bfb1 c63b 3c5a 0fbb 8b1c 163c
000003f0: 1875 643c b919 ba3c 2b5e ecba 11e7 083c
0.013968044 0.015816001 0.0062900246 0.009986903 0.018402258 0.008930726 0.0036965136 0.006787214
0.0028690503 0.0052591525 0.017878132 0.0077009676 0.0063668424 0.003120517 0.008680333 0.011679308
0.010961999 -0.0028071925 0.008704548 0.012878762 0.014650812 -0.0065141353 -0.0017232173 0.002000578
0.020961614 0.01722955 0.015666416 0.014244234 -0.010968047 -0.0035149332 -0.010492688 0.010682341
0.0053012883 -0.0006449647 -0.0068841046 -0.011558084 -0.007273275 0.003487775 -0.0049319156 0.0047637965
0.0045340825 0.0066830507 -0.011649834 0.00405336 0.012059073 0.011486599 -0.0012370647 0.003463634
-0.00096137903 0.020875033 0.017714975 0.0059885057 0.02025833 0.008268329 0.0073836534 0.015882296
0.017220013 0.010600216 0.009266573 0.007781073 0.004581936 0.008151201 0.017750883 0.00013989002
0.010448381 0.0155235315 0.00064552785 0.007925369 0.011816852 0.01989188 0.020400302 -0.0023654122
-0.00433741 0.009191763 -2.9271163e-05 0.004638255 0.0051079607 0.02108276 -0.0054536704 0.011443833
0.0058191395 0.0034264186 0.010900412 0.005274569 -0.0056581805 -0.010939627 0.007985446 -0.0011869788
-0.00046407053 -0.009098113 0.001483024 -0.005706374 -0.0074154604 0.0059852693 0.002790626 0.019203138
-0.0040593883 0.0028780631 0.010820898 0.0054511675 0.015193642 0.017640093 0.005090836 0.0033113316
0.0016406793 0.015501574 0.009228377 -0.0020274748 0.010017149 0.020906692 0.015683847 0.0074444953
0.013798111 0.011265778 0.013548624 0.00485458 0.013900269 0.009909995 0.009554593 0.004546101
0.016789755 0.00599313 -0.008280988 -0.013559505 0.0093442155 -0.0020379864 0.004813748 0.006515715
0.010142147 0.0043218993 0.011322901 0.010612263 -0.00022015566 -0.007657093 0.000954085 -0.005804255
-0.0066014123 -0.0153353885 -0.01146674 -0.0026262086 0.008607453 0.010336624 -0.004152473 0.009003916
-0.002479172 0.0070460816 -0.0009051899 0.012252666 0.024057634 0.012557421 -0.00063977024 0.0035113564
0.009790128 0.016554093 -0.0011056341 0.0011593687 0.007740259 0.015706625 0.008240453 0.004088616
0.013076154 0.0029623264 0.01340362 0.012889052 0.011591058 0.009944906 0.0139171565 0.008688515
0.007270936 0.013108273 0.0039204624 0.0070476504 0.0061249677 -0.00081272627 0.007008991 0.018426325
6.432971e-05 0.0044734837 -0.0030253774 0.012646769 0.01731394 0.0053849765 0.00083854876 0.005547208
-0.012537614 0.0017836844 0.0022636054 -0.0085047735 0.0012095447 0.0012593556 -0.0049625305 -0.0005202392
-0.0049541174 0.0055965683 -0.008146351 0.013556355 0.012099593 0.003744013 0.007951709 -0.0016468497
-0.0018214263 0.012414149 0.0033310628 -0.00259019 0.014348009 0.018613419 0.013073977 0.012158756
-0.010146814 0.011964329 0.008771745 0.002828381 0.016889067 0.0054995897 -0.002960481 0.004974446
0.017442485 0.012446077 0.017868444 0.015603312 0.0171156 0.00230355 0.0051327115 0.02112853
0.009773168 0.001840501 0.0045208083 0.007911534 0.010848924 0.0021841615 0.007910918 0.010064408
0.0014141611 0.0055004484 -0.009164975 0.006214286 -0.0028085245 0.0038104127 -0.0024257612 0.0067355805
-0.0027056742 0.010783999 -0.002946148 0.0009095355 -0.010948525 0.021157676 0.014694955 0.014336551
0.014168032 0.0060636695 -0.0021873852 0.009162079 0.013943933 0.022717344 -0.0018033435 0.008355872
