PythonClient/reinforcement_learning/saved_models/1.0-2024-06-27.pth (torch, 39959 bytes, 7 tensors)

conv1.weight f4 [6, 3, 8, 8]
0	0xbead5102	-0.33850867
1	0xbe85f06f	-0.2616
2	0xbe93e518	-0.28885722
3	0xbe834935	-0.2564179
4	0xbeb9b2d2	-0.36269242
5	0xbeb54758	-0.35405993
6	0xbec43e76	-0.38328904
7	0xbed89827	-0.42303583
8	0xbea10375	-0.3144795
9	0xbe944715	-0.2896048
10	0xbeb8285e	-0.35968298
11	0xbe8199ec	-0.25312746
12	0xbec1d3e1	-0.37856963
13	0xbe982be8	-0.29720998
14	0xbebc90f7	-0.3682935
15	0xbeca48d0	-0.39508677
16	0xbe90a66e	-0.28251976
17	0xbe92341b	-0.28555378
18	0xbe972e31	-0.2952743
19	0xbeb6ad67	-0.3567917
20	0xbec2bb93	-0.38033733
21	0xbe93ac6a	-0.2884248
22	0xbed291fe	-0.41127008
23	0xbeaeec54	-0.3416468
24	0xbebcd323	-0.36879835
25	0xbea8d6d6	-0.32976407
26	0xbeb0120b	-0.34388766
27	0xbe883a07	-0.2660677
28	0xbeb0700d	-0.34460488
29	0xbe9ed347	-0.31020567
30	0xbe93cc9b	-0.2886704
31	0xbea15262	-0.31508166
32	0xbe8f3cc3	-0.27976045
33	0xbea9bf9d	-0.33154002
34	0xbe6146d5	-0.21999677
35	0xbeb4e985	-0.3533441
36	0xbeb94a47	-0.36189482
37	0xbece64a7	-0.40311167
38	0xbed0f165	-0.4080917
39	0xbeab3c0d	-0.33444253
40	0xbe9c1b80	-0.3048973
41	0xbe925432	-0.2857986
42	0xbe834718	-0.25640178
43	0xbead68d6	-0.33869046
44	0xbe8e87dd	-0.2783803
45	0xbeb9c691	-0.36284307
46	0xbebc378d	-0.36761132
47	0xbedb79f2	-0.42866474
48	0xbeaec2c6	-0.34132975
49	0xbe582090	-0.21106172
50	0xbe94d419	-0.29068068
51	0xbe97a41b	-0.2961739
52	0xbed37913	-0.4130331
53	0xbebce3af	-0.3689246
54	0xbeb46fcc	-0.35241544
55	0xbed3fc1c	-0.41403282
56	0xbe541c21	-0.20713855
57	0xbe5bdfad	-0.21472044
58	0xbe9e4348	-0.30910707
59	0xbe729c68	-0.23692477
60	0xbeab8d99	-0.33506468
61	0xbedb897d	-0.42878333
62	0xbed03441	-0.40664867
63	0xbecfc0b4	-0.40576708
64	0xbe768fc5	-0.24078281
65	0xbdfe99ec	-0.12431702
66	0xbe3b8969	-0.18314137
67	0xbe276c0b	-0.16349809
68	0xbe4278ed	-0.18991442
69	0xbe2cee03	-0.1688767
70	0xbe1b6ceb	-0.15178268
71	0xbe404db6	-0.18779644
72	0xbe1db301	-0.15400316
73	0xbdd82d14	-0.10555473
74	0xbd9d2dbd	-0.076747395
75	0xbe36507e	-0.17804143
76	0xbdb4e0e9	-0.08831961
77	0xbe536551	-0.20644118
78	0xbe7fb886	-0.24972734
79	0xbe6ccafa	-0.23124304
80	0xbdff4955	-0.12465159
81	0xbe301f0c	-0.17199343
82	0xbda2b2d8	-0.07944268
83	0xbdd14c98	-0.10219687
84	0xbe468ef7	-0.19390474
85	0xbe375d75	-0.17906745
86	0xbe5155f8	-0.2044295
87	0xbe599025	-0.21246393
88	0xbde4c16e	-0.11169706
89	0xbe11060c	-0.14162463
90	0xbd431706	-0.04762938
91	0xbda34a23	-0.07973125
92	0xbe0aea48	-0.13565934
93	0xbda6e72c	-0.08149561
94	0xbe5e864d	-0.21730919
95	0xbe013129	-0.1261641
96	0xbdf15b59	-0.11785001
97	0xbda2ccf7	-0.0794925
98	0xbd8136b0	-0.06309259
99	0xbe007da9	-0.12547936
100	0xbe630728	-0.22170699
101	0xbe4818eb	-0.19540755
102	0xbe044265	-0.12915953
103	0xbe2cbba5	-0.16868456
104	0xbe306178	-0.17224681
105	0xbdf1b9f9	-0.118030496
106	0xbd0d769e	-0.03453695
107	0xbd4387a8	-0.047736794
108	0xbdb689e0	-0.08913016
109	0xbe1287ed	-0.14309664
110	0xbe82e7e8	-0.25567555
111	0xbe2b80e9	-0.16748394
112	0xbdb8e2fd	-0.090276696
113	0xbddeb19b	-0.10873719
114	0xbddbbd2a	-0.107294396
115	0xbe01df91	-0.1268294
116	0xbe36c3ae	-0.17848083
117	0xbe0f56bf	-0.13997935
118	0xbe438111	-0.19092204
119	0xbe336e85	-0.17522629
120	0xbe1e475a	-0.15456906
121	0xbdd9bbe6	-0.10631542
122	0xbdab487c	-0.08363435
123	0xbd9502d3	-0.07275929
124	0xbe3cf6a6	-0.18453464
125	0xbe54dbe0	-0.20787
126	0xbe58b344	-0.21162134
127	0xbe0c8f6d	-0.13726588
128	0xbc31fc31	-0.01086335
129	0x3e0743b3	0.13209419
130	0x3d233073	0.039841127
131	0x3d5786db	0.052618843
132	0x3d35c626	0.044378422
133	0xbca39c61	-0.019972028
134	0xbc72f776	-0.014829507
135	0x3d95b449	0.07309777
136	0x3b0f0793	0.0021824583
137	0x3dd7a8df	0.105302565
138	0x3c172918	0.009226106
139	0x3cc448fc	0.023960583
140	0x3da9c32d	0.0828918
141	0x3dcce72f	0.10005032
142	0x3d82fd36	0.063959524
143	0x3c55513d	0.013019857
144	0x3e1997e5	0.1499935
145	0x3d0a4ee8	0.033766657
146	0x3e038785	0.12844665
147	0x3e0e9c4d	0.13926812
148	0x3d1b07ad	0.037849117
149	0x3daf933b	0.08573004
150	0x3cd50404	0.026002891
151	0x3dbb688f	0.09150802
152	0x3e0103b3	0.12599067
153	0x3de64713	0.11244025
154	0x3e2df416	0.16987643
155	0x3de67db3	0.11254444
156	0x3d960694	0.073254734
157	0x3d4db982	0.050225742
158	0x3e029fc9	0.12756266
159	0x3d799ce8	0.060940653
160	0x3d33d05f	0.04389989
161	0x3d6dabfd	0.05802535
162	0x3d2917b6	0.041282378
163	0x3c8e61c6	0.017380606
164	0x3c915d7d	0.017744774
165	0x3dc8db3a	0.09807439
166	0x3c0ea816	0.008707067
167	0x3d4f4e4e	0.050611787
168	0x3e07aae9	0.13248791
169	0x3d1ed881	0.038780693
170	0x3dcc1fcb	0.099670015
171	0x3d989d12	0.07451834
172	0x3e091418	0.13386571
173	0x3dd0099e	0.10158084
174	0x3b9c1d9f	0.0047642733
175	0xbc1a7e52	-0.009429531
176	0x3da4c36c	0.08045086
177	0x3e1dc15a	0.15405789
178	0x3dd6f085	0.10495094
179	0x3e2959a1	0.16538097
180	0x3caf3b7c	0.021390669
181	0xbc26b9f9	-0.010176175
182	0x3ba3479d	0.004982902
183	0x3d98c3ef	0.07459246
184	0x3db23cd0	0.08703005
185	0x3e46ff44	0.19433314
186	0x3e364c89	0.17802633
187	0x3e1e3b87	0.15452395
188	0x3d5c3bc0	0.05376792
189	0x3db8e905	0.0902882
190	0x3de0e275	0.10980693
191	0x3dba0e34	0.0908474
192	0x3e1c3bb6	0.15257153
193	0xbb2f6ff1	-0.0026769603
194	0x3d908cd8	0.07058114
195	0x3c83baab	0.016080221
196	0x3d8fa300	0.07013512
197	0x3b4512d3	0.0030071035
198	0xbd0e6ecc	-0.034773633
199	0x3c897209	0.016778009
200	0x3e05d148	0.13068116
201	0x3d3b2ab8	0.045695037
202	0xbcb6cd72	-0.02231476
203	0xbb7e0d66	-0.003876531
204	0x3cf58e26	0.029975008
205	0x3d142c74	0.036175206
206	0xbd7ed69f	-0.062216397
207	0x3ca33ef7	0.019927485
208	0x3dbdf04f	0.09274351
209	0x3e0d4538	0.13795936
210	0x3b1bb3aa	0.0023758211
211	0x3da6b0cf	0.08139192
212	0x3d4c856e	0.049931936
213	0x3d126841	0.035743956
214	0x3d69ba68	0.057062536
215	0xbd344ade	-0.04401671
216	0x3de2f170	0.11081207
217	0x3e0a2ae9	0.13492931
218	0x3d985a70	0.074391246
219	0x3dfa0d3a	0.12209554
220	0x3b3cc3f9	0.0028803332
221	0x3d1624a4	0.036656037
222	0x3d0c4725	0.034247536
223	0xbdcf8905	-0.10133556
224	0x3da6dd20	0.08147645
225	0x3dc5e872	0.09663476
226	0x3db268cc	0.08711395
227	0x3db965a1	0.09052587
228	0x3dd3322c	0.10312304
229	0xbd418335	-0.04724427
230	0xbdbd3c2c	-0.092399925
231	0xbd475d8d	-0.0486732
232	0x3d80d72c	0.06291041
233	0x3e2e6bff	0.17033385
234	0x3e0240d0	0.12720037
235	0x3de74042	0.11291553
236	0x3dcaaadb	0.09895869
237	0xbd25fc18	-0.04052362
238	0x3ca71efe	0.02040052
239	0x3d29e2d8	0.0414761
240	0x3dafe4f4	0.08588591
241	0x3df542b1	0.11975611
242	0x3deb4076	0.11486904
243	0x3d118c87	0.035534408
244	0x3defe685	0.1171389
245	0x37fb7aad	2.9978657e-05
246	0x3ba4fc8d	0.005034989
247	0x3d7784fa	0.06042955
248	0x3dad1149	0.084505625
249	0x3dbdad1b	0.09261533
250	0x3e22e616	0.15908083
251	0x3e1a9e60	0.15099478
252	0x3dc5aaa9	0.096516915
253	0x3d5828a3	0.05277313
254	0x3c0d6165	0.008629178
255	0x3c653f7b	0.013992186

conv1.bias f4 [6]
0	0x3d8bc5ca	0.06824835
1	0x3c26c518	0.010178827
2	0xbc85d00b	-0.016334554
3	0x3c39c6a7	0.011338866
4	0x3d8a76ad	0.06760917
5	0xbd407106	-0.046982788

bn.weight f4 [6]
0	0x3f4b3868	0.79382944
1	0x3fc523a3	1.54015
2	0x3e9f7ad4	0.31148398
3	0x3e319129	0.1734053
4	0x3e90448b	0.28177294
5	0x3f8c801e	1.0976598

bn.bias f4 [6]
0	0xbf0c2b6c	-0.54753757
1	0x3f22c9e5	0.63589317
2	0xbf5d4372	-0.8643104
3	0xbf34fa29	-0.70694214
4	0xbf368316	-0.7129377
5	0x40712c16	3.7683158

bn.running_mean f4 [6]
0	0x4119ab78	9.6043625
1	0xbea607fb	-0.32427964
2	0x3fef4944	1.8694234
3	0xbfc27ea5	-1.5194899
4	0x406763f9	3.6154768
5	0x40db9020	6.8613434

bn.running_var f4 [6]
0	0x430ed3e7	142.82774
1	0x3f1dc413	0.6162731
2	0x40da9b7a	6.831479
3	0x408606fe	4.1883535
4	0x41baeb2e	23.364834
5	0x42a2ca0c	81.39462

fc1.weight f4 [1, 7938]
0	0x3c157b21	0.0091235945
1	0xbca25569	-0.019816117
2	0x3dd40a66	0.10353546
3	0x3e1c7ed8	0.15282762
4	0x3e1d5a86	0.15366563
5	0x3e3820ac	0.17981213
6	0x3e02ca03	0.12772374
7	0x3e9153b2	0.28384167
8	0x3ea310e0	0.31848812
9	0x3ddbce63	0.107327245
10	0x3e19297c	0.14957231
11	0x3e3cbbc1	0.18430997
12	0x3e2ad918	0.16684377
13	0x3d9ef0de	0.077607855
14	0x3cc25f7a	0.023727167
15	0xbc93fe0c	-0.018065475
16	0xbdcf7b33	-0.1013092
17	0xbdc3550b	-0.09537705
18	0xbdc72dfd	-0.097255684
19	0xbe24273f	-0.16030596
20	0xbe5343cc	-0.20631331
21	0xbdb39ce4	-0.08770159
22	0xbc8cf760	-0.017207801
23	0xbe448d71	-0.1919458
24	0xbd80b369	-0.0628422
25	0xbe032f7f	-0.12811087
26	0xbe1906af	-0.14943956
27	0xbe4512c3	-0.19245438
28	0xbe56b92f	-0.2096908
29	0xbe07cc5e	-0.13261554
30	0xbe01d7de	-0.12680003
31	0xbd146c6c	-0.03623621
32	0x3e52131c	0.20515102
33	0x3d16ee3a	0.036848284
34	0x3d2232aa	0.0395991
35	0xbc2b57f2	-0.0104579795
36	0xbde57cbc	-0.11205432
37	0xbe406656	-0.18789038
38	0xbd49753f	-0.04918408
39	0xbd744bc1	-0.059642557
40	0xbe808371	-0.25100282
41	0xbe32968c	-0.17440242
42	0xbe547a3d	-0.20749755
43	0xbe584ff7	-0.21124254
44	0x3c6f7fae	0.014617844
45	0xbe4d699f	-0.20059822
46	0xbe7ebd63	-0.24876933
47	0xbe31762f	-0.1733024
48	0xbe8a4fec	-0.270141
49	0x3ad9ba46	0.00166113
50	0x3d1aee2d	0.0378248
51	0x3de64da1	0.11245275
52	0x3da3430a	0.07971771
53	0x3cf8fdef	0.030394522
54	0x3e5e88b8	0.21731842
55	0x3e667248	0.22504532
56	0x3e988e6a	0.29796153
57	0x3e804768	0.2505448
58	0x3db3fca9	0.087884255
59	0x3e0978e7	0.13425027
60	0x3db2d2ff	0.087316506
61	0x3e9f5d54	0.3112589
62	0x3dd2b190	0.102877736
63	0x3db968e5	0.0905321
64	0x3e3a1c43	0.18174843
65	0x3da04a8f	0.07826721
66	0x3b397a3e	0.0028301622
67	0xbd0efe0f	-0.034910258
68	0xbb7a6b36	-0.0038210875
69	0xbd82b472	-0.063820735
70	0xbd95ae5f	-0.07308649
71	0xbe083964	-0.13303143
72	0xbd7d394a	-0.061822213
73	0xbd669199	-0.056291196
74	0xbd9f4673	-0.07777109
75	0xbe1e81fe	-0.15479276
76	0xbe6e470f	-0.23269294
77	0xbe2a78cc	-0.16647643
78	0xbbf4c5d1	-0.0074698706
79	0xbdabca61	-0.0838821
80	0xbd146c11	-0.036235873
81	0x3d7447d7	0.059638824
82	0x3dc0b51a	0.094095424
83	0xbd14d374	-0.03633447
84	0xbda17e46	-0.07885413
85	0x3ccf7998	0.025326535
86	0xbdd09d6b	-0.10186275
87	0xbd901720	-0.07035661
88	0x3cae68d6	0.021290224
89	0xbd079b29	-0.033106957
90	0xbde5c969	-0.112200566
91	0xbdda659d	-0.106639124
92	0xbc06db87	-0.00823105
93	0xbe0931c9	-0.13397898
94	0xbe271378	-0.1631602
95	0xbe3ec301	-0.18629076
96	0xbe223894	-0.15841895
97	0xbeb3287b	-0.34991822
98	0xbb3e1796	-0.0029005758
99	0x3de114f2	0.10990323
100	0x3dacd81e	0.084396586
101	0x3e0c8483	0.13722424
102	0x3ea2baac	0.31783044
103	0x3e24e879	0.16104306
104	0x3e27595f	0.16342686
105	0x3e332bd5	0.1749719
106	0x3e744061	0.23852684
107	0x3dfce769	0.123488255
108	0x3e00a3b3	0.12562446
109	0x3e37b432	0.17939833
110	0x3e5383d0	0.20655751
111	0x3e1951dc	0.14972633
112	0x3e3ee6ce	0.18642733
113	0x3e261f19	0.162228
114	0x3e595a15	0.2122577
115	0x3e3477cf	0.17623828
116	0xbd2880a8	-0.04113832
117	0xbe02b81d	-0.12765546
118	0xbded3b5b	-0.11583587
119	0xbe685c80	-0.22691536
120	0xbe5189ec	-0.2046277
121	0xbde847a8	-0.11341792
122	0xbe56c6e5	-0.2097431
123	0xbdfbc5b7	-0.122935705
124	0xbe1ac364	-0.15113598
125	0xbe1336a9	-0.1437632
126	0x3b8b9d3d	0.0042606876
127	0x3a1d7206	0.00060060655
128	0xbdbff38d	-0.093726255
129	0xbd409a7a	-0.04702232
130	0x3cc1e670	0.023669451
131	0xbd06ca87	-0.03290799
132	0x3c94b670	0.0181534
133	0x3cee1a85	0.02906538
134	0xbd1b6a5c	-0.03794323
135	0x3cb06b53	0.021535551
136	0x3c14a2e8	0.009072043
137	0xbb8cccd6	-0.0042968793
138	0x3db0059c	0.0859482
139	0xbc752894	-0.014963288
140	0xbe6ee9b6	-0.23331341
141	0xbe7d9632	-0.24764326
142	0xbe72c508	-0.23707974
143	0xbe4294ad	-0.19002028
144	0xbe734a47	-0.23758803
145	0xbe449013	-0.19195585
146	0xbe675e15	-0.22594483
147	0x3d5004c5	0.0507858
148	0x3d1b4b4d	0.03791361
149	0x3e14d9a1	0.14536144
150	0x3c821bef	0.01588246
151	0x3d8796ef	0.06620585
152	0x3db6c4b5	0.08924238
153	0x3dd321f6	0.10309212
154	0x3de4707f	0.111542694
155	0x3e2ef27f	0.17084692
156	0x3d73e8d0	0.0595482
157	0x3e4caedf	0.19988583
158	0x3e79a8c9	0.24380793
159	0x3e33d2e3	0.17560916
160	0x3e6f4a9c	0.23368305
161	0x3e368834	0.17825395
162	0x3e7ed930	0.24887538
163	0x3e58d0fc	0.21173471
164	0x3e1dc6ea	0.15407911
165	0x3d5bb6eb	0.05364124
166	0xbcbd33b2	-0.02309594
167	0xbe64bdcc	-0.22338027
168	0xbe65eed7	-0.22454391
169	0xbe70c056	-0.2351087
170	0xbe2b0afd	-0.1670341
171	0xbe0bed6e	-0.13664791
172	0xbdaa0bcb	-0.083030306
173	0xbdaa214f	-0.08307134
174	0x3cdb908e	0.026802327
175	0xbe2297d0	-0.15878224
176	0xbd9dfa1c	-0.0771372
177	0xbced4d8f	-0.028967647
178	0xbc822f5a	-0.01589172
179	0x3bcfe4e6	0.0063444255
180	0xbc8540b3	-0.016266203
181	0xbd0eb1de	-0.034837596
182	0x3d2ad171	0.041703645
183	0xbd1a94a7	-0.037739422
184	0x3daeb5cd	0.085307695
185	0x3d80c1b3	0.06286945
186	0x3cbb3c81	0.022855999
187	0x3b171c8c	0.0023057787
188	0xbdb731bb	-0.08945032
189	0xbe458696	-0.19289622
190	0xbe529dea	-0.20568052
191	0xbe7baa22	-0.2457662
192	0xbe7c9b3e	-0.24668595
193	0xbe9b9570	-0.3038745
194	0xbe852921	-0.2600794
195	0xbe7c21e5	-0.24622305
196	0x3d688d1f	0.05677521
197	0x3db507ef	0.08839404
198	0x3e2f6f4d	0.17132302
199	0x3e07a54f	0.13246654
200	0x3d1be49f	0.038059827
201	0x3e0894b7	0.1333798
202	0x3dcdefc7	0.100554995
203	0x3df84271	0.12122048
204	0x3e0d8f6f	0.13824247
205	0x3d8b911c	0.06814787
206	0x3e33f658	0.17574441
207	0x3dfa4dfb	0.12221905
208	0x3e70314e	0.23456308
209	0x3e12b129	0.14325394
210	0x3e3f970c	0.18709964
211	0x3e37cfe4	0.17950398
212	0x3dfc7527	0.123270325
213	0x3d85f96b	0.06541713
214	0x3e01de8d	0.12682553
215	0x3d72da50	0.05929023
216	0xbe558ebc	-0.2085523
217	0xbe334374	-0.175062
218	0xbe2f8898	-0.1714195
219	0xbe420aba	-0.18949404
220	0xbe23594b	-0.15952031
221	0xbe0c9cbb	-0.13731663
222	0x3d268b54	0.040660217
223	0xbda4cd6e	-0.08046995
224	0xbc699b7d	-0.014258263
225	0xb833e2f6	-4.28883e-05
226	0x3c89c3f3	0.016817069
227	0x3d8b0ad8	0.06789178
228	0x3c70f077	0.014705769
229	0x3b82e3fb	0.0039944625
230	0x3d334644	0.043768182
231	0x3d4fe748	0.050757676
232	0xbdb8f8d8	-0.09031838
233	0xbe97989b	-0.29608616
234	0x3c54c654	0.012986738
235	0xbb273ca2	-0.0025518318
236	0x3dbf1659	0.09330434
237	0xbdc6a78d	-0.096999265
238	0xbe443e72	-0.19164446
239	0xbe30f3be	-0.1728048
240	0xbe858ec7	-0.26085493
241	0xbe548f02	-0.20757678
242	0xbe7f245d	-0.24916215
243	0xbe52b72b	-0.20577686
244	0xbe627308	-0.22114193
245	0x3d918671	0.07105721
246	0x3d9f2dea	0.07772429
247	0x3d40a3e1	0.047031287
248	0x3de8a8f2	0.11360349
249	0x3df1d859	0.11808843
250	0x3d755c08	0.05990222
251	0x3e045257	0.12922035
252	0x3e37c0b3	0.17944603
253	0x3e22975b	0.1587805
254	0x3d72f276	0.05931326
255	0x3e370941	0.17874624
