PythonClient/reinforcement_learning/saved_models/1.0-2024-06-26.pth (torch, 39959 bytes, 7 tensors)

conv1.weight f4 [6, 3, 8, 8]
0	0x3d9a077a	0.07520957
1	0x3d2bc3f6	0.04193493
2	0x3d9fa584	0.077952415
3	0x3dd160de	0.10223554
4	0x3cc50ce1	0.024053993
5	0xbd1c05cc	-0.038091466
6	0xbd7b2cf9	-0.061322186
7	0x3d161bdf	0.036647674
8	0x3e130237	0.14356314
9	0x3ddb445a	0.107063964
10	0x3e365836	0.17807087
11	0x3d4f0cf0	0.050549448
12	0xbd9fee3d	-0.07809112
13	0x3d145f77	0.036223855
14	0xbd4cdd97	-0.050016012
15	0x3dac451c	0.08411619
16	0x3e47926b	0.19489448
17	0x3d64d34c	0.05586557
18	0x3dc5480d	0.09632883
19	0x3d619145	0.05507018
20	0xbdaa6504	-0.083200485
21	0x3d56e80a	0.052467383
22	0x3d8fa92b	0.07014688
23	0x3d89d502	0.06730081
24	0x3e3e4c98	0.18583906
25	0x3c7cb887	0.015424854
26	0xbd182ca3	-0.037151944
27	0xbd82620c	-0.06366357
28	0xbdd776ea	-0.10520728
29	0xbe06351b	-0.13106196
30	0xbd63fb74	-0.055659726
31	0x3dda6eee	0.106656894
32	0x3e5ccbaa	0.21562067
33	0x3df0f5b1	0.11765612
34	0x3c2b0122	0.010437282
35	0xbcbfbce5	-0.023405502
36	0xbe0ed485	-0.13948257
37	0xbdcb4e81	-0.09927083
38	0xbd6eeebb	-0.05833314
39	0x3b936e35	0.0044992217
40	0x3e415a84	0.18882185
41	0x3d94c235	0.072636046
42	0xbd0d7d0c	-0.034543082
43	0xbd195dd9	-0.037443016
44	0xbda191e7	-0.07889157
45	0xbd43c45d	-0.04779469
46	0xbe062ddb	-0.1310343
47	0x3d9835a8	0.07432109
48	0x3dde4ad6	0.108541176
49	0x3da88402	0.082283035
50	0xbdbc031b	-0.0918028
51	0xbdac40f5	-0.08410827
52	0x3b373e56	0.002796074
53	0xbc26ca4e	-0.010180069
54	0xbd9d88df	-0.07692122
55	0xbd041ead	-0.032255817
56	0x3e032f57	0.12811027
57	0xbd39d6e0	-0.045370936
58	0xbc94af0c	-0.018149875
59	0xbca878fe	-0.020565506
60	0x3c4ef785	0.012632255
61	0xbd5f0ecb	-0.054457467
62	0xbdfcb442	-0.12339069
63	0xbe11e8dd	-0.14248987
64	0x3df07f82	0.1174307
65	0x3e029c18	0.12754858
66	0x3d40063c	0.046880946
67	0x3ca9843c	0.020692937
68	0xbbd201a7	-0.0064088884
69	0xbc7d3475	-0.015454401
70	0x3ce10ffe	0.027473446
71	0x3d91c5f2	0.07117833
72	0xbc05f3a4	-0.008175764
73	0x3e20d259	0.15705241
74	0x3e2df799	0.16988982
75	0x3df2e0f6	0.11859314
76	0xbdd03c95	-0.10167805
77	0xbd8812b7	-0.066441946
78	0xbb85c5bc	-0.0040824097
79	0xbb5eb106	-0.0033980026
80	0x3df7590e	0.12077533
81	0x3e031ee9	0.1280476
82	0x3e03fd6b	0.1288964
83	0x3d1ec5b6	0.03876277
84	0xbaec557b	-0.0018030846
85	0x3ca2e7c6	0.019885909
86	0x3df99950	0.12187445
87	0x3d259ddb	0.040433746
88	0xbc1ef932	-0.0097029675
89	0xbb754be6	-0.0037429272
90	0xbda8a49d	-0.082345225
91	0xbe113519	-0.14180411
92	0xbe2c9144	-0.1685229
93	0xbdf096e2	-0.117475286
94	0xbd825e42	-0.063656345
95	0x3d15f600	0.036611557
96	0x3ddaef63	0.10690191
97	0x3cc52ea4	0.024070092
98	0x3cb66cdd	0.022268707
99	0xbd0f5723	-0.03499521
100	0xbe33adc0	-0.17546749
101	0xbe333c3d	-0.17503448
102	0xbe2ccb9e	-0.16874549
103	0xbd9a9d3d	-0.07549522
104	0x3d87a07b	0.06622406
105	0xbc7b659b	-0.015344049
106	0x3d053bb7	0.03252765
107	0xbc151039	-0.009098106
108	0xbdeb6ab4	-0.114949614
109	0xbe3d8121	-0.1850629
110	0xbd961e32	-0.07329978
111	0xbd4b36d4	-0.049612835
112	0x3d794e48	0.06086567
113	0xbc393aad	-0.011305493
114	0xbd0668bd	-0.03281473
115	0xbd82fc53	-0.06395783
116	0xbc7dd4a2	-0.01549259
117	0xbde99308	-0.11404997
118	0xbd0f3739	-0.034964774
119	0xbc71b5cc	-0.014752816
120	0x3d972a4f	0.073811166
121	0xbe222c55	-0.15837224
122	0xbd75d2c9	-0.060015474
123	0xbdb49c53	-0.08818879
124	0xbda4a64a	-0.080395296
125	0xbdcd4178	-0.10022253
126	0xbda3129a	-0.07962532
127	0xbd58cc33	-0.052929115
128	0xbd281f2a	-0.041045345
129	0xbd1e8acd	-0.03870659
130	0xbc9fc955	-0.019505182
131	0xbd9b1a6e	-0.075734004
132	0x3d0e1bf7	0.034694638
133	0xbdf0a5ab	-0.11750349
134	0xbda16f61	-0.07882572
135	0x3c4c91fe	0.012485979
136	0xbd9fe7d2	-0.07807888
137	0xbd833062	-0.06405713
138	0xbd7da63f	-0.061926123
139	0xbd0d6c9e	-0.034527414
140	0xbd2f3815	-0.042778093
141	0xbd905d8a	-0.07049091
142	0xbe123b40	-0.14280415
143	0xbca540f8	-0.020172581
144	0x3c95fa62	0.018307868
145	0xbd37ed02	-0.044903763
146	0xbcb4882c	-0.022037588
147	0x3c288c55	0.010287364
148	0x3c44477d	0.011979935
149	0xbc07ec63	-0.008296105
150	0xbdb0e3b8	-0.08637184
151	0xba353973	-0.00069131627
152	0x3d837537	0.06418841
153	0x3cd621bd	0.026139135
154	0x3d220b56	0.039561592
155	0xbd262221	-0.04055989
156	0xbd3e1bea	-0.04641334
157	0xbe0bb140	-0.13641834
158	0xbd549aed	-0.05190556
159	0xbc9f96a1	-0.019481005
160	0x3e28e166	0.16492233
161	0x3d647be3	0.05578221
162	0x3d124f09	0.035719905
163	0xbcd80cb4	-0.026373245
164	0x3d8dc933	0.06923141
165	0xbc38fe56	-0.011291107
166	0x3cb52844	0.022113927
167	0x3d06db66	0.03292408
168	0x3da86d55	0.082239784
169	0xbd89e63c	-0.06733367
170	0xbc57c66f	-0.013169869
171	0x3bfb707f	0.0076733227
172	0x3ce390a4	0.027778931
173	0xbd8d1165	-0.06888083
174	0xbd92354e	-0.07139073
175	0x3d2fba58	0.04290232
176	0x3bd402b1	0.0064700474
177	0xbdbe70eb	-0.09298881
178	0xbd453204	-0.0481434
179	0xbd819eee	-0.063291416
180	0xbce01491	-0.027353557
181	0xbce33a01	-0.02773762
182	0xbc891855	-0.016735235
183	0xbceb42ec	-0.028718434
184	0x3cac3ca7	0.021025015
185	0xbd319782	-0.04335738
186	0xbd966ea8	-0.07345325
187	0x3c865aab	0.016400656
188	0x3d94ad01	0.072595604
189	0xbd5b3b4b	-0.053523343
190	0x3d3c6d68	0.046002775
191	0xbd95f7d4	-0.0732266
192	0xbca89dc9	-0.02058305
193	0xbda1ade4	-0.07894495
194	0x3cb0a55f	0.02156323
195	0x3c840975	0.01611779
196	0x3ca7b786	0.020473253
197	0xbd90d240	-0.07071352
198	0xbd9a7ba4	-0.07543114
199	0xbccf47bd	-0.025302762
200	0x3cd21ecb	0.025649449
201	0xbd28eaa7	-0.041239407
202	0xbcfb9df2	-0.030714963
203	0xbd86c3ac	-0.0658029
204	0xba7cd14c	-0.0009644225
205	0xbcca5ba3	-0.024701899
206	0xbd964ac7	-0.073384814
207	0xbd942593	-0.07233729
208	0xbd34652e	-0.044041805
209	0x3b0c59d8	0.0021415856
210	0xbd9571ed	-0.0729712
211	0xbe0360e9	-0.12829937
212	0xbdeb10fd	-0.1147785
213	0xbdb5699c	-0.08858034
214	0xbdea560b	-0.11442193
215	0xbd84f76c	-0.064925045
216	0xbd142684	-0.036169544
217	0xbcd8cb99	-0.02646427
218	0xbdb8d97c	-0.09025857
219	0xbdb2121f	-0.086948626
220	0xbe283a3b	-0.16428463
221	0xbe28e4ba	-0.16493502
222	0xbd823b65	-0.06358985
223	0x3c196b69	0.0093639875
224	0xbdb35cf7	-0.08757966
225	0xbdb26e9a	-0.08712502
226	0xbde1c5f8	-0.11024088
227	0xbc1c08a8	-0.009523548
228	0xb9702c6c	-0.00022904732
229	0xbd8c8c5c	-0.06862709
230	0x3c78f363	0.015194747
231	0xbd9d9b3a	-0.07695623
232	0xbde43712	-0.11143316
233	0xbd93620f	-0.071964376
234	0xbde50aa6	-0.11183672
235	0xbdff16bd	-0.12455509
236	0xbd27301a	-0.040817358
237	0xbd443a3f	-0.04790711
238	0x3d18593e	0.037194483
239	0x3cc2b1bb	0.02376639
240	0xbde1f179	-0.110323854
241	0xbda6f8a3	-0.081528924
242	0xbcdf5f18	-0.027267024
243	0xbd4e1b0e	-0.05031877
244	0xbab82b17	-0.0014050928
245	0x3ceff5ad	0.029291952
246	0xbd2c8f17	-0.04212865
247	0xbd2c305b	-0.042038303
248	0xbda3143a	-0.07962842
249	0x3c10ec23	0.008845362
250	0xbc05fb70	-0.008177623
251	0xbc81e65b	-0.015856912
252	0xbd83d9b2	-0.064380065
253	0x3c8eae67	0.017417146
254	0x3d08d457	0.033405628
255	0x3ce0792d	0.027401531

conv1.bias f4 [6]
0	0x3c2335af	0.00996153
1	0xbce6990d	-0.028149152
2	0x3d5ddfaf	0.0541684
3	0xbd6ca44f	-0.057773884
4	0xbb91bd6c	-0.0044476297
5	0x3d1ec972	0.038766332

bn.weight f4 [6]
0	0x3ee5ca5b	0.44880947
1	0x3ea14829	0.31500366
2	0x3f65e652	0.89804566
3	0x3ed0a491	0.40750554
4	0x3ea15ce3	0.3151618
5	0x3e02022c	0.12696141

bn.bias f4 [6]
0	0x3cf8717b	0.03032755
1	0xbe6d1526	-0.23152599
2	0xbf1bef5c	-0.6091211
3	0xbeabf770	-0.33587217
4	0xbee00b51	-0.43758634
5	0xbf0fd6c4	-0.5618708

bn.running_mean f4 [6]
0	0x3f01938f	0.5061578
1	0x3f917dab	1.1366476
2	0xbc2270e0	-0.009914607
3	0xbed57aa9	-0.41695145
4	0xc02f8649	-2.742571
5	0xc1293a73	-10.57677

bn.running_var f4 [6]
0	0x3f378b61	0.7169705
1	0x4001f43d	2.0305321
2	0x3f43f0f1	0.7653952
3	0x3e93da5c	0.28877532
4	0x412c6c6b	10.776469
5	0x4327fda1	167.99074

fc1.weight f4 [1, 7938]
0	0xbd34ee19	-0.04417238
1	0x3d0f4d65	0.03498592
2	0x3ce7c006	0.028289806
3	0x3c12b99f	0.008955388
4	0xbdb98d1f	-0.0906012
5	0xbe171dc0	-0.14757442
6	0x3de70523	0.112802766
7	0xbd817bd7	-0.06322449
8	0xbd8070bb	-0.06271502
9	0xbcbba90d	-0.022907758
10	0xbca5a415	-0.020219842
11	0x3cb4f6e0	0.022090375
12	0x3c702276	0.014656654
13	0x3b82bc2e	0.003989718
14	0x3d85df7b	0.06536766
15	0xbd969960	-0.07353473
16	0xbd3405ad	-0.043950725
17	0x3cfcbde2	0.030852262
18	0x3d2fd76b	0.042930048
19	0x3dcf57a9	0.10124142
20	0x3d774685	0.060369987
21	0x3d1b20e8	0.03787318
22	0x3d9307a5	0.071791925
23	0xbcd01a4f	-0.02540317
24	0xbd16acd8	-0.03678593
25	0x3cce2916	0.025166076
26	0x3cb54397	0.022126956
27	0xbc657b8c	-0.014006507
28	0xbc542be3	-0.0129499165
29	0x3d8cb118	0.068697155
30	0x3d412c23	0.047161233
31	0x3da69662	0.08134152
32	0xbc0b6b8d	-0.008509529
33	0x3d84c926	0.064836785
34	0x3e2f3178	0.17108715
35	0xbc3a2a24	-0.011362586
36	0xbdd02878	-0.10163969
37	0x3d186bb6	0.037212096
38	0xbca4a77d	-0.020099396
39	0xbdd7b34e	-0.105322465
40	0xbdce19e3	-0.10063531
41	0x3b1320c8	0.002244996
42	0xbd892ef6	-0.0669841
43	0x3d001df8	0.03127858
44	0xbc2a361d	-0.010388878
45	0xbc8302c9	-0.015992539
46	0xbd889c06	-0.06670384
47	0xbd04c41e	-0.032413594
48	0xbd9724f4	-0.07380095
49	0xbbdbd524	-0.006708758
50	0x3db68cc3	0.08913567
51	0xbc1e2f6e	-0.009654863
52	0x3e42f01d	0.19036908
53	0x3cf8d36b	0.03037425
54	0x3d135b3f	0.03597569
55	0x3db9adc0	0.09066343
56	0x3c8949e1	0.016758861
57	0x3dd560bf	0.104188435
58	0xbb2e2e9f	-0.0026578081
59	0x3d1b1c35	0.037868697
60	0xbd43dec9	-0.047819886
61	0x3ab9667d	0.0014144924
62	0xbd82141a	-0.0635149
63	0x3d84f41a	0.06491871
64	0xbdab44f2	-0.0836276
65	0xbdcde4cd	-0.10053406
66	0xbd3d4571	-0.046208803
67	0x3da1a97b	0.07893654
68	0xbaa06569	-0.0012237254
69	0x3d84a915	0.06477562
70	0xbd6e63a5	-0.058200497
71	0x3db35bcd	0.08757744
72	0x3de27e01	0.110591896
73	0x3dff58b8	0.12468094
74	0xbd18c431	-0.037296478
75	0xbc1304cb	-0.008973311
76	0x3db369d9	0.08760423
77	0xbcdb0c43	-0.026739245
78	0x3d3ed322	0.04658807
79	0xbc44f88a	-0.012022147
80	0x3cf55a7d	0.029950375
81	0x3d4727de	0.048622005
82	0x3d728158	0.059205383
83	0x3cfb211f	0.030655442
84	0xbd36a861	-0.044594172
85	0x3d8d97f7	0.069137506
86	0x3cb125c9	0.021624463
87	0xbd48d26e	-0.049028806
88	0xbd9a293e	-0.075273976
89	0xbd1ed600	-0.038778305
90	0xbdd2232a	-0.10260613
91	0x3d7a92bf	0.061175104
92	0x3db853ac	0.09000334
93	0x3c76dbe8	0.015067078
94	0xbd308eda	-0.043104984
95	0xbd2c8503	-0.042119037
96	0x3d35eae1	0.04441345
97	0x3d2f1a5e	0.042749755
98	0x3c3e3c24	0.011611018
99	0x3d9d7b83	0.076895736
100	0x3d0e85a4	0.03479542
101	0xbc4d0a24	-0.012514625
102	0x3d2249f4	0.03962131
103	0xbd34f0c4	-0.044174924
104	0x3dc30465	0.095223226
105	0x3d30c01d	0.043151964
106	0x3c365505	0.011128669
107	0xbda76889	-0.081742354
108	0x3c86d68e	0.01645973
109	0xbc899b8f	-0.016797809
110	0x3d1a1a00	0.03762245
111	0x3998f858	0.0002917673
112	0x3b5bcca9	0.0033538735
113	0x3be7f405	0.00707865
114	0xbd8f450d	-0.06995592
115	0xbb78221e	-0.0037862132
116	0x3d8662b9	0.065617986
117	0xbd1266e0	-0.03574264
118	0xbd71cc36	-0.05903264
119	0x3d1c28fc	0.038125023
120	0x3c86851b	0.016420892
121	0x3d95e439	0.07318921
122	0xbd230bb9	-0.0398061
123	0xbd229ffe	-0.03970336
124	0x3dabf07a	0.08395477
125	0xbd79867f	-0.06091928
126	0x3e127a7a	0.14304534
127	0xbc5b0c6d	-0.013369662
128	0x3d9a5c5d	0.07537148
129	0x3d8cfe3f	0.06884431
130	0x3c840d74	0.016119696
131	0x3dd9cc4e	0.10634671
132	0x3da477c7	0.08030658
133	0x3ca5df05	0.020247946
134	0x3d4b5489	0.049641166
135	0x3ac5b2fb	0.0015083248
136	0x3d5502a9	0.05200449
137	0xbdab7836	-0.08372538
138	0xbb8dded1	-0.0043295403
139	0xbcfce6dd	-0.030871803
140	0x3d1919f3	0.037378263
141	0xbc713b01	-0.01472354
142	0xbdbd0593	-0.09229579
143	0x3b798909	0.0038076064
144	0xbcabd783	-0.020976787
145	0xbc759fcd	-0.014991713
146	0xbe0bff30	-0.13671565
147	0xbc46bf5e	-0.012130586
148	0x3d475d27	0.04867282
149	0x3d85b4f5	0.065286554
150	0x3d655b96	0.055995546
151	0x3d24a72f	0.0401985
152	0x3c59be32	0.013289975
153	0x3cc3a4ef	0.023882357
154	0x3d29a127	0.041413452
155	0x3d727114	0.05918987
156	0xbdc3c757	-0.095595054
157	0xbd04e1b7	-0.03244182
158	0xbcea3ea2	-0.028594319
159	0xbc3cceaa	-0.011523882
160	0xbd303aff	-0.043025013
161	0xbc617d40	-0.013762772
162	0xbb41737f	-0.0029518304
163	0xbd5bddf4	-0.053678468
164	0xbdc16e3d	-0.094448544
165	0x3d02ed45	0.03196456
166	0x3d8bc5c9	0.06824834
167	0x3d3b78df	0.04576957
168	0xbbbd0895	-0.0057688453
169	0xbdd5d040	-0.10440111
170	0xbc859b57	-0.016309423
171	0xbd4d7cbe	-0.05016779
172	0xbcc706c1	-0.024295213
173	0xbd9db39e	-0.07700275
174	0x3cd8a1f7	0.026444418
175	0x3aff8d0b	0.001949699
176	0xbda1bfff	-0.078979485
177	0xbc88eff0	-0.016715974
178	0xbb526e30	-0.0032109134
179	0xbbb1a9ba	-0.0054218443
180	0xbc93d5d4	-0.018046297
181	0x3da31904	0.07963756
182	0x3b2ae1ef	0.0026074608
183	0xbc80e1bb	-0.015732637
184	0x3cf73145	0.03017486
185	0xbbc458ba	-0.0059920223
186	0x3db06b18	0.086141765
187	0x3cf44e47	0.029822482
188	0x3d31a7de	0.04337298
189	0x3d3d16d8	0.046164364
190	0xbd48fb6e	-0.049067907
191	0x3daac97e	0.08339213
192	0xbcc73f88	-0.024322286
193	0xbe057019	-0.13031043
194	0xbb07a378	-0.00206968
195	0xbd7e096f	-0.062020715
196	0x3c9d43a4	0.019197293
197	0xbd01e0ef	-0.031708654
198	0xbbc7a6d6	-0.0060928864
199	0x3dda8493	0.10669818
200	0xbd92722b	-0.07150682
201	0x3c32c20f	0.010910525
202	0xbc8f3645	-0.017481932
203	0x3cd59a5b	0.026074579
204	0xbbafd509	-0.005365972
205	0x3d2bc5c8	0.041936666
206	0xbd202039	-0.03909323
207	0xbd2427b6	-0.040076934
208	0xbd4d203d	-0.050079573
209	0xbc82a74d	-0.015948916
210	0xbc13bfe9	-0.009017923
211	0xbd59ff91	-0.053222243
212	0xbd84f498	-0.06491965
213	0x3d15fab7	0.036616053
214	0xbd044f66	-0.032302283
215	0xbc2af21b	-0.010433699
216	0x3cf5e335	0.030015567
217	0x3d1ad203	0.03779794
218	0x3dcd8373	0.100348376
219	0x3e081e8b	0.13292901
220	0x3c536254	0.012901861
221	0xbc913cb6	-0.017729145
222	0x3cc65254	0.024209179
223	0x3d6527bb	0.055946093
224	0x3d12a8a3	0.035805356
225	0xbd02f481	-0.03197146
226	0x3cf744d3	0.030184185
227	0x3c28b2f0	0.010296568
228	0xbdcf3df8	-0.101192415
229	0xbd717c67	-0.05895653
230	0x3d97e138	0.07416004
231	0x3c51a0a7	0.01279465
232	0xbbd7d278	-0.006586369
233	0x3d772874	0.060341313
234	0xbd30d7a1	-0.04317439
235	0x3d21f4f7	0.039540257
236	0xbd051fe9	-0.032501135
237	0xbc5f4556	-0.013627371
238	0x3d227f86	0.039672397
239	0xbda4fd2e	-0.08056103
240	0x3d1f00d4	0.03881915
241	0xbdb71be6	-0.08940868
242	0x3c62de9d	0.01384702
243	0x3d30e44f	0.043186482
244	0x3dc8ffbd	0.09814403
245	0xbc9ed542	-0.019388799
246	0xbd041c2b	-0.032253426
247	0xbd8fd09c	-0.07022211
248	0x3daff7c6	0.08592181
249	0x3cbcf8bd	0.023067826
250	0x3c139014	0.009006519
251	0xbda6a569	-0.08137018
252	0xbb88e8db	-0.004178149
253	0xbdaf64d3	-0.085641526
254	0xbcf534c4	-0.029932387
255	0x3d1b4211	0.037904803
