PythonClient/reinforcement_learning/realOnSim.pth (torch, 58135 bytes, 6 tensors)

weight f4 [8, 3, 6, 6]
00000000: fa6a 12bd c357 ab3d 7aee f53d 52b6 2abb
00000010: b66a bcbd 3136 4f3d eb70 393d d5e1 003e
00000020: ea15 afbc fe68 eb3d 292a 193d 0fd1 2b3d
00000030: ccd2 883d d04b b93d 1aaf 173d aa2c cd3d
00000040: 9891 873d 4cdf c33c 983c 75bb 3576 b13c
00000050: 769e 29bd d6fa cc3d 5695 70bc 79b4 24bd
00000060: bd8f df3d e98f 813d e40d 283d 0754 993d
00000070: fa67 a03d ad6d 173c fece f1bd 3b69 f9bc
00000080: e937 0cbe 1439 15be 5a2a 073c 7a0b 99bd
00000090: dca6 633d b8c9 853b 34d9 6f3d c7e4 7a3d
000000a0: da76 aabd 61c5 103d a494 fa3d 6789 013e
000000b0: 04c3 8d3d 0de4 f03c 7094 af3d 92d4 78bc
000000c0: fea0 023e 16fe 093e 32ef dc3d fe6c bc3d
000000d0: 961f 91bd a78d 8abc 3815 693d ff5b 9d3d
000000e0: c935 123d 71c7 8939 d3e8 abbd 5db9 443d
000000f0: 550b 903d ea05 0e3e c08d 803c 6f16 413b
00000100: a0e0 ce3d f1d9 26bd 0c9b febc f8a3 b5bd
00000110: 8046 fabd 8b1c cdbd 06c6 09be 4d10 47be
00000120: 1664 0e3d 695d 9abd 3879 553c fa21 393d
00000130: ed24 9fbd cf40 e0bd a563 d83d 8e03 e8bc
00000140: 1090 3a3c 0693 1a3d 1d28 6b3d 6779 abbd
00000150: 3a72 053e 476f a83d 074f 023b e956 9f3d
00000160: 6340 aabd 8821 d8bd ee00 1e3d 036a a4bb
00000170: 9254 1cbd 3803 c9bc d25c 8cbc 871d 323d
00000180: db14 4f3b 2060 9c3d e36d b53a 3ea2 80bd
00000190: afac 17bd 61aa 913d c78e 50bd d405 99bd
000001a0: b9ed d3bd 40d7 93bd 59dd 15bd db7a 0fbe
000001b0: 5eba ebbd 405b a8bc 656c 323c 5717 33bd
000001c0: ab68 60bd b547 04be ee08 bc3c 63ad cebc
000001d0: 455a 153d be41 5c3c 0d91 883d 51d6 313d
000001e0: 9bd2 803d 3333 593d 19cc a53d 6639 54bd
000001f0: 98ad bd3d ba70 b8bc b7f2 2ebc af71 d03c
00000200: f8b4 b93d 250e 963d 839b f93c 3f73 0abd
00000210: 4fd5 ae3d 6bef d73d c05c 663a 81b1 cf3d
00000220: dad9 033e 8db0 01bc f2fa db3d c6f3 ab3d
00000230: 660b 63bd 12ea 8bbc f56c 23bd 658a 88bd
00000240: 51e4 2fbd 011f 8fbd 7dac f23c cc27 863c
00000250: 5979 74bd 55fa 12bd 76a4 cfbd df2c 40bc
00000260: 1717 01bd 5860 97b9 e407 28bd cd4b 6c3c
00000270: 5f72 39bd 3074 57bc 990c 503c 2db8 ec3d
00000280: 332c 213d 0b0d 72bc e5cf 8bbd 9e7d 0a3d
00000290: 7e4e f33d 40d2 5d3d 4234 183d 2fc0 70bd
000002a0: 333b 723d b1a4 833d e130 943d af1f 0a3d
000002b0: d567 bd3d 0a94 823d 7959 d63d d702 293d
000002c0: 1c61 75bd f106 5b3d 7edf 38bc b907 b43c
000002d0: a42e 58bd 0637 08be db81 0bbe 7034 90bd
000002e0: c0ca ffbd 6741 0abe bcb4 e5bd da5b 773c
000002f0: 93a1 cf3c 8927 0a3d ccae 1dbd fb3e bfbd
00000300: 75ae 8b3c 4ad4 c5bd 5bc4 40bd bd92 233d
00000310: cb65 643c 18ea 9fbd 935d 2ebd 06ae 84bd
00000320: ff7b 9f3d 8143 cdbb 9883 babd a41b da3c
00000330: 804d 09bd 58b6 3b3d e18f 57bd 89eb bfbc
00000340: c456 c33d 953f 9e3d fb81 623d f19a c4bd
00000350: 21da 1e3c a126 90bd 16a2 55bd a0b4 eb3c
00000360: fd14 3abd 03a5 af3d 1475 533d b902 98bd
00000370: 6148 773c bbd0 0bbd 6af9 86bd 4016 cd3d
00000380: 0159 31bd 628d 24bd 1947 043c 4946 48bd
00000390: ff01 2f3d f311 c93d d16b ab3d 9d3e eb3d
000003a0: 6f0c 5ebd 9d42 8e3c b0eb fb3d d768 cf3d
000003b0: a0af a33d 6c4a cfbc 12f1 c7bc b846 0cbd
000003c0: 78d2 b13d 9cab bcbb a5d7 753d 526f 8bbd
000003d0: 6114 dd3d 4253 99bd efb8 72bd c4ce b5bd
000003e0: 94ea e5bd 2cb2 34bd 9d55 bb3c 1c1c d5bd
000003f0: 6db9 f5bb 99e3 59bd 9328 bcbd 5227 2f3d
-0.035746552 0.083663486 0.120083764 -0.0026048613 -0.09200041 0.05058879 0.045273703 0.12586148
-0.021372754 0.11494635 0.037393723 0.04194742 0.06680831 0.09047663 0.037032224 0.100182846
0.06619567 0.023910187 -0.003742015 0.02166281 -0.041410886 0.10008781 -0.014684042 -0.040211175
0.10916088 0.06326277 0.041028872 0.0748673 0.07832332 0.009242457 -0.11807059 -0.030445686
-0.13693203 -0.14572555 0.0082498435 -0.07472892 0.05557905 0.0040828846 0.05855675 0.061253335
-0.083234504 0.035344485 0.12235382 0.12650071 0.06921962 0.029405618 0.08573234 -0.015187399
0.12756726 0.13475832 0.107878104 0.09200476 -0.07086103 -0.016913248 0.056905 0.076835625
0.035695825 0.00026279272 -0.08394017 0.04802834 0.070334114 0.13869444 0.015692592 0.0029462834
0.101014376 -0.04073519 -0.031079791 -0.08869165 -0.12220478 -0.1001521 -0.13454446 -0.19439812
0.03476342 -0.07537348 0.013029389 0.04519842 -0.07770715 -0.10949861 0.10565881 -0.028322008
0.011386886 0.03773787 0.057411302 -0.08372765 0.13031855 0.082243495 0.001988353 0.07780249
-0.08313062 -0.105532706 0.038575105 -0.0050175204 -0.03816659 -0.024537668 -0.017134104 0.04348519
0.0031598124 0.07635522 0.0013841953 -0.06280945 -0.03702992 0.07112575 -0.050917413 -0.07471815
-0.103480764 -0.0721879 -0.036588047 -0.1401171 -0.11510156 -0.020551324 0.010890101 -0.04372343
-0.05478732 -0.12917979 0.022953477 -0.025229162 0.03646304 0.0134434085 0.06668291 0.04341728
0.0629017 0.053027343 0.08095569 -0.051812552 0.09261626 -0.02251469 -0.010677985 0.025444834
0.0906772 0.073269166 0.030469662 -0.033801313 0.08536779 0.10543712 0.00087876245 0.10141278
0.12876073 -0.007915628 0.107412234 0.083961055 -0.055430792 -0.017079387 -0.03989883 -0.06667022
-0.04294235 -0.069883354 0.029623264 0.016376399 -0.05968604 -0.035883266 -0.1013879 -0.011729448
-0.03151616 -0.00028872746 -0.04102315 0.014422369 -0.04527509 -0.01315026 0.012698316 0.11558566
0.039348792 -0.0147736175 -0.06826762 0.033811204 0.118802056 0.05415559 0.037159212 -0.05877703
0.059138488 0.06427897 0.072358854 0.033721622 0.0924832 0.063758925 0.10466284 0.041262474
-0.059907064 0.053473417 -0.011283753 0.021976339 -0.052778855 -0.1330224 -0.13623755 -0.07041252
-0.12489843 -0.13501512 -0.11216113 0.015097583 0.0253456 0.03372911 -0.038496777 -0.093381844
0.017050961 -0.096596316 -0.04706226 0.039934862 0.013940285 -0.07808322 -0.042569708 -0.06478505
0.07787322 -0.0062641506 -0.09107131 0.026624508 -0.033521175 0.045828193 -0.052627448 -0.023427742
0.095380336 0.07726971 0.05529974 -0.09599865 0.009695561 -0.07038618 -0.05215653 0.028772652
-0.045430172 0.08576395 0.051625326 -0.07422394 0.01509294 -0.034134608 -0.06590541 0.100140095
-0.04329777 -0.040173896 0.008073592 -0.048895154 0.042726513 0.09817877 0.08370174 0.11486552
-0.054211076 0.017365748 0.12300813 0.101274185 0.07992482 -0.025304042 -0.024406943 -0.03424713
0.08682722 -0.005757762 0.060020108 -0.06808342 0.107949026 -0.07486583 -0.059258398 -0.08877328
-0.11226383 -0.04411523 0.022867972 -0.10405752 -0.007498911 -0.05319557 -0.091874264 0.04276211

bias f4 [8]
00000000: ae74 f33d 4818 0d3c 2d22 a23d 1278 e2bb
00000010: 4c5a c3bb a4d5 15bd b1a5 1c3d 9686 1fbd
0.11887489 0.008611746 0.07916675 -0.006911286 -0.005961692 -0.036580697 0.038243953 -0.03894671

weight f4 [6, 8, 16, 16]
00000000: bb3f 8bba a9b5 063d 1564 703c c1ec 893b
00000010: 6949 b7bc 5e2b 4c3c cf4a c33c 82c6 f13c
00000020: ae0d adbb 0b0f dfbc 8fca 80bc 1138 c3bc
00000030: 7685 473b f276 893d 7334 ac3b 8484 3c3d
00000040: ab88 ac3c e236 783d f7d7 ac3c df53 0fbb
00000050: f020 8ebd c231 04bd ecf9 413d 17f1 403d
00000060: 1277 533c f593 09bd f8dd 21bd 80d4 de3b
00000070: cddc 373d 2700 04bd 5660 933c 6fd1 6c3c
00000080: 3772 86bd bb44 3dbc 5cd4 c53c 6828 5abc
00000090: bbd4 efbc 199d 7fbd 8add c9bb eda4 023c
000000a0: 2c88 ed3a 580e b5bd dcf7 20bd 36a3 e5ba
000000b0: c3d5 fb3c 90a7 f03b 8aaf 9d3d f1e1 9a3c
000000c0: bdc2 8ebd 3a2a 8bbc 6555 323c 6652 fbbc
000000d0: 9453 c8bd 55df c5bc 43a6 d7bc 078c 563d
000000e0: 956f ab3c 4986 5dbd b30c ab3d 545a d9bc
000000f0: c4ec 2f3c bdc9 a0bc a192 03bc 085d c6bc
00000100: 936e 68bc 7a6e 4f3b 4710 f3bb 3d15 b73c
00000110: ad1f a3bd 3ccd abbc f254 543d 8a5e 33bd
00000120: cfa0 8bbd 51e8 63bd 9358 733d ce4c 7cbb
00000130: 3757 85ba be40 2f3b 93b3 723b 68d9 6b3d
00000140: 48c5 46bb 8fdc 1ebd 72dc e63c 4a33 a23c
00000150: 4d1b f6bc 8e09 a73b 6c55 a3bc 0038 5f3d
00000160: 3f7d f33b aef2 a6b9 3197 e63c 0382 74bc
00000170: 95d9 e83c 5956 89bc 9387 033c be0a 7a3b
00000180: 78e9 a6bb 5d64 dbbc c610 b0bc e956 053c
00000190: 17f5 843b 528a 213d e758 363d aee9 a83d
000001a0: 2bde 803d 12ca 863d e439 d3bc ab49 9cbd
000001b0: 266e 74bd 2875 e23b 48a5 63bc f097 743d
000001c0: 814f a0bc bc5a 393c 6876 2c3d 739d 333c
000001d0: 2436 2fbd 9863 9ebc 44bf 873c 32f4 6abc
000001e0: 94da 59bc bef4 efbc 5ffd 823c 1107 413d
000001f0: b7c0 693c 6b16 373d 9598 713d 6967 7e3d
00000200: 2127 9d3c f679 11bd 7ce8 e6bc 95e2 27bc
00000210: 77a8 69bd 6eae edbc dad0 efbb 63f3 09bd
00000220: 6269 c63c bcf9 37bc 5037 72bc e73e 923b
00000230: 4227 7fbd a32f edbc ebc7 a7bc 475f 12bc
00000240: 3014 a6bb 571b 1cbc 08d5 63b9 5478 723d
00000250: 7013 cfbb 3a7c 4d3d a1d6 8c3c 3571 603c
00000260: a4b8 de3c a5fd 80bb 10c3 833d 7bd9 09bc
00000270: f14d e73c 09f5 45bc a46a 673b 064d 09bc
00000280: 3f86 01bc dcc5 a83c 2def 35bc 6cfb 83bc
00000290: 091e 2fb9 eeb7 ecbc 93d6 24bd 5dd1 45bd
000002a0: bb3c 06bc 2146 80bd f985 80bc fb1e 56bd
000002b0: 6759 3abd 5028 47bd e7b8 1bbd a04b 32bd
000002c0: 252e 0e3d 91fe 6e3d cc3e 193d 7b68 823d
000002d0: 1bc4 afbb 0337 1f3d 6dbe 1f3d 53f4 a7bc
000002e0: 94d6 543d 1c79 30bd e6d0 d3bc 0000 bdbc
000002f0: 430c e8bb b2ed 3b3c 5d5f 43bb 779c 55bc
00000300: 83a1 efbc 0361 0bbd 4627 0a3b 701f 3a3b
00000310: 0071 96bc 55d4 223d 08aa 3b3d 2da1 c83c
00000320: 6764 363d b3a5 883c d129 073d 325a bdba
00000330: 4c16 1abc 0534 143c 3b63 ba3c a1bc 1dbb
00000340: cdb7 dabc a138 a9bc 5c1f 22bc ee24 35bc
00000350: dd43 d1ba a9b5 43bc b7ac e63c 0a52 af3c
00000360: 31da c23c f583 80bc 9e06 273c d8a4 233d
00000370: 3deb 8f3c 1bfc 4d3c d891 c93b 602b 3d3d
00000380: f3d1 683c 4577 16bc aa58 3ebd 0201 69bc
00000390: 778a bc3c ac59 ba3b 9e4d 533d a2a6 e1bc
000003a0: e564 ca3b 8782 843b dad4 f0ba b40f c0bb
000003b0: df62 36bd d118 b9bc da09 8f3c f521 ab3c
000003c0: d62e 373c 4070 5a3d 77b8 3a3d a751 7d3c
000003d0: 3ef2 003d 7a33 b33c 3b43 db3c 0019 3c3d
000003e0: 291f ea3c daa7 303c c2a3 f4bc b1d7 c3bc
000003f0: 0d04 9bbc b1e6 78bc 8590 6ebc 7ea2 00bd
-0.0010623852 0.03288809 0.014672299 0.0042091315 -0.022373872 0.012461511 0.023839382 0.029513601
-0.0052811718 -0.027228853 -0.015721587 -0.023830445 0.003044454 0.0671214 0.005255276 0.046024814
0.021061262 0.060599215 0.021099074 -0.002187006 -0.06939876 -0.032274015 0.047357485 0.04710492
0.012906807 -0.03358837 -0.039518327 0.0068002343 0.044888306 -0.032226708 0.017990272 0.01445423
-0.065647535 -0.011552031 0.024149112 -0.013315298 -0.029276242 -0.06240568 -0.0061604427 0.007973892
0.0018122247 -0.088406265 -0.039298877 -0.0017519954 0.030741578 0.0073441938 0.07699497 0.018906565
-0.06970737 -0.016987909 0.010884617 -0.03067894 -0.09781566 -0.024154345 -0.026324397 0.052379634
0.02092723 -0.054083142 0.083520316 -0.02653233 0.010737602 -0.019627446 -0.0080305645 -0.024214283
-0.014186519 0.0031651543 -0.007417712 0.022348994 -0.07965026 -0.020971887 0.051838823 -0.04379133
-0.06817781 -0.055641476 0.059410643 -0.0038497928 -0.0010173087 0.002674147 0.0037033304 0.05758038
-0.003032999 -0.03878456 0.028181288 0.019799847 -0.030042315 0.0050975746 -0.019938193 0.054496765
0.007430702 -0.00031842798 0.028148266 -0.014923575 0.028424064 -0.016764807 0.008027929 0.0038153375
-0.0050937496 -0.026781255 -0.021492373 0.008138397 0.0040575373 0.039438553 0.044518378 0.08247696
0.06292375 0.065815106 -0.02578444 -0.076312385 -0.05967536 0.006910939 -0.013894387 0.05971521
-0.01956916 0.011313137 0.04210511 0.010962832 -0.042776242 -0.0193346 0.016570695 -0.014340447
-0.013296742 -0.029291507 0.015989957 0.04712588 0.014267138 0.044699114 0.058983404 0.06211034
0.019183697 -0.0355167 -0.028187029 -0.010246892 -0.057045426 -0.029013839 -0.007318598 -0.033679377
0.024220172 -0.011228975 -0.014783695 0.004463065 -0.0622933 -0.028953379 -0.02048107 -0.008933849
-0.0050683245 -0.009528003 -0.00021727767 0.059196785 -0.006319456 0.0501673 0.017192187 0.013698866
0.027187653 -0.003936487 0.064336896 -0.008413668 0.028235408 -0.012082347 0.0035311366 -0.00838018
-0.007905542 0.02060216 -0.011104387 -0.016111098 -0.0001670049 -0.028896298 -0.040243696 -0.048295368
-0.00819319 -0.06263376 -0.015688883 -0.05227564 -0.045495417 -0.04862243 -0.038018133 -0.043529153
0.034711976 0.058348242 0.037413403 0.06367584 -0.0053639538 0.038870823 0.038999964 -0.020502245
0.05196245 -0.04308425 -0.025856446 -0.023071289 -0.00708154 0.011470245 -0.002981148 -0.013037792
-0.02925182 -0.034028064 0.0021080538 0.0028400086 -0.01836443 0.039753277 0.04581645 0.024490917
0.044529345 0.016680574 0.032998864 -0.0014446436 -0.00940473 0.009045606 0.022752395 -0.002406873
-0.026698971 -0.020656886 -0.009895172 -0.011056168 -0.0015965659 -0.011945167 0.028158529 0.021401424
0.023785682 -0.015687922 0.010194449 0.03995213 0.017568225 0.012572314 0.006151419 0.046183944
0.014210212 -0.0091837095 -0.046471275 -0.014221432 0.023015244 0.0056869593 0.051587693 -0.027545277
0.0061765783 0.0040438804 -0.0018373982 -0.005861247 -0.044527885 -0.022594841 0.017460752 0.020890215
0.0111806 0.053329706 0.045586076 0.015461362 0.03148102 0.021875132 0.026765456 0.04592228
0.028579311 0.010782206 -0.029863242 -0.02390656 -0.01892283 -0.01519172 -0.014560823 -0.031404965

bias f4 [6]
00000000: e5b7 9d3c 6c60 483d 962f f33c ddb7 463c
00000010: e6a8 e63b ceea 473a
0.019252727 0.04892008 0.029685777 0.012128797 0.007039177 0.0007626236

weight f4 [4, 144]
00000000: 5113 cd3d c9a2 b83b 902f a7bd 4b91 a93c
00000010: ecd6 b33c 3fa1 a63c 064d d43d 8746 20be
00000020: 08cd 80bd 37f8 0d3d 715f b93d dc6d 943b
00000030: 700d 033d 4cff 23bd 4d64 bfbd 2686 5ebe
00000040: f61c 603d fd6c a53d 8177 17bd fab9 e4bd
00000050: 5e76 aebd d5b9 423e 0c16 583d 930b ba3c
00000060: 2f6b 1abe 13f0 3b3e e73f 12bd ef35 19be
00000070: 907b 81bc f7a2 4f3d aa96 afbd b496 e73d
00000080: a4a2 a93b 26db b9bd c220 073d 941a e73c
00000090: b839 483b 4404 28bd d185 92bd a3b3 a43d
000000a0: 027b f33d 552e 4a3e 32c4 053b 9f93 bf3d
000000b0: 74d3 a33b f636 a9bd f086 6abc 0a7a b6bd
000000c0: 0fbd 203d 1a7f af3d 7268 a0bd 9835 acbd
000000d0: a756 133e efe2 93bd 351c d23b 99de 06be
000000e0: 1e42 e2bd c600 5ebd 417a 8fbc d8de 28bd
000000f0: c3dd 393c 07a2 063d ff77 b93d 9c2a 903d
00000100: 4049 0fbd 40aa 813a 0b97 3f3d 8dbc c9bd
00000110: 3311 6b3c c5f3 c0bd bf4c 41bd ec6d b23d
00000120: c033 823b 0b5d a7bd ce04 abbd 7df6 92bd
00000130: aaee 4dbd 6620 e93b 8f81 9bba 0933 e63d
00000140: e026 683e afc8 de3d 2fd6 f3bc d1b5 00bc
00000150: b5d0 a0bc 1245 273e 3452 c9bd 6985 45bd
00000160: 737f a2bd e037 eabd ac89 ff3d 04ec 9fbd
00000170: 8c2f 60bd 3a09 5abd dad8 ad3d 7023 71bd
00000180: ce6c 4fbe 4dee be3d 6f8e bebc 98b6 efbd
00000190: a485 e33d 4695 163d 843a 373d f334 be3d
000001a0: 0f30 3abd 5be2 3cbe a53b d9bc b8e2 72bd
000001b0: 47b6 353c 2351 423c 5e0c aa3d b1d0 66bd
000001c0: 3f39 453c da91 a53c 4217 da3d f1d5 0b3e
000001d0: 03f9 d0bd 3646 8abc ce6b ab3d 38ce 05be
000001e0: 9f5c a4bb a37e 103d fdcd 283d b49b a23b
000001f0: 5fc8 e93d 3d9a bd3c c023 f03c 5c31 473d
00000200: dc42 9bbd c6b8 b4bc 5aac 253b 5af1 4dbd
00000210: 0a3c 90bb 2100 a1bc c490 773d 54a0 2fbd
00000220: c3c1 91bd 59be a4bd 173e dc3c 4d79 bbbd
00000230: 87d9 73bc edde 36bd f510 69bd 0211 d03d
00000240: 5695 cc3d e695 1d3c c8bb a8bd 93ed 8d3b
00000250: ecaa 5f3c a90d b63b 980d dc3d 63d2 29be
00000260: dc40 7fbd fe98 e13c c2b6 bc3d ec8b 553c
00000270: 1ea8 d23c 6022 1abd bfb8 cdbd cd1f 66be
00000280: 9470 563d dca5 9f3d fd3e 11bd c06a 05be
00000290: 2a96 90bd 501d 463e b9c5 353d 502c a33c
000002a0: c4c6 25be 3a99 453e 94ff 00bd 5c86 27be
000002b0: 7eee 87bc b0c3 703d a6a1 9dbd 6797 003e
000002c0: 73b9 a03c 0999 fdbd 9a17 073d a4a1 f73c
000002d0: 2996 bfbc 3084 12bd 1648 89bd a36d 833d
000002e0: 7f00 093e bd3c 4a3e add8 ff3b 5274 cf3d
000002f0: 1b03 c6bb fa90 b6bd 8cc7 06bc eb53 adbd
00000300: cb2b 2d3d 9aaa 963d 608e 9abd 3e0b 8cbd
00000310: c43f 1c3e 17f2 aebd 7e86 253c 04b6 08be
00000320: 5fba 57bd d009 c4bb 6b7b 9ebc aa6d a0bd
00000330: fa6c a13d 902d 293d 7e0a dc3d 3750 8b3d
00000340: 02df 48bd 9aed a7bc 8ad2 a1bc c218 f2bd
00000350: 91c2 923c 00c6 5dbd 67d6 23bd dac7 6f3d
00000360: 4812 11bd fa03 14bd 84c0 8fbd 8187 91bd
00000370: e424 5bbd e444 02bc 4d1c 3b3c 751c d93d
00000380: 6cf2 6d3e 4854 d23d 08e5 e0bc 7368 69bc
00000390: edc2 f4bc 6cb9 2c3e c190 e0bd 23de 23bd
000003a0: 9d9b bcbd d87f cabd 0549 bc3d ac40 abbd
000003b0: 62ea 2bbd 4201 40bd 61d7 c23d cc48 7fbd
000003c0: aef0 46be c56e a63d ca99 bebc de99 e4bd
000003d0: c546 d73d 820d 203d 6d84 123d 2b9d bf3d
000003e0: 8997 50bd 5a4e 1abe 1d95 d9bc e255 88bd
000003f0: 5ebf db3c 85d3 403a 8ce8 a33d 3427 68bd
0.1001345 0.00563464 -0.08163369 0.020699164 0.021953069 0.02034056 0.103662536 -0.15651904
-0.062891066 0.034660544 0.09051407 0.004529698 0.031995237 -0.040038392 -0.09345303 -0.21730861
0.05471512 0.080774285 -0.036979202 -0.11168285 -0.085186705 0.19016202 0.0527554 0.022710597
-0.1507995 0.183533 -0.035705473 -0.1496198 -0.01580599 0.050692525 -0.08573659 0.11308041
0.005176859 -0.09075002 0.032990225 0.028210916 0.0030551981 -0.041019693 -0.0715443 0.080420755
0.11888696 0.19744237 0.002041113 0.09354328 0.0049995724 -0.08262436 -0.014314398 -0.08909996
0.0392428 0.085691646 -0.07832421 -0.0840866 0.14388524 -0.072210185 0.006412054 -0.13170852
-0.11047767 -0.054199956 -0.01751435 -0.041228145 0.011344376 0.032869365 0.090560906 0.07039377
-0.034981966 0.0009892657 0.046774905 -0.09850416 0.014347362 -0.09421495 -0.04719233 0.08712372
0.0039734542 -0.081720434 -0.08350526 -0.0717592 -0.050276436 0.007114458 -0.0011864173 0.11240203
0.2267108 0.10878121 -0.029765217 -0.007855848 -0.01963077 0.16334942 -0.09830132 -0.048222933
-0.07934465 -0.114364386 0.12477431 -0.07808688 -0.054732844 -0.053231455 0.08488627 -0.058871686
-0.2025635 0.09322796 -0.023261277 -0.11704749 0.11109474 0.036763452 0.04473354 0.09287443
-0.04545599 -0.18445723 -0.026517699 -0.059298247 0.011090822 0.011860165 0.0830314 -0.056351367
0.012037574 0.020211149 0.10648967 0.13655831 -0.10203745 -0.016879182 0.083701715 -0.13066947
-0.005015924 0.03527702 0.04121207 0.004962409 0.11415171 0.023144836 0.029313922 0.048631057
-0.07581112 -0.022060763 0.0025279731 -0.050279 -0.0044016885 -0.019653382 0.060440794 -0.04287751
-0.07117035 -0.080441184 0.026885075 -0.09153996 -0.0148834055 -0.044646192 -0.056900937 0.10159494
0.09989421 0.009618258 -0.082389414 0.0043312996 0.013651591 0.0055558276 0.1074478 -0.16584162
-0.062317714 0.027538773 0.09214546 0.013033848 0.02571493 -0.03763044 -0.10045003 -0.22473069
0.052353457 0.07795307 -0.03546046 -0.13029003 -0.070598915 0.1934712 0.044378016 0.01991859
-0.16189104 0.19296733 -0.03149374 -0.16359848 -0.016593214 0.058780372 -0.076968476 0.12557755
0.01961968 -0.12382705 0.032981493 0.030228443 -0.023387032 -0.035770595 -0.067032024 0.06417396
0.13379095 0.19749732 0.007807812 0.10129608 -0.0060428507 -0.08914371 -0.008226287 -0.08463272
0.042278092 0.073567584 -0.07546687 -0.06838082 0.152587 -0.08542269 0.010102866 -0.13350683
-0.05266797 -0.005982615 -0.01934596 -0.07833417 0.07882114 0.041303217 0.10744189 0.06802409
-0.0490408 -0.02049904 -0.019753713 -0.118211284 0.017915042 -0.054143906 -0.039999392 0.058540203
-0.035417825 -0.036136605 -0.07019141 -0.071059234 -0.05350198 -0.007950995 0.011420322 0.10601131
0.23237008 0.102699816 -0.02745296 -0.014246094 -0.029878104 0.16867608 -0.109651096 -0.040006768
-0.092093684 -0.098876655 0.09193615 -0.083619446 -0.04197157 -0.0468762 0.095137365 -0.062325284
-0.1942775 0.08126596 -0.023266692 -0.1116216 0.10511545 0.039075382 0.035770822 0.09356149
-0.050925765 -0.15068951 -0.02656036 -0.06657006 0.02682465 0.00073557376 0.08003339 -0.056678012

bias f4 [4]
00000000: 1294 e1bd 8d36 b9bd 5d13 b7bc 0bb0 46bd
-0.1101457 -0.09043608 -0.0223481 -0.04850773
